models/actor-critic/actor_v1.pth (torch, 10264 bytes, 4 tensors)

fc1.weight f4 [128, 11]
00000000: 1ce0 f8be fb0c a2bf 1251 17be ac41 14bf
00000010: 2334 2d3f dffc 353f 35e4 3a3e a41f 0cbe
00000020: d8f1 abbd 4462 663e b16f 85bf 244c 92be
00000030: 2dc1 b5bf d40f 073f 67ca b73c 7c10 82bf
00000040: 2581 63bf 1412 b63e b6bd b43e ee23 b1be
00000050: 6cff 67bf 1989 4f3d 1d5a 90bf ea5d 36bf
00000060: c505 02bf cdab 123e 5a7c 3c3d a3eb 643d
00000070: 8180 0f3f f22f e5be 343a 1a3f a221 7e3e
00000080: 6182 2fbf 5844 c5be 7d30 10bf 5b31 06bf
00000090: bcd8 aa3e c919 d33e 04fd dd3e 9bb6 3ebe
000000a0: 5346 2ebe 24f8 cebe a7be 2ebf 7861 7d3f
000000b0: e7db 7abf 35ef 1b3f d0c6 833e 5797 873f
000000c0: 87f4 4fbf 0b2e 493f 3271 54bf 080c 973e
000000d0: 839e fdbc 6488 36bf eeb4 41bf 1f2e 033f
000000e0: 95fb 663d 5d4f a2bf 73bf 5e3f c3b3 7dbd
000000f0: 9239 dc3e f6f5 79bf 0a17 6bbe c504 ccbe
00000100: 95ae e93e ca6f 96be 735d 32be 47ef ffbd
00000110: 4bdc 803e 6e7f eebe 0e53 133b 3a2c 8cbe
00000120: 1ab1 23bf f71b 90be a379 82bf d748 edbe
00000130: 2d25 2b3c 76c6 e1bd ce59 d1be c8fb e3bf
00000140: c334 313f 2a32 98bf 7263 84be 33d8 aa3e
00000150: fd28 523e 68c1 d9be 2afb 853f 14f9 84bf
00000160: 3899 91be af0e 3cbf 2c8f a13d ae69 54bf
00000170: a316 fb3e 881c c43e a793 783d 25e5 53bf
00000180: 3da3 db3e 99ca debd aae9 03bf 9e39 74be
00000190: d861 1b3f f8c3 c2bf a03f c3bf 7ec3 433f
000001a0: 4ab8 313e 8894 a7bf 12f7 533e 54f2 0fbf
000001b0: e197 3e3d 85d7 323f 4b21 dfbd 255c 7c3f
000001c0: 81e0 59bf 1f07 c5bf b3f6 313f 8845 933e
000001d0: f4a0 18bf f100 a5bd b25f 293f 744a ea3d
000001e0: a5d0 18bd 364d 8abf 3f05 493f dda1 d53e
000001f0: 74d8 0bbe a50c a23f d465 9ebe 0a51 90bf
00000200: 8a20 31be 5ef2 51bf e276 e53d 1612 33bd
00000210: 7ed7 f4bf f1d8 7a3f 8720 e3be 563b 853f
00000220: 03d3 eebe 62f5 98be 8e54 b7bf c463 1c3f
00000230: ece5 e83d 7386 9dbe 06a3 13bf c0bd 8cbf
00000240: 2fdc b0be 5ea5 ddbe cb38 183f b3d3 0abf
00000250: 9e54 0d3f 5cca 853f 9596 08be fe27 4fbf
00000260: 908a 4e3f c575 12bf 1e79 66be 9281 163f
00000270: bc91 c2bf 9104 6abf c82c b4bf 8569 283f
00000280: bb90 c73d 6b6e 853e e130 3f3f ea52 ffbe
00000290: a523 683e 86a8 49bf 7d6d 6f3e dec3 99bf
000002a0: 054f 03be ceb0 923d 8aba 683f 03c1 d03e
000002b0: 5ade 2ebe f4c2 633e 375e a1bf 70b9 e93d
000002c0: 2c14 3d3f a1e4 973f 00b3 35bf 7fbf 98be
000002d0: 373a 833e 6bff 5cbf 7455 edbf 1f00 933e
000002e0: b07d d93e 1c64 febe 8ac8 603e 6932 63bf
000002f0: 99e4 943d 5bb2 0c3f 94d1 8f3f 4359 afbf
00000300: 4cc5 57bf 1726 7cbe d26c a1be 0e9d 623e
00000310: 764b cb3e 4e9b 6f3d 7461 09bf fee9 4f3f
00000320: 0447 43bf 992b e2bf b24a 1f3f d7d4 f3bc
00000330: ce1b 50bf e9bf 823e 64cd 083f 5ffb 783e
00000340: 3b72 90be 6c3d b33d 0f10 c9bf c262 143f
00000350: 8c8c 06bf f2aa 45bf 17ae 203f 6764 7d3f
00000360: 4b09 a93e 1d48 9abe eb15 773a 6926 d9be
00000370: 71b0 d7be c863 4abf 4b1c b6be f706 433f
00000380: efa2 00bf f9c6 723f 1c6e 553f 6a65 e1bd
00000390: 16be 15be 27fd 0a3f e276 80bf 1a1f e3bd
000003a0: eb67 4dbf 1cf3 48bf 1a3f 433e f973 f4be
000003b0: b8f1 b53e 9789 e23d e12a 71be f45b d33e
000003c0: e9a7 37bf 9266 133f 5cab 01bf 3fba 993e
000003d0: b7fb 69bf 6cd8 98bd 50b4 573f 560b ab3e
000003e0: d54e 80bf 0e81 13bd cc7b 32bf 17d8 7dbe
000003f0: 7f18 4d3f b36b 09bf ac62 5d3f 2e92 88bf
-0.48608482 -1.2660211 -0.1477702 -0.5791271 0.6765768 0.71088976 0.18251117 -0.13683945
-0.083957374 0.22498423 -1.042471 -0.28573716 -1.4199578 0.52758527 0.02243538 -1.0161281
-0.88868934 0.35560668 0.35300988 -0.34597725 -0.9062412 0.050667856 -1.12775 -0.7123705
-0.50790054 0.1432335 0.04601703 0.055888783 0.56055456 -0.44763142 0.6024506 0.24817517
-0.6855832 -0.38528705 -0.5632399 -0.5241906 0.3336848 0.4123061 0.43357098 -0.18624346
-0.17019014 -0.4042369 -0.6825966 0.9897685 -0.97991794 0.60911876 0.2573762 1.059306
-0.81232494 0.7858588 -0.8298522 0.29501367 -0.030959373 -0.71301866 -0.756667 0.5124225
0.05639227 -1.268047 0.8701088 -0.061939012 0.43012673 -0.9764093 -0.22958007 -0.3984739
0.45641008 -0.29382163 -0.1741846 -0.124968104 0.2516807 -0.46581596 0.0022479924 -0.27377492
-0.6394211 -0.28146335 -1.019337 -0.46344635 0.010445875 -0.110241815 -0.40888828 -1.7811213
0.69221133 -1.1890309 -0.2585712 0.33368072 0.20523448 -0.4253037 1.0467274 -1.0388513
-0.2843721 -0.73459905 0.07888636 -0.82973754 0.49040708 0.38303018 0.060687687 -0.8277152
0.42897978 -0.10878486 -0.5152842 -0.23850104 0.6069617 -1.5216055 -1.5253792 0.7647017
0.17355457 -1.3092203 0.20699719 -0.5622914 0.04653156 0.69860107 -0.10895022 0.985781
-0.8510819 -1.5392798 0.6951706 0.28763986 -0.59620595 -0.0805682 0.66161644 0.11439982
-0.037308354 -1.0804813 0.7852363 0.41725054 -0.13656789 1.2660109 -0.30937064 -1.1274731
-0.17297569 -0.8201045 0.11204316 -0.04371842 -1.9128263 0.97987276 -0.44360754 1.0408733
-0.46645364 -0.29874712 -1.4322679 0.6108973 0.11371979 -0.3076664 -0.5767063 -1.0995407
-0.34542987 -0.43290228 0.5946166 -0.5422928 0.5520724 1.045238 -0.13338692 -0.809204
0.8068018 -0.5721095 -0.2250714 0.5879146 -1.5200725 -0.9141322 -1.4076166 0.6578601
0.09744402 0.26060805 0.7468396 -0.49867946 0.22669847 -0.7877277 0.2338161 -1.2012899
-0.12823112 0.07162629 0.90909636 0.40772256 -0.17077008 0.22242337 -1.2606877 0.114123225
0.73858905 1.1866647 -0.7097626 -0.298336 0.25630352 -0.86327237 -1.8541703 0.2871103
0.42478704 -0.49685752 0.219515 -0.88748795 0.07270164 0.5495965 1.1235833 -1.3699116
-0.84285426 -0.24623905 -0.31528336 0.22130224 0.3970601 0.05849772 -0.53664327 0.8121642
-0.76280236 -1.7669555 0.6222335 -0.029764576 -0.81292427 0.2553704 0.534384 0.2431464
-0.2821215 0.0875195 -1.5708026 0.5796319 -0.5255821 -0.77213967 0.6276564 0.98981327
0.33014902 -0.30133143 0.0009425568 -0.42412117 -0.42126802 -0.79058504 -0.3556846 0.761825
-0.50248617 0.9483486 0.8337114 -0.11005671 -0.14623293 0.5429253 -1.003628 -0.110899165
-0.8023669 -0.78495955 0.1906704 -0.4774473 0.3553598 0.110613994 -0.23551513 0.41281092
-0.71740586 0.57578385 -0.506521 0.30024907 -0.9139971 -0.07463154 0.8425951 0.33407086
-1.0024058 -0.036011748 -0.6972015 -0.24789463 0.80115503 -0.5367996 0.86478686 -1.066961

fc1.bias f4 [128]
00000000: 4a02 af3d 6d6e 2cbe 9d3d f9bd 9ecc 443d
00000010: 3d37 acbe 4afd ce3c 1c6a 87be bb70 c6be
00000020: d4c7 cfbe 7dd3 49be c317 7ebe c90b c2bd
00000030: 044d 27be 5010 d6be 7566 88be b2ca b8be
00000040: 504c 72be a5a1 83be 529a 06bf 8c6d 8fbe
00000050: 4974 f5be 499d c6bd 7b32 8dbe 58f4 4cbe
00000060: a73d 12bf 17e6 83be 6a14 b53d 6dae a0be
00000070: f3c8 b2be 6c4d 6abe a3eb 98be eec0 aebe
00000080: 01c2 0bbe d444 d6be 0f34 b1bd 9a17 cebe
00000090: f403 bbbd dd28 593d f12d d4bd 79ea 39be
000000a0: 27f8 9cbe e3bf dd3c 95b8 dcbe 8aaf 46be
000000b0: 9383 43be 67be a63e cb04 19be bd75 56bd
000000c0: 6e22 263e 8ed1 f3bd 5f14 7ebe 0249 31bd
000000d0: 7e42 34bd feb2 f13d 761e f33d 0f98 8cbe
000000e0: 4aa6 913e 4731 4abe 2b43 02be 1950 13be
000000f0: a6a7 62be a07c f2be 06f5 94bd 0d2d 2a3e
00000100: 711e abbe db57 86be df42 133d b771 16be
00000110: fb6e 7bbe d1ef 44be b6d5 7bbe edf8 503e
00000120: bbda a0be cefe c4be 4f81 433e ff8f 9c3e
00000130: 2014 ad3e 0cde 08bf f1b6 1fbf cceb d8bd
00000140: ea48 e4be b730 c6bd 24f5 5abe 8591 d3bd
00000150: b0e9 63be ddf8 cfbe 3588 a5be fe3a 343e
00000160: 0d3d 04be 5941 6fbe e547 413c 09c4 d03c
00000170: dda6 b6be e54a cabd 998a 27bd e0a4 56bd
00000180: 4250 52bd d468 dabe 3d4b 663e 81a9 6fbe
00000190: 054e 13bc 23f5 65be c830 48be af16 8f3d
000001a0: b6a2 dcbd 397f 95bd face b4bd 1ca9 963d
000001b0: 8129 16bd 2dc3 d0be d7cf 02bd c771 c7bd
000001c0: 2445 b6be d194 06bd f1fd 76be ab84 41bd
000001d0: e21c 0cbf 65c1 92bd 9d6b 9fbe d9e5 6e3d
000001e0: 5f0e 8abe ed49 93be 1fa6 69be 21cc c4be
000001f0: 1ce6 31be eded 803e c2a0 adbe 43b5 54be
0.085453585 -0.16838999 -0.12169955 0.0480467 -0.33635893 0.025267262 -0.26448143 -0.38757882
-0.40582144 -0.19709583 -0.24813752 -0.09474904 -0.16337973 -0.4180932 -0.2664067 -0.36092144
-0.23661923 -0.25709262 -0.52579224 -0.28013265 -0.4794028 -0.096979685 -0.27577576 -0.20015085
-0.57125324 -0.25761482 0.08841784 -0.31383076 -0.34918937 -0.22881097 -0.29867277 -0.3413157
-0.13648225 -0.41849387 -0.086525075 -0.40252382 -0.091316134 0.053017486 -0.10360325 -0.1815585
-0.30658075 0.027069038 -0.43109575 -0.194029 -0.1909316 0.3256714 -0.14943235 -0.052358378
0.16224071 -0.11905204 -0.24812458 -0.043282516 -0.044008724 0.11801718 0.11871044 -0.27459762
0.2844718 -0.1974536 -0.12720935 -0.14386024 -0.22134265 -0.47360706 -0.07273297 0.16618748
-0.33421662 -0.26238903 0.035952445 -0.14691816 -0.24554054 -0.19232108 -0.24593243 0.20407458
-0.31416878 -0.3847565 0.19092296 0.3057861 0.33804417 -0.53463817 -0.6238852 -0.1059185
-0.4458688 -0.0967726 -0.21382576 -0.1033049 -0.22257113 -0.40619555 -0.3233048 0.17600629
-0.12913914 -0.23364772 0.011796926 0.025484102 -0.35674182 -0.09877566 -0.04090366 -0.05240333
-0.05134607 -0.42658103 0.22489639 -0.23404504 -0.008990769 -0.22456793 -0.19549859 0.069867484
-0.10773222 -0.072996564 -0.0882854 0.07356474 -0.036660675 -0.40773907 -0.031936493 -0.09738498
-0.35599625 -0.032856766 -0.24120308 -0.047245663 -0.5473157 -0.07165793 -0.3113679 0.05832467
-0.2696409 -0.28767338 -0.22817276 -0.38436988 -0.17372936 0.25181523 -0.3391171 -0.20772271

fc2.weight f4 [4, 128]
00000000: eae4 083d e2fb a53f be35 67bf 4167 143f
00000010: 05bc 9b3f cdda b8bd c079 b0be 84ca 05bf
00000020: 6499 2dbe cb57 9a3f 747a 4c3f 20a0 2e3f
00000030: 41c4 c33f ba63 00be d006 22bf a8dd d33d
00000040: dc40 833f d0a9 9e3f 00bb 083f 570b 313f
00000050: 6e7f 98bd fedb 90be 70b6 5f3f 9d9d 963f
00000060: 6582 913e 0b46 1d3f 9820 c7bf 1f8b 193b
00000070: b1ef 4cbe 7285 823f 5c1d 5a3f a6cd 0abf
00000080: ab88 953f 134a 08bf dc48 f3bd 5fb1 1fbf
00000090: d002 5abf 109e 033f a9c2 ec3f 968d 09bf
000000a0: 82db 733f 5f38 7c3f 4f2f a6be daeb 553f
000000b0: d156 953f 8348 aabf 4dd1 8dbf ad07 59be
000000c0: e876 f5be 55a5 52bf ccdd 693f 6d29 9c3f
000000d0: 4e6d c73f 8ae6 9b3f 371d 833f 683f 34be
000000e0: b452 a13f 49f0 4d3f f548 6a3f 4a27 2abf
000000f0: e83f 073f 3663 e03e a056 46bb 519c 063f
00000100: 3651 003e f713 783e 6793 9e3f 4bd3 20bf
00000110: f96f 573f 305a 8c3f 1fbf 493f def7 1ebf
00000120: 5928 803f 2bec 4ebe b6ef 283f 0d58 4e3f
00000130: 6563 53bf 0eb5 97bd 1341 9e3f 32b1 cabe
00000140: 4d88 863f af51 9b3f 7236 a63f 10aa 50be
00000150: 8375 4bbc 5538 2b3f 21ad 09bf 1411 233f
00000160: 1b9c 893f 21fe c3be a1eb f3bf cc58 6abe
00000170: c337 ad3f f4dc 07be fe17 b83e 9ffe 7c3f
00000180: 5cee 81bf a65b 703f 3ba7 54bf bd4c dc3f
00000190: 5498 94bf f6a7 8e3f 4e0e 95bf 26c6 7b3f
000001a0: e40d b03f 5269 163f 7e98 e43e b865 1cbf
000001b0: ef0f 44bf a2cf f23e 3e40 77be 05cf 56bf
000001c0: bd99 6e3e 8af7 b43f 6c79 a73f 94dc 023f
000001d0: 6fe0 8f3e 218e 8b3f 789c 6cbe b75e 753f
000001e0: b0c1 06bf a209 dd3f fccb 223e d109 713f
000001f0: 568d 39bf 307e fa3f f537 163f 63cf 5abf
00000200: 2eb7 37bf d619 163f 8856 6abf 1135 453f
00000210: 36ec 843e a11e c63e f436 e83e d2dd 3ebf
00000220: 6885 debe 4f40 b83f d861 953f e1dc 753f
00000230: 05b4 dbbe 3a53 4e3e 3cf6 953f 0560 303f
00000240: 24a7 fc3e 2ba5 ed3e d6f2 763f 9c8d 37be
00000250: 7f87 a2be 881c 4d3f 93ac a93f 8d8a e73e
00000260: 9a76 693f ceaa b13f 99f1 dc3e f4cf 3c3d
00000270: 20d4 6fbc d3b9 a13e e573 94bf 277e 813e
00000280: ffda 963e f9ac 77bd a8ce 493f 90b1 aa3f
00000290: d095 7e3f fb88 643f 53fe 01bf 1ade 8ebd
000002a0: 912d 5abe 91de b13f efce ea3e eb2d 65bf
000002b0: 23f7 27bf 4488 463f 1931 5e3f 97c8 cd3f
000002c0: 07c9 e33f d488 913e 0997 83bf ff4b 263e
000002d0: 2de9 46be 67ca 6d3f c94b 423f 0a88 b33f
000002e0: 94ca 843d 5cc7 2d3e 33b1 92be 796e 88bf
000002f0: ad8d 9c3f 9e62 8d3f 2dd8 a03d fa53 fbbe
00000300: 30da 7d3d 9a39 133f b4ce 44bf 7ba9 153f
00000310: 005d 4d3e aaf4 30bf ba22 8fbd 94c6 d93f
00000320: b751 44bf 49b8 98bf 2d99 0c3f 3685 9abf
00000330: de89 9d3f 4dc6 883f c9a4 80be 9869 9b3f
00000340: 9041 53be 47d0 1e3f ad70 d93c e3c4 73bf
00000350: 5ade 0e3f a5e9 3b3f 7824 9d3f a458 853f
00000360: 8b39 1fbf 890a 833f 961b 893f b5fa a93f
00000370: bbb4 6ebf 6610 be3f 6d84 d6bf 362f 71bf
00000380: ddd3 5dbf f0d5 d5be df7a 9e3f 33d6 85bf
00000390: 035e bc3e 371c 883f 6d9a d2be b5e4 8bbf
000003a0: eca5 56bf 495c 283f 9468 463e 9b68 5b3f
000003b0: 6bf9 50be 9f1d 1a3f 882f 673f 5190 d33f
000003c0: 8f5a e1bf 240b 223e c989 103f 8395 493f
000003d0: af9b 623f fd33 8d3f 7bd5 b0be b937 b4be
000003e0: 82c1 8e3e bba9 a9be 3a2d 4f3f 673b 85bf
000003f0: 6ec7 bc3f c123 0ebf c9f8 c2be 9b98 373d
0.033421434 1.2967494 -0.9031638 0.5797005 1.2166754 -0.09026108 -0.34467888 -0.5226214
-0.16953045 1.2058042 0.7987435 0.6821308 1.5294267 -0.12538043 -0.63291645 0.10345012
1.0254169 1.2395573 0.5341034 0.6915793 -0.0744618 -0.2829284 0.8738775 1.176685
0.28419796 0.61435 -1.5556822 0.002342887 -0.2001331 1.0196974 0.8520105 -0.54220045
1.1682333 -0.5323803 -0.11879131 -0.6238002 -0.8516054 0.5141306 1.8496906 -0.5373167
0.9525682 0.98523515 -0.3245797 0.83563006 1.1667119 -1.3303379 -1.1079499 -0.21194334
-0.4794228 -0.82283527 0.9135406 1.2200142 1.5580232 1.217973 1.0243291 -0.17602313
1.2603364 0.8044477 0.91517574 -0.664662 0.5283189 0.43825692 -0.0030264035 0.5258227
0.1253098 0.24226366 1.2388734 -0.6282241 0.8415523 1.0965023 0.7880725 -0.62096965
1.0012313 -0.20207278 0.6599077 0.80603105 -0.8257354 -0.0740758 1.2363609 -0.39588314
1.0510346 1.2134303 1.2985365 -0.20377374 -0.012418154 0.6688283 -0.537798 0.63697934
1.0750765 -0.38279822 -1.9056283 -0.22885436 1.3532642 -0.1326788 0.35955805 0.9882602
-1.0150867 0.93889844 -0.83067673 1.7210919 -1.1608987 1.1145008 -1.164499 0.98349226
1.3754239 0.58754456 0.44647592 -0.6109271 -0.7658681 0.47424036 -0.241456 -0.83909637
0.23300834 1.4138043 1.308393 0.51117826 0.28100917 1.0902749 -0.23106563 0.9584765
-0.52639294 1.7268565 0.15898126 0.94155604 -0.72481287 1.9569759 0.58679134 -0.85472697
-0.71763885 0.5863317 -0.91538286 0.770341 0.25961465 0.38695243 0.45354426 -0.7455722
-0.43461156 1.4394625 1.1670485 0.9604016 -0.42910782 0.20148936 1.171577 0.68896514
0.49346268 0.46415076 0.9646429 -0.17925113 -0.31744 0.8012166 1.325579 0.45222893
0.91196597 1.388025 0.43153074 0.046096757 -0.014637977 0.31587085 -1.1597868 0.2529156
0.29463956 -0.060467694 0.7883096 1.3335438 0.99447346 0.89271516 -0.5077869 -0.06975956
-0.21306445 1.3896047 0.45861003 -0.8952319 -0.65611476 0.77551675 0.8679367 1.607684
1.7795724 0.28424704 -1.0280467 0.16239928 -0.19424887 0.92886966 0.7589689 1.4025891
0.06483951 0.16970581 -0.28650817 -1.0658714 1.2230736 1.104572 0.07853732 -0.49087507
0.061975658 0.5750977 -0.76877904 0.5846173 0.20055008 -0.6912333 -0.069890454 1.7013726
-0.76687187 -1.1931239 0.5492123 -1.2071903 1.2307699 1.0685517 -0.2512572 1.21416
-0.20630479 0.62036556 0.026542986 -0.952223 0.5580803 0.7340339 1.2276754 1.0417676
-0.6219718 1.023759 1.0711544 1.3279635 -0.9324452 1.4848754 -1.6759163 -0.94212663
-0.866514 -0.41764784 1.2381247 -1.0455993 0.36790475 1.063361 -0.41133443 -1.0929171
-0.83846927 0.65765816 0.19375831 0.8570649 -0.20407645 0.6020145 0.903069 1.6528417
-1.7605761 0.15824562 0.56460243 0.7874376 0.88518804 1.103149 -0.34537873 -0.35198763
0.2788201 -0.33137307 0.80928385 -1.0408753 1.4748361 -0.55523306 -0.38080433 0.04482327

fc2.bias f4 [4]
00000000: 8539 fabe ab30 ad3f 79d5 3c3f 3e08 c33e
-0.4887201 1.3530477 0.73763233 0.38092226
