models/actor-critic/actor_v3.pth (torch, 148562 bytes, 6 tensors)

fc1.weight f4 [256, 11]
000000 93 3e 15 3e 14 01 8c be ca e4 b0 3e 2f e7 38 3e
       0.14574651 -0.27344573 0.34549552 0.1805694
000010 c2 12 dd 3e d8 b2 b1 be bd a7 9f bc f8 3a 1d 3f
       0.43178374 -0.3470676 -0.019489164 0.61418104
000020 11 51 0e bf 1a 38 c2 be cf 1e 37 bf ae 20 ac be
       -0.5559245 -0.37933427 -0.71531385 -0.33618683
000030 f9 b9 0c bd 88 97 96 3e df ad 71 3c 67 10 02 3e
       -0.034357045 0.29412484 0.014750927 0.1270157
000040 22 47 84 bd 13 a9 cd be 17 44 d7 be 73 9b 03 3f
       -0.0645888 -0.40168056 -0.42044136 0.5140907
000050 1b 2a c9 bd b9 9a 27 bf c7 2c 9e bd 61 c3 3d 3d
       -0.09822484 -0.65470463 -0.07723384 0.046328906
000060 db 8c 4e bd a4 90 74 bf 01 c1 d2 3e 87 be 28 3f
       -0.0504273 -0.95533204 0.41162875 0.6591572
000070 14 22 b5 3e 22 23 f9 be c2 c8 74 3f ea a0 8e be
       0.35377562 -0.48659617 0.9561883 -0.27857143
000080 10 ba 86 3e 79 1d 92 bd 00 a4 21 3f c1 ce 46 bd
       0.2631383 -0.07134528 0.6314087 -0.04853702
000090 90 c4 aa bc e3 61 85 be b2 cc 3d bd 5c b6 00 3f
       -0.020845681 -0.26051244 -0.04633779 0.5027826
0000a0 f8 bd 0d bf 3a 17 55 3f 7d c6 d2 3e a7 cd a8 be
       -0.55367994 0.83238566 0.4116706 -0.329694
0000b0 c1 95 50 3f a4 b6 b7 3d 12 de cb be ee ba 1c 3f
       0.81478506 0.08970383 -0.39817864 0.6122273
0000c0 a2 41 a9 bd b5 8e da 3e fe f9 c7 be b8 4e ab be
       -0.082644716 0.42687002 -0.39057916 -0.33458495
0000d0 0c e1 cc be 0c 73 a1 3e 74 c9 f2 3e 9b 40 2c bd
       -0.40015447 0.31533086 0.47419322 -0.0420538
0000e0 ab 58 48 bf e6 ea e2 3e c6 c0 3c bf f0 9f bc 3e
       -0.78260297 0.44319838 -0.7373165 0.36840773
0000f0 12 da 08 3e e0 93 92 be 2f 6c 7c be 9b d8 ff 3e
       0.13364437 -0.28628445 -0.24650644 0.49969944
000100 da d3 b4 be c7 07 66 be e0 ec be be 0c dc aa be
       -0.3531788 -0.22463904 -0.37290096 -0.33371007
000110 6f 37 d6 3d 9e a0 82 be 6c 96 b1 3c b9 0a 5d be
       0.10459792 -0.25513166 0.021678172 -0.21586122
000120 e8 37 b3 3d 13 f9 a8 be f2 3f 9c 3d d7 84 ea bd
       0.08750898 -0.3300253 0.07629384 -0.114511184
000130 29 44 71 be 47 e7 be 3d 3b 18 0e 3e 61 1f a8 3e
       -0.23561157 0.093214564 0.1387643 0.3283644
000140 a0 0f 16 bf f4 61 06 be 78 15 d1 3e 1c 99 07 be
       -0.5861759 -0.13123304 0.40836692 -0.13242
000150 6e 37 df be 1b c1 23 3f e4 8b 93 bd 66 47 4a bd
       -0.43596977 0.6396653 -0.072044164 -0.049384497
000160 2b 14 0f bc c1 c1 49 3e 1e 5c a4 3e e5 87 28 bf
       -0.008732836 0.19702817 0.3210153 -0.6583236
000170 69 3a 83 3e 2a 30 02 be 10 51 f1 3e 0d fc 03 bf
       0.256305 -0.12713686 0.47132158 -0.51556474
000180 01 e0 42 3f 95 4e 97 be 3d 9b 46 3e b8 9a 95 be
       0.7612305 -0.2955214 0.19395156 -0.29219604
000190 38 1e 78 3d 11 9c 6b be 4d 51 87 bd ec af 12 be
       0.060575694 -0.23008753 -0.06607304 -0.14324921
0001a0 8e 2d c2 be b9 3f 11 be b1 c1 bc 3c 6f 2f c4 bc
       -0.3792538 -0.14184465 0.023041578 -0.0239484
0001b0 a2 29 84 be e4 a5 ee 3d a6 db 46 be f8 5e 1a bd
       -0.25813013 0.11652735 -0.19419727 -0.037688226
0001c0 1c a4 71 bd 25 1e 03 be 90 89 a7 bc 32 e7 89 be
       -0.058994398 -0.12804468 -0.020451337 -0.269342
0001d0 a2 70 36 be 0d 1a 90 be 56 d8 5b be b3 6a 44 be
       -0.17816404 -0.28144875 -0.21469244 -0.19181328
0001e0 00 52 09 3a 3d 01 d4 3e ed 64 47 bc d6 c1 1e 3f
       0.0005238354 0.41407195 -0.012170059 0.6201452
0001f0 49 22 dd be ab c1 5e bf 72 85 06 3f d6 2b 5e 3e
       -0.4319022 -0.87014264 0.5254737 0.2169641
000200 a2 3a fb be 91 d8 4b 3e 4c 55 80 3f d2 43 93 be
       -0.4906817 0.19906832 1.002603 -0.2876268
000210 f9 9d eb 3e e1 b4 00 3f e1 28 8b be 12 72 af 3e
       0.4601896 0.50276 -0.27179626 0.34266716
000220 82 24 a2 3e eb d6 d9 be 2d a0 ec 3c 74 9a d4 3d
       0.31668478 -0.42546782 0.028884972 0.10381022
000230 f5 4b 9b be f8 f7 59 bf db ab 2a bf 00 b1 1c bf
       -0.30331388 -0.85143995 -0.6666848 -0.6120758
000240 38 6a a7 3d d9 cd 1f 3f 92 4c 5e be 90 6d b9 3e
       0.081745565 0.62423474 -0.21708897 0.36216402
000250 9f 48 04 3f 11 2e ca 3d 8c be 9d be 9d a9 05 3f
       0.5167331 0.09872068 -0.30809438 0.52211934
000260 4d 2c 28 bf 3c 73 9a be e3 24 f1 bd 93 f1 f7 be
       -0.656926 -0.30166042 -0.11774614 -0.48426494
000270 d6 17 6e be 87 fe b6 3e 34 e7 0e 3e 8c 80 b8 be
       -0.2325128 0.35741064 0.13955384 -0.36035573
000280 2a 0a eb be b3 05 05 bf 1a 67 7e be 72 13 5a 3c
       -0.45906192 -0.5196182 -0.24844018 0.0133103
000290 bb 0a 24 3f 4e 75 ac bd 20 f7 6a bd 26 b6 fc bd
       0.64078873 -0.084208116 -0.057364583 -0.123394296
0002a0 c9 57 02 bf aa 1a c5 3e 81 e1 ff bd 12 44 2f be
       -0.509152 0.38496906 -0.12494183 -0.1711581
0002b0 42 d4 21 bf 7a 6b 92 3c f1 89 5f bd f0 cb b0 be
       -0.63214505 0.017873514 -0.05457491 -0.34530592
0002c0 e5 b9 1e 3e 71 11 19 be 55 ee 2f 3f e5 1e 1f 3e
       0.155006 -0.1494806 0.6872304 0.15539129
0002d0 67 1b 13 3f e3 38 21 bf e9 ae 80 bd 26 f8 30 3f
       0.5746369 -0.6297743 -0.062833615 0.69128644
0002e0 47 48 31 bf 55 e8 a3 be 4a 1f bb be 93 c5 30 3e
       -0.6925091 -0.32013193 -0.3654731 0.17262869
0002f0 26 e9 1d 3d b5 5d b8 3e 7a ba cd 3e 75 4d 9d 3e
       0.038552426 0.36008993 0.40181333 0.30723158
000300 90 96 50 be 7e bb 40 bf ed 21 b5 3e 69 b9 ac be
       -0.20369935 -0.7528609 0.35377446 -0.33735207
000310 50 d7 f8 3d bd a0 3a 3f 6c 0a 21 3f 17 9c 06 bf
       0.121504426 0.7290152 0.6290653 -0.52581924
000320 4d c1 a8 3e b3 eb c8 be 06 99 9f be 35 7d fb be
       0.32959977 -0.39242324 -0.31171435 -0.49118963
000330 68 9d 4f 3f 26 22 9b 3e 0d 46 63 bd 13 13 ba be
       0.8109956 0.3029949 -0.055486728 -0.36342677
000340 75 4c 34 3e e0 16 ab be ad 48 ff be 4d 01 ab be
       0.17607291 -0.3341589 -0.49860135 -0.3339943
000350 06 cb fd 3d 76 9b 93 3d 25 c2 06 3e 44 f7 de 3b
       0.12392239 0.07207386 0.13159998 0.0068043787
000360 54 56 af 3d 13 09 a7 be b6 6b 74 be 3b 66 2e 3c
       0.08561388 -0.3262411 -0.23869213 0.010644491
000370 50 bb f6 bd 9a 93 0b 3e 5c 3a 55 bf 83 a0 83 be
       -0.12047446 0.13630524 -0.83292174 -0.25708398
000380 4a ae c3 3e ed 0b b0 3e e1 8d 3a bf 77 4e de 3e
       0.3821891 0.343841 -0.7287274 0.4341924
000390 21 48 24 bf 08 db c5 be e6 99 3c 3f 49 d1 91 be
       -0.6417256 -0.3864367 0.7367233 -0.28479984
0003a0 d0 78 5c 3f 02 13 2a bf cc 40 34 bf 7f f8 73 3f
       0.86121845 -0.66435254 -0.7041137 0.9530105
0003b0 85 fa 86 3e 4b 04 0b bf a5 2b 46 3e 8b 72 9d be
       0.26363006 -0.54303426 0.19352587 -0.30751452
0003c0 75 2d ec ba db d2 01 3f ae 47 a6 3e f4 cb 7f be
       -0.0018018918 0.50712365 0.32476562 -0.24980146
0003d0 ef 0a ee 3d 69 1d 4e 3e 59 3b 73 bf 40 55 03 bf
       0.11623179 0.20128407 -0.9501243 -0.51301956
0003e0 47 9a 4f 3e df e5 88 3e 15 70 a9 be cc 73 20 3f
       0.20273696 0.26737878 -0.33093324 0.6267669
0003f0 67 e6 50 bf 52 d2 1d 3e 3d 2c 33 3f a5 b3 f0 be
       -0.81601566 0.15412262 0.6998938 -0.47012058

fc1.bias f4 [256]
000000 09 92 f6 bc 34 65 82 bd 98 7a 73 3e ce 3e d9 3e
       -0.030098932 -0.06366959 0.23777235 0.4243073
000010 74 55 25 3e cb 6a ae 3e 4d fe 50 be f4 91 8c 3d
       0.16145879 0.34065852 -0.20409508 0.06863776
000020 b7 44 72 bc c9 c9 3c be 6c 2e 85 be 11 fd 0e 3e
       -0.014786891 -0.1843635 -0.2601198 0.13963725
000030 21 6d 01 3e e9 1a 2f be 35 c6 bb bb 5e e4 cb be
       0.12639286 -0.17100109 -0.005730415 -0.39822668
000040 10 12 7a 3e 48 b3 ac be ff c6 70 be ff e5 ad be
       0.24420953 -0.3373053 -0.23513411 -0.33964536
000050 9a 52 92 3e aa 20 12 3e 93 bc 41 3e fd 89 39 be
       0.28578645 0.14270273 0.18919592 -0.18119045
000060 37 76 68 3e ec 85 64 3e 70 09 d9 be 9c 35 08 3e
       0.22701345 0.22316712 -0.42390013 0.133017
000070 bc f5 dd bd 39 7d 95 be d0 07 23 be 5b 69 bd be
       -0.10837886 -0.291971 -0.15920949 -0.36994442
000080 bc 9b 90 ba 77 c0 89 be 6d 06 cc bd cb c7 0b be
       -0.0011032741 -0.26904652 -0.09962163 -0.13650434
000090 49 52 b9 3e b3 44 38 3e fd 31 ff 3c 93 ad c3 3d
       0.3619559 0.17994957 0.031151766 0.09554591
0000a0 b5 4a 85 3e ae 00 30 3e 17 44 4a 3d a1 01 09 3f
       0.2603356 0.1718776 0.04938134 0.5351811
0000b0 69 4d 3e bd 9d 03 26 be bc 40 a9 be 76 2d 3e 3d
       -0.046460543 -0.16212316 -0.330572 0.046430074
0000c0 ed 37 f5 3b 22 ab f6 3e 3e f4 38 be 1d f6 89 be
       0.0074834735 0.4817744 -0.18061921 -0.26945582
0000d0 85 2c 3f be 8c 99 99 be 34 74 b3 3e 1e 56 51 be
       -0.18669327 -0.2999996 0.35049593 -0.20443007
0000e0 58 d3 ef 3d 3d 75 0e bd 01 a3 6e 3e 89 3a 25 be
       0.117102325 -0.034779776 0.23304369 -0.1613561
0000f0 4b 72 7b be 9c f2 10 3e b5 24 73 be 2b 1a b9 be
       -0.24555318 0.14155048 -0.23744471 -0.36152777
000100 78 43 19 be 3a 82 0d be 83 ce 29 be 62 34 ae bd
       -0.14967144 -0.13819209 -0.16582684 -0.08506085
000110 a9 e5 ce 3e 1b 06 20 be d5 31 4c 3e 3f 3c de 3e
       0.40409592 -0.15627329 0.19940884 0.4340534
000120 2d 1a a4 be 7b 7c fc be ec 4e 2f 3e bf 99 b1 3e
       -0.3205122 -0.4931372 0.1711995 0.3468761
000130 cc c0 14 be ce 07 95 be 95 9e 1a 3d 00 29 32 3c
       -0.14526671 -0.29107517 0.03774889 0.010874033
000140 e0 7b 7d 3e b3 1f 0e bf 51 7b 92 3d 50 5d 63 3d
       0.24754286 -0.5551712 0.07152427 0.05550891
000150 71 da 8b 3d 58 29 90 be fe 11 50 bd 1b c6 2f be
       0.06828774 -0.28156543 -0.05079841 -0.17165415
000160 90 d8 51 3c b4 b6 b6 3e 10 6f 05 bd 58 1e bd 3d
       0.01280798 0.35686266 -0.03257662 0.09234303
000170 41 a2 50 3e 75 ca 81 3d bd fa 90 bc 33 cf ef be
       0.20374395 0.06337444 -0.017697686 -0.46837768
000180 fe 6d 14 3e 48 61 c8 be 8f 9b 1c be 30 b8 af be
       0.14495084 -0.3913672 -0.15293716 -0.3432021
000190 c4 40 9a 3e 97 80 c3 be 92 c9 fe bd 21 21 89 3d
       0.30127537 -0.38184044 -0.1244079 0.06695772
0001a0 10 23 b1 3c ad d9 7a be 3d 8b 4b be 6c 8d 49 3e
       0.021623164 -0.24497099 -0.19877334 0.19682854
0001b0 bd 37 96 3d 5f f1 a3 3c d4 82 6d be b6 9f 17 bc
       0.0733485 0.020012556 -0.23194438 -0.009254387
0001c0 be 05 56 be 27 f7 d3 bd 2f 0f f7 3e dc 8e 1b 3d
       -0.20900628 -0.10349875 0.48253772 0.03797804
0001d0 e9 3b 84 3c fe 8a 62 be 14 9f 59 be f7 20 ac be
       0.016141849 -0.22123334 -0.2125209 -0.336189
0001e0 36 54 c1 3d e3 30 93 be 75 fb cc 3d 1c ff 65 3e
       0.0943989 -0.28748235 0.10008899 0.22460598
0001f0 c3 df be be 86 00 9d 3e 06 f8 86 be 48 e6 af be
       -0.37280092 0.30664462 -0.26361102 -0.34355378
000200 d3 9c 0f 3e c4 b2 2e 3e 25 42 ca be ce 38 e5 bd
       0.14024667 0.17060381 -0.3950359 -0.11192475
000210 76 e8 98 bd a8 0d ba 3d b1 71 14 be de a0 c0 be
       -0.074662134 0.09084636 -0.14496495 -0.37622732
000220 c4 02 d5 bd b4 8f 1e 3e d1 0a 92 3e 1f 0c ac 3d
       -0.10400918 0.15484506 0.28523877 0.084007494
000230 ee e0 7e 3b 7e 53 46 be 4e 0b 1f 3e 01 07 a5 3d
       0.0038891393 -0.19367787 0.15531656 0.080579765
000240 e5 10 ff 3e 55 5a 16 bd 2b 6a 62 3e 1a 1b 7f 3e
       0.49817577 -0.03670724 0.22110812 0.24912682
000250 3f a8 4d bd 50 3b 9b be e8 73 a3 be 46 bb cd bd
       -0.05020928 -0.3031869 -0.31924367 -0.10045485
000260 eb cb bd bc 76 a8 d2 3d cf e6 ec bb b3 65 43 3c
       -0.023168525 0.102860376 -0.007229663 0.011926102
000270 4a b2 a2 3d bb f3 90 be e1 27 42 3e 83 7a e7 be
       0.07944162 -0.28310952 0.18960525 -0.45210657
000280 0c 89 69 3d 4e 23 11 be 56 ba 36 3d 07 38 1a bd
       0.057015464 -0.14173624 0.044611298 -0.037651088
000290 3b cb f1 3d e4 82 85 3e 20 92 b5 be e8 44 ae bd
       0.11806341 0.26076424 -0.35463047 -0.085092366
0002a0 87 3c 14 bf 9e 14 d7 bc c1 ec b0 bd 11 e3 04 3f
       -0.5790486 -0.026254948 -0.08638907 0.51908976
0002b0 41 92 51 3e 6f 84 9a be 85 06 a6 3d 02 5c 2c 3e
       0.20465948 -0.30179164 0.08106712 0.16831973
0002c0 22 3a 44 3e 57 07 bc 3d 7f 11 83 3e 48 58 4a 3d
       0.19162801 0.091810875 0.25599286 0.049400598
0002d0 89 ec c2 3d a3 13 95 be 27 53 0b 3e d0 46 c0 bb
       0.09517772 -0.29116544 0.13605939 -0.0058678165
0002e0 3c ca 39 3e 41 2c 72 3e 52 ff d7 3d 77 e9 44 3c
       0.18143553 0.23649694 0.10546745 0.012018553
0002f0 0c c3 bc be f9 e1 40 be df 8c 65 3e cc 6f c7 bd
       -0.3686756 -0.18836202 0.2241702 -0.097381204
000300 8c 3f d6 be b6 a2 64 3e 7c 7f 2f 3d 6b 07 75 be
       -0.41845357 0.22327694 0.042846188 -0.23928611
000310 4d 53 22 3e be 74 5e 3e 9e 3d 0f be a8 bc 91 be
       0.15852089 0.21724221 -0.13988349 -0.28464246
000320 c5 0a 2a 3e e6 48 7c be 41 3b dd 3d bc 4a f2 bd
       0.16605671 -0.24637184 0.108023174 -0.11830661
000330 cd b0 37 3e 02 51 74 be bb b2 80 bd ce 2f 30 bd
       0.17938538 -0.23859027 -0.0628409 -0.04301434
000340 f7 94 d5 be cb e0 eb 3d ea 80 6e be 37 6d 28 be
       -0.41715214 0.11517485 -0.23291364 -0.16447912
000350 e2 f7 90 be bc f0 21 be 91 6a ea bc 39 ef 89 be
       -0.2831412 -0.15814489 -0.028615268 -0.26940325
000360 82 b6 88 3d 3c fd d2 be 74 f1 41 be 0f 8e a5 be
       0.066754356 -0.41208827 -0.18939763 -0.32334945
000370 fc da 1d bd 77 1b 01 be d2 da 3e be 72 46 90 be
       -0.038538918 -0.12608133 -0.18638161 -0.28178746
000380 44 28 43 be b2 b6 23 3e a0 13 84 bd 3b f2 a7 be
       -0.19058329 0.15987661 -0.06449056 -0.32801995
000390 7b b5 81 3e d9 8e 83 3e f3 e7 29 be ff 38 8a bd
       0.2533377 0.25694922 -0.16592388 -0.067491524
0003a0 f7 19 45 be 8f 20 3d 3e 45 9c 4f be 93 f0 cc 3e
       -0.19248186 0.18469451 -0.20274456 0.40027294
0003b0 12 93 01 be 96 9f 55 3c 19 88 98 3e ce fd 69 be
       -0.12653759 0.0130385365 0.29791334 -0.22850725
0003c0 ea c6 75 3e 2a 69 c4 ba d1 40 0f bd f6 b0 bb 3b
       0.24001661 -0.0014984955 -0.034973923 0.0057278825
0003d0 a4 15 9f 3e 61 d8 39 be 6e 14 81 be 0c 03 5b bc
       0.31071198 -0.18148948 -0.252109 -0.013367426
0003e0 2c 72 b5 bd 7f 6a e8 3e 60 e9 86 be 54 4a 4c be
       -0.08859667 0.4539375 -0.26349926 -0.19950229
0003f0 a7 26 48 3e 78 62 0d 3e 04 15 77 bd fe 64 9c 3e
       0.19545995 0.13807094 -0.060322776 0.305458

fc2.weight f4 [128, 256]
000000 17 2a d1 be 08 65 55 bd 15 3d 85 3e 8d c0 22 3e
       -0.40852425 -0.052098304 0.26023164 0.15893765
000010 ac a6 86 be 9d e4 e2 3e 85 24 50 3d 16 22 a2 3e
       -0.26299036 0.44315043 0.050816078 0.3166663
000020 1d bf c1 3e 70 01 4c bd a4 70 3b bd 25 ed 32 be
       0.3784112 -0.04980606 -0.04576172 -0.17473276
000030 f9 51 16 be 96 31 0a 3f 2d d5 d6 3e ef 39 e5 3e
       -0.14679708 0.5398191 0.41959515 0.44770762
000040 67 1a a9 be f7 83 dc 3e 4f 9f aa be 46 1f 9e 3e
       -0.33027956 0.4306943 -0.33324668 0.30883235
000050 a8 a1 35 bd d7 88 9f 3d 45 cb 9c be 8e eb 87 be
       -0.04434362 0.07789772 -0.30623832 -0.265469
000060 70 b4 3b 3e 11 63 34 3e dd c3 1d 3e cf 34 4f 3e
       0.1833055 0.17615916 0.15406747 0.20234989
000070 d9 37 a8 be e0 39 db be d5 02 23 3e dc d1 6d bd
       -0.32855108 -0.42817593 0.15919049 -0.058061466
000080 34 39 13 bd 4d bd 38 be 5f f7 fa be c9 53 9b 3e
       -0.035943225 -0.18040963 -0.49016854 0.3033736
000090 e9 8a 79 3e 16 6b 5d bd 9a 72 31 3f c8 4d 18 bd
       0.24369396 -0.054057203 0.69315493 -0.037183553
0000a0 e7 41 07 3e 01 22 e1 3e 0c 3e 07 3f ca b1 b3 3e
       0.13208733 0.43971255 0.5282905 0.3509658
0000b0 8e cc 87 3e eb f3 28 3e 1d 41 1c 3d a4 91 8f 3e
       0.2652325 0.16499297 0.038148034 0.28040802
0000c0 38 58 cf be 5c 47 be 3e e8 d1 62 bd c4 98 af be
       -0.40496993 0.37163818 -0.055375963 -0.34296238
0000d0 12 89 ed 3e 98 9a b8 be d4 51 d7 3d 3c 7b 8f be
       0.4639364 -0.36055446 0.10513654 -0.28023708
0000e0 68 d2 bc 3d 12 0a fa 3d f4 50 32 3f 20 6b a9 3f
       0.09219819 0.12208952 0.69654775 1.3235817
0000f0 66 d0 0f be 13 16 10 3f f3 e6 ea bd 0b e9 35 39
       -0.14044341 0.5628368 -0.11469831 0.0001734832
000100 ed c0 97 be 85 1c f2 3e b8 35 f0 be cb a9 b7 bc
       -0.29639378 0.47287384 -0.46915984 -0.02241983
000110 86 08 68 3f 84 03 80 bd 4c 97 df 3d a6 73 10 bf
       0.90638006 -0.062506706 0.109175295 -0.56426466
000120 18 81 9b be e6 1b 37 bc 72 5b b4 3d 79 54 74 be
       -0.30371928 -0.011176085 0.08806504 -0.23860349
000130 ee 1b 93 bd 03 8e 7b be 87 33 c1 be d4 45 2a 3e
       -0.071830615 -0.24565892 -0.37734625 0.166282
000140 ad 49 95 3d cb 80 3c 3d f0 8f 08 be ce ff de bc
       0.07289443 0.046021264 -0.13336158 -0.027221587
000150 3c 4a 9e bd 6a 1b ae bc 36 66 da 3e 29 fc c1 3e
       -0.07729003 -0.021253306 0.42656106 0.37887695
000160 f3 f5 01 3e b5 8b 21 bf f6 d7 8e 3e 0b 5d 04 be
       0.12691478 -0.631038 0.2789914 -0.12926118
000170 0a 48 5a 3d 85 a0 b9 be 56 8b 54 be 76 15 20 3e
       0.053291358 -0.3625528 -0.20756277 0.15633187
000180 ab 7f 3e be 65 70 9d 3e ae 71 62 be 80 02 2d 3e
       -0.18603389 0.30749813 -0.22113678 0.16895485
000190 76 a0 fa bd fb b9 5d 3d eb 15 5b 3f 6c b3 85 3e
       -0.12237637 0.054132443 0.8558032 0.2611345
0001a0 94 60 c9 bb 72 96 ee 3c a2 83 4d 3f e5 87 d2 be
       -0.006145546 0.029124472 0.8027898 -0.41119304
0001b0 6a 25 92 be a5 cb 77 be 84 0d 83 3e 15 32 c8 be
       -0.2854417 -0.24198778 0.2559625 -0.3910071
0001c0 d9 a9 02 3d 0f 35 ab 3e e0 50 e8 bd 7f 2c 30 be
       0.03190026 0.33438918 -0.11343551 -0.17204474
0001d0 bb bc 43 bf 2b 7e df 3e c1 20 45 3e 80 c4 53 be
       -0.76459855 0.43650946 0.19250776 -0.20680428
0001e0 32 69 a4 be 98 1c af 3d 3e 09 20 3d 68 d1 31 be
       -0.32111508 0.08550376 0.039071314 -0.17365038
0001f0 d5 0e 30 3e 0b 9f 23 3e f3 1a a8 3e 64 04 94 3e
       0.17193158 0.15978639 0.3283306 0.289096
000200 dc 1a 3c 3e 5e 0f 1b 3f 5b 31 00 3e a8 b4 0f bf
       0.18369621 0.60570323 0.12518828 -0.56135035
000210 19 a6 d9 be 18 05 da bd 68 70 25 bd c8 64 17 be
       -0.42509535 -0.10645503 -0.040390402 -0.14784539
000220 11 fe 94 3d 0c 56 58 3d 8e 92 a5 3e 6f 6d fc bd
       0.07275022 0.052816436 0.32338375 -0.1232556
000230 9c 8d 04 bf 0d 1a 84 3d 73 55 e7 3e 1d f3 d1 be
       -0.5177858 0.06450281 0.4518238 -0.41005793
000240 1f a0 27 3e 74 f0 61 be 68 63 3d bd b9 b9 15 be
       0.16369675 -0.22064382 -0.04623738 -0.14621629
000250 d2 da 19 3e 9d ce f3 be d8 f2 c6 bc 7e e3 ed 3e
       0.1502488 -0.4761857 -0.024285719 0.46462625
000260 e3 75 01 bf 35 39 da 3d e2 d6 13 bf 81 84 df 3e
       -0.50570506 0.106554426 -0.5774976 0.4365578
000270 3c 67 7c bd f2 70 82 bd 1e b7 62 be e6 9b d6 3d
       -0.06162189 -0.06369199 -0.22140166 0.10478954
000280 55 8a 07 3f 6f 89 11 3f 20 e0 ab 3d 74 1b 6d be
       0.5294545 0.5685033 0.08392358 -0.23155004
000290 c7 6e bc 3e c2 18 04 3f 9d 20 d2 3d 6e 3d c8 bd
       0.36803266 0.5160028 0.10260127 -0.09777342
0002a0 c7 e5 ba bd d0 f9 be be 25 77 e9 be 91 57 3e 3e
       -0.09125858 -0.37299967 -0.45598713 0.18588091
0002b0 7a 05 f0 3e de 7b d2 bd 6b 16 0d 3e 97 dc 55 3e
       0.46879178 -0.10277532 0.13778083 0.2088493
0002c0 e7 90 31 be dd ad 94 3e cc 4e 2c 3d 3b 5d c2 be
       -0.17340432 0.29038897 0.042067334 -0.37961754
0002d0 c6 88 05 3e 62 75 6b 3f 33 73 b8 3d 2e f8 97 3e
       0.13040456 0.91975987 0.090063475 0.29681534
0002e0 7d 8c f1 3e 73 c4 40 3e 87 0b 84 be d5 43 22 be
       0.47177497 0.1882494 -0.25790045 -0.15846188
0002f0 88 cc 8f bd 10 6d 18 bd 22 23 15 3f 56 52 80 be
       -0.07021433 -0.037213385 0.58256733 -0.25062817
000300 24 47 44 3e 0d 36 88 3e 76 23 9b 3d 34 b6 9c 3d
       0.19167763 0.26603737 0.07575123 0.0765194
000310 57 86 b5 3e 94 b8 26 3f ed 41 41 be a0 37 18 be
       0.35454056 0.65125394 -0.18872805 -0.14864969
000320 ac 9c 30 be b8 26 4d be 8c e3 2e be 29 ed 2f 3e
       -0.17247266 -0.20034301 -0.1707899 0.17180313
000330 2b fe c0 3d 61 4e f0 bd c6 b8 67 bf 2b f2 9e 3e
       0.09423479 -0.117336996 -0.90516317 0.31044134
000340 bf b3 0a 3c 24 7d 81 3d 41 df 18 3d 03 8a 21 be
       0.008465706 0.06322697 0.037322287 -0.15775304
000350 0f f0 fc bd 8f 6d 85 3e 14 39 81 bc c0 f3 57 3c
       -0.12350475 0.2606015 -0.015774287 0.013180673
000360 76 de bc 3d ee 20 0c 3e 3f 48 92 be e4 33 56 bd
       0.092221186 0.13684437 -0.28570744 -0.05229558
000370 99 e1 10 3e 37 23 94 be 4f 11 f1 be 87 e8 a7 bd
       0.14148559 -0.28933117 -0.47083518 -0.08198648
000380 7d c2 8c 3d 14 67 1b bc 82 2c eb 3e 5f b6 c2 bc
       0.06873033 -0.009485025 0.45932394 -0.023768602
000390 50 73 21 be 98 d5 c8 3e 42 47 77 be ae dd f7 3e
       -0.15766644 0.3922546 -0.24148276 0.48411316
0003a0 ea f2 46 be a0 e7 a8 be cd e2 49 be 1c 77 87 3d
       -0.19428602 -0.32989216 -0.19715424 0.06614515
0003b0 92 8c 3f 3f b5 54 1e be 68 0e e4 bb 90 96 2d be
       0.7482387 -0.15462 -0.006959725 -0.16951966
0003c0 ae 5f 94 3d 6f 4d 91 3e 5a 2e 93 3e 45 47 56 3b
       0.07244812 0.2837939 0.287463 0.0032696289
0003d0 5a 26 1c bf 0e 13 28 3d bb 57 42 bd 3a e6 13 3e
       -0.6099602 0.041033797 -0.047446948 0.14443293
0003e0 ef ff ff 3e 2d 3c ab 3d 93 d8 48 3e f5 46 a0 bd
       0.4999995 0.08361087 0.19613867 -0.07826034
0003f0 f1 04 89 be 87 80 44 3d f4 56 60 3e 8f f2 ce 3e
       -0.26761582 0.047974136 0.2190817 0.40419433

fc2.bias f4 [128]
000000 41 b6 00 be 16 5c bc 3e 7f f4 fe bc a3 77 54 3c
       -0.12569524 0.36789006 -0.031122444 0.012967977
000010 8a 02 7f bd 2b 36 1e be a5 10 61 be b3 c7 d1 bd
       -0.06225828 -0.15450351 -0.21979006 -0.10243168
000020 5c 1b 59 bd 3d 32 94 be 85 0f 6f 3e 00 a6 45 3d
       -0.053004608 -0.2894458 0.23345764 0.048254013
000030 a0 33 94 3e 4a 7d 51 3d 79 3c 11 3e de 7c b7 be
       0.28945637 0.051144876 0.14183225 -0.35837454
000040 10 a1 9b bd 45 32 22 bd 2a b8 99 bd 3d 73 bd bd
       -0.075990796 -0.039598722 -0.0750583 -0.092504956
000050 b2 76 70 3e ed 2a 4d 3e 0e c4 68 bd 83 78 e0 bd
       0.23482779 0.20035906 -0.056827597 -0.10960486
000060 07 3d 2c 3e a1 79 c5 bc 73 19 5b 3b 5b db 63 3d
       0.16820155 -0.024105849 0.0033431917 0.055629116
000070 fd ea 3c bc cc 2b e2 bd 8c cd 9f bd c2 56 13 3c
       -0.011530635 -0.1104351 -0.07802877 0.008992853
000080 d5 a7 8c be 29 b3 00 3e 55 a8 02 3e 31 8c a8 3d
       -0.27471796 0.12568344 0.12759526 0.082298644
000090 61 78 c2 bc 02 2f 31 3e 52 82 e8 3d 0b e7 51 be
       -0.023739042 0.17303088 0.113529816 -0.20498292
0000a0 88 b8 a2 bd 96 dd 31 be 3d 09 c9 bd 4b ee b7 3e
       -0.07945353 -0.17369685 -0.09816215 0.3592399
0000b0 8a f0 02 3f 03 90 6d 3e 17 15 7e 3e 4c 2a 90 be
       0.51148283 0.23199467 0.24812733 -0.2815727
0000c0 5e ff d8 bd 9d 03 b2 3e a6 be 55 3e 36 0f 66 3c
       -0.105955824 0.34768382 0.20873508 0.0140417125
0000d0 58 1a 12 be d0 72 05 3e a5 b2 b2 3e 8a a8 c2 bb
       -0.14267862 0.13032079 0.3490192 -0.0059405016
0000e0 87 e0 a5 3e 21 e2 c1 be bc c4 d0 be ed 80 af bd
       0.32397863 -0.37867835 -0.40775096 -0.085695125
0000f0 37 e8 e3 bd 70 c8 1e 3e 6f fe a1 be d0 f6 51 3e
       -0.11128276 0.15506148 -0.3163943 0.20504308
000100 80 5a ca bd 1c e4 e5 3e 68 a1 cb bd f5 b2 1c bd
       -0.09880543 0.44900596 -0.09942895 -0.038256604
000110 5d ca 89 be a9 7d 13 3e e5 59 73 3e 3a 78 bf bd
       -0.26912203 0.14403404 0.23764761 -0.09349103
000120 c6 a1 da 3e f0 6a 17 be bf 97 85 bc 4b b0 99 3d
       0.42701548 -0.14786887 -0.01630771 0.07504328
000130 1b d1 7a bd 00 49 09 3e 38 b2 96 3d 7f 16 3a be
       -0.061234575 0.13406754 0.07358211 -0.18172644
000140 24 ec 49 be ff 02 7e bd a4 bd 91 3e 2e 89 51 3d
       -0.19718987 -0.062014576 0.28464997 0.051156215
000150 9c 11 23 3d b1 55 b5 3e 6d 4d 80 bc 8b 70 53 bd
       0.039811715 0.3541694 -0.01566192 -0.051621
000160 81 69 f0 3c a6 98 15 bd a8 04 bb bc e7 ef 50 be
       0.029347183 -0.03652253 -0.022829369 -0.20404015
000170 4a 9c a9 3b 34 5c 21 3e 01 be 86 3d b8 e3 ae bd
       0.005176102 0.15757829 0.06579209 -0.08539528
000180 ed 93 a1 be 51 1c f7 3e 59 fa 2e 3e 77 7c 94 3d
       -0.3155817 0.4826379 0.17087688 0.07250302
000190 ec db 9d bc a6 6d 64 3e 97 9b 20 3e 66 46 89 be
       -0.019269906 0.22307453 0.15684353 -0.26811522
0001a0 4d de 58 3c cf dc 4d be a4 13 29 3e 44 46 ca 3e
       0.013236594 -0.20103763 0.16511399 0.39506733
0001b0 9f be 22 bd 24 04 25 bd 5b ab 30 3e 4e 03 97 bd
       -0.03973257 -0.040287152 0.17252867 -0.07373677
0001c0 cd 70 08 3f 01 f7 b7 3d 0c e5 1b 3c e1 f5 a1 3e
       0.5329712 0.08982659 0.009515058 0.31632903
0001d0 c4 34 64 3e 1a 5d d6 bd bc 77 25 be d7 b2 8d 3d
       0.22285753 -0.104669765 -0.16158956 0.069188766
0001e0 3e 46 08 3e 57 31 64 be c5 83 89 be d1 0b 33 be
       0.13308045 -0.22284447 -0.26858345 -0.17484976
0001f0 9c 69 7c bd f2 fc ec 3c 5e d9 b0 3e 5d 6c ab 3e
       -0.061624154 0.028929207 0.34540838 0.33481112

fc3.weight f4 [4, 128]
000000 69 64 86 be d9 ad 35 3e aa 3e b8 3b 97 31 32 be
       -0.26248482 0.17742099 0.0056227045 -0.1740173
000010 75 6b c6 3c 57 08 4f 3d 89 fc 6b 3d b2 a3 c6 bc
       0.024221161 0.050545063 0.057613883 -0.024247978
000020 ff 9f d2 bc a5 f5 4a be 23 e6 de bd 9a 05 49 be
       -0.025711058 -0.19820268 -0.10883739 -0.19631043
000030 1d c3 19 3f ca 3c f5 3e 0b 5c d9 3e 32 7d ee 3d
       0.60063344 0.4789794 0.42453036 0.11644973
000040 de a0 90 3e c8 6b 1f bc 18 7d 67 3d 79 00 53 bd
       0.28247732 -0.009730287 0.056515783 -0.051514123
000050 c6 43 d5 bd 56 71 02 be a3 45 c6 bc f7 c3 8c be
       -0.104133174 -0.12738547 -0.024203127 -0.2749326
000060 7b 62 2b 3e 30 33 51 be 1c c6 80 bd 2e 23 2c be
       0.16736786 -0.20429683 -0.06287786 -0.16810295
000070 16 6d 77 3e c9 91 48 3c 7d db 9b 3c cb ea 5d 3e
       0.24162707 0.012241789 0.019025559 0.21671598
000080 92 f9 b4 3d 7a cd d3 3e bf cb ee 3e 0d b7 ae bd
       0.08836664 0.41367704 0.4663982 -0.08531008
000090 e6 89 1c bc 09 03 91 3e 56 1e b4 3c 37 09 66 bd
       -0.009554362 0.28322628 0.021987122 -0.05616113
0000a0 49 97 e4 bd 07 79 9d 3d 91 fb ec 3d 58 5e 37 3f
       -0.11161668 0.076891 0.1157142 0.7162833
0000b0 82 22 70 3e 3f 23 54 bd a2 12 95 3d 57 eb c3 3d
       0.23450664 -0.051791426 0.072789446 0.09566372
0000c0 e9 40 31 3d e6 8e 1b 3f 9f 3b ba bd da 0e 16 3e
       0.043274794 0.6076492 -0.09093403 0.14654103
0000d0 fa 20 99 bb 2d 04 17 3f c3 c5 a5 be 1b f0 a7 bd
       -0.0046731206 0.58990747 -0.32377443 -0.08200093
0000e0 ad c0 4b be e8 af a2 be 58 d0 2c 3e 61 e9 85 bc
       -0.19897719 -0.3177483 0.16876352 -0.016346635
0000f0 de 63 1b 3c e9 53 2a 3e 08 2e ae 3d 95 ab b8 bd
       0.009484259 0.16633572 0.085048735 -0.09017102
000100 33 ee 0f 3d 69 d7 ba 3e 7c e6 bc be 06 7b b6 3e
       0.035139274 0.3649247 -0.36894596 0.35640734
000110 64 9f a4 be 48 e6 e6 3e 18 cf 5e 3f ec 8b 8b be
       -0.32152855 0.45097566 0.8703475 -0.2725519
000120 a0 5d 2e bf 22 42 a3 bc 7b 3a f7 bc 16 57 09 3f
       -0.6811161 -0.019928996 -0.030179253 0.5364851
000130 40 30 7c bd e5 66 21 be 16 60 03 be 34 df b9 bd
       -0.061569452 -0.15761907 -0.12829623 -0.09075776
000140 fd 61 86 3d 01 be 4d 3d a5 d9 f9 3d 7f d8 40 bc
       0.065616585 0.05023003 0.121997155 -0.011770367
000150 4a 79 91 3e 2c a8 5c 3f 82 a9 03 bd dc 83 ae be
       0.2841285 0.8619411 -0.032144077 -0.34084976
000160 b2 a0 e5 be 7e e3 67 be c6 4c 33 3c ae 47 1c 3e
       -0.44849163 -0.22645375 0.010943597 0.15261719
000170 80 82 ab be d7 43 ae 3d 7f 57 90 bd 4f b0 b0 bb
       -0.33498 0.08509033 -0.070479386 -0.0053921114
000180 d4 cb c5 3e c8 1e 50 3f 21 96 4c 3f 99 71 ad be
       0.3863207 0.8129697 0.7991658 -0.3387573
000190 97 f3 bb bc a2 81 46 bd 8d 71 6b bd 20 ab 91 3e
       -0.022943301 -0.04846347 -0.057481337 0.2845087
0001a0 2f cf ad bc 48 69 52 3e 0f 5f 23 bf 25 0e 17 bf
       -0.021216957 0.20547974 -0.6381692 -0.5900596
0001b0 e7 fd 9e 3c 80 e0 14 bd 22 82 41 3f 28 3f 43 3e
       0.01940818 -0.036346912 0.7558919 0.19067061
0001c0 0b 19 6d be 54 4a 53 bd f6 d0 c5 be e2 50 15 3f
       -0.23154084 -0.051584557 -0.38635987 0.5832654
0001d0 ed 75 a3 3e 66 10 b6 bd 57 c5 08 be 55 2f 3b be
       0.31925908 -0.088898465 -0.13356529 -0.18279774
0001e0 47 97 14 3f 41 87 87 bd d9 2c 76 3d 64 f8 54 3e
       0.5804333 -0.066175945 0.060101364 0.20797879
0001f0 92 99 94 3d 4f 40 8e bb 75 38 3b 3f 67 63 34 3f
       0.07255854 -0.0043411623 0.7313302 0.70464176
000200 9a b1 2c 3c d6 20 11 3f 94 05 71 3c 1e 28 ee 3e
       0.01054039 0.5669073 0.014710803 0.46514982
000210 92 af 1e 3d e6 95 52 3d bf 25 74 3d c8 a0 7c bd
       0.038741656 0.051412486 0.05960631 -0.06167677
000220 7b 73 fc bc fd ea 8f 3d 82 46 15 bf 02 40 06 3f
       -0.030816784 0.07027242 -0.5831071 0.5244142
000230 31 7c df bd 07 e3 ab be 29 8c c4 be d2 63 df bd
       -0.109123595 -0.33571646 -0.38388184 -0.10907711
000240 c0 52 a3 bd be b7 56 bd fd 6b 25 3d 44 2d 41 3d
       -0.07974768 -0.052421324 0.04038619 0.04716231
000250 02 e7 1d 3f df 4c fd 3e 0d c3 05 bd fe da b3 3e
       0.61680615 0.4947271 -0.032656718 0.35128015
000260 4c 35 db bd 28 aa f8 3b 66 3b 4e 3d 0b e8 ca 3d
       -0.10703525 0.0075886436 0.050349616 0.0990754
000270 d7 7a 45 be 16 66 71 bd 68 59 96 bb 44 3a 99 3e
       -0.19285141 -0.058935247 -0.004588295 0.29927266
000280 89 bb 0f be 3e 6a a2 bd ef c1 b4 3d 14 2c 05 3e
       -0.14036383 -0.0793042 0.088260524 0.13005096
000290 e7 bc 55 3c 6e 7c 49 be c3 78 41 3f 07 60 f8 bc
       0.013045526 -0.19676372 0.7557489 -0.030319227
0002a0 c3 36 d3 3e 41 25 cd be 6e 62 66 3e 05 68 00 be
       0.41252717 -0.40067485 0.22498485 -0.1253968
0002b0 13 a4 8a be 48 70 08 bf 1a cb 80 be 2a b7 09 3e
       -0.27078304 -0.5329633 -0.25154954 0.13448778
0002c0 45 93 7d bb 17 8b fe be 1c 7b b3 be d3 86 0e bf
       -0.0038692516 -0.49715492 -0.35054862 -0.55674475
0002d0 ca 51 44 bd ff 53 89 be b7 32 d7 be ca 54 89 bc
       -0.047929563 -0.26821896 -0.4203088 -0.016764063
0002e0 80 09 db 3e ba b6 27 be 23 2e 85 3c ab c2 0a 3d
       0.42780685 -0.16378298 0.016257351 0.033877056
0002f0 eb 75 65 bd 7c d5 27 3f 73 d7 6e 3d 5c f2 36 3f
       -0.05602066 0.65560126 0.058310937 0.7146356
000300 b6 47 c9 bc ed 27 85 3e 9c 7a 82 be 73 fc 6e bd
       -0.024570327 0.26007023 -0.2548417 -0.058346223
000310 38 1f e5 3d 3e 52 a3 be 85 d6 9c bd ba 22 07 3f
       0.11187595 -0.31898683 -0.07658104 0.52787364
000320 f7 68 34 3f 84 58 84 be 86 6b 1a 3f 2e 0a aa be
       0.70472664 -0.25848782 0.6032032 -0.3321089
000330 d1 28 35 bc 8b 25 27 3f 86 83 e5 3e e6 6a ad bd
       -0.011057095 0.6529166 0.44826907 -0.08467655
000340 d4 76 ce bd 9b f7 6f 3d 87 81 06 3f 7a b2 8c be
       -0.100812584 0.058585744 0.52541393 -0.27479917
000350 d0 00 b6 bd 99 5e 81 be d2 93 97 bd 81 75 1b 3f
       -0.08886874 -0.25267485 -0.07401241 0.6072617
000360 e2 4a 29 3f 71 61 f5 3d 1f dc 18 bd 98 4a 40 be
       0.6612989 0.11981476 -0.0373193 -0.18778455
000370 2c 69 27 be 6b 93 16 bf f4 88 e5 3e 24 d6 80 3d
       -0.16348714 -0.5881869 0.4483105 0.06290844
000380 18 63 b1 bd 29 1b d2 bd dd 8a 57 be 45 2e 98 3a
       -0.08661479 -0.10259087 -0.21049066 0.0011610469
000390 68 34 0d bd fc 35 23 3f e1 41 42 bf f0 7a 87 be
       -0.034473807 0.6375425 -0.75881773 -0.2646098
0003a0 f7 62 13 3f aa 75 5c 3e 60 ef ee 3e 94 a1 5a 3f
       0.57572883 0.2152926 0.46667004 0.854028
0003b0 b2 a3 43 3d ee 0a 46 bd d5 08 45 3e c4 70 6a be
       0.047763534 -0.048350267 0.1924165 -0.22894579
0003c0 b2 77 0e bf 64 d6 18 3f 00 48 2b 3e d9 cc 6d be
       -0.5565139 0.59702134 0.16726685 -0.23222674
0003d0 16 f6 eb 3e 03 31 a8 3e 3c 1b 33 3d 57 8d 3b be
       0.46086186 0.32849893 0.043727145 -0.18315636
0003e0 4d 14 0c bf 12 c7 73 bd d6 19 45 bc 5a 85 9c 3d
       -0.54718477 -0.05951602 -0.012030086 0.07642622
0003f0 d3 8e 27 3f 0a a7 48 3d d8 19 89 3c e8 ea b8 bd
       0.6545231 0.048987426 0.016735956 -0.0902918

fc3.bias f4 [4]
000000 b6 c4 98 3e ca c9 1c be 72 03 c6 3d 5d c6 68 3c
       0.2983758 -0.15311351 0.09668626 0.01420745
