models/actor-critic/critic_v1.pth (torch, 8736 bytes, 3 tensors)

fc1.weight f4 [128, 11]
00000000: c530 80bf cb65 62bf 5775 75bd c222 973f
00000010: 04d6 b43f 0bf0 b93f e20d e53f feb0 7a3d
00000020: af1a adbe 46de 5abe c853 18bf 1393 df3f
00000030: d242 4d40 12c1 fac0 a32a 863f 077a 573f
00000040: d0f3 903f cefb e93f d4d1 943e 92fb 133f
00000050: f7f9 40bd 53bd 053d ee9c 49bf c9ba 85bf
00000060: 4895 b1be 20ef 913f 1c42 f03f b37a ba3f
00000070: 68b5 c73f 40e9 eb3d 922f 7f3e 27a6 d0be
00000080: adc1 64be 273f 8c3f ed45 d0bf 87bc 1a3d
00000090: c776 7ebe 5bab c63f d3e7 f73f 664c 1140
000000a0: 79c4 08c0 b412 b73e d7ff e43e 6929 573f
000000b0: 449f 98bf 5737 69bf 29ba 03bf e1f6 e33f
000000c0: 68d5 b93f 74c3 e53f 0be6 fb3f a474 65bd
000000d0: ff43 2cbd 9b1a a7bd 5f6f 8f3d ca96 04bf
000000e0: 2264 0ebf 7252 d0be cb2e e93f 75d5 cd3f
000000f0: 0b41 b73f 2803 de3f 5246 8f3e c724 36be
00000100: 140d 9fbe f6bc 07bf 927b 18bf e088 ffbe
00000110: 8a4b e8be 8a25 9e3f 9d01 c13f dc85 d33f
00000120: 3afc b43f 4d11 00bc 88a3 913d 1303 e8be
00000130: 2956 e4bd c838 7bbf b66c 88bf 1896 79be
00000140: 624a eb3f ec50 b43f 0fd1 9f3f 531b ec3f
00000150: b3e8 033e 7837 83be 29c5 98be b02f 63be
00000160: 4891 84bf 3b21 1ebf 3443 9ebe f42c c13f
00000170: d2a0 b63f c97d e83f f396 eb3f de78 b93e
00000180: a0be 6b3e f90c 9ebe 4094 d4bd dd8a 7bbf
00000190: eea6 f5be df44 c8be ff04 b23f 4be2 c53f
000001a0: ffea cd3f 8ee8 f33f 2161 85bc a347 9cbd
000001b0: a3b0 b13c 0075 c3be 902c 03bf fbed 73bf
000001c0: 17d9 0abf d27c ba3f 6a52 c63f dc5f e63f
000001d0: eaa2 bc3f 3fa1 e0bd 4ae2 95bd 5dd4 053e
000001e0: e973 fcbd 362e 2140 8bba 1a40 0d97 1040
000001f0: cab2 dfbf bdd5 eabf 471b 05c0 7507 1bc0
00000200: 8d5b fdbe 0c6f e9be 2c50 93bd 11f8 febe
00000210: e4c0 3a40 c7b6 4240 320e 3640 2f09 14c0
00000220: 596c 2dc0 8fdc 13c0 7730 10c0 9dbf cabe
00000230: b09d 02bf 3066 04bf f6ca 87be 3c58 46bf
00000240: 7189 84bf 5692 a7bc 1e1e ed3f 472a f03f
00000250: c59d b93f 7b05 bd3f d89d 833c 007e 77be
00000260: c83f cdbe 252e 06bf d32c e03f 5450 b740
00000270: 004e 19c1 9964 913f e514 433f 620f 843f
00000280: b3b7 eb3f 27f1 763f 805d a73f 1f7c f3bd
00000290: 885a 1dbf 9ecd 9c3e ae1f 93bf 7ec7 373e
000002a0: 20da 523f ef5a e63f bcc2 3240 b5b7 c1be
000002b0: a22f 40c0 9198 5c3e 3544 f33f cb42 8a3f
000002c0: caf6 7cbf 6f6b 52bf 9b3f 5dbe 03e2 cb3f
000002d0: d4c3 a53f 6dfc c63f a809 d93f 672f a1be
000002e0: 51a2 833e 45a4 913d f54c 18bf 7738 0a40
000002f0: 9040 b53f ac06 8c3f 031a f9bf 0834 31bf
00000300: 9433 9bbf ce50 1fc0 f04a 2e3f eb87 92bf
00000310: caef 5dbf b576 43bf dd0a 6ebf e38d 0fbf
00000320: 0e2e b8be 1f9e e93f bd39 ea3f af20 e03f
00000330: f74a b73f efba 4b3e 4b79 153e 1b9b eabe
00000340: 493d 433c e5a3 8fbf be8d 7abf b053 42bd
00000350: fe93 b33f 3507 d03f d46c ba3f ef18 f23f
00000360: 632d 7abe b8c0 c93b 46d4 92be 1ec7 94be
00000370: 3418 04bf c26f 64bf e850 16bf 740e f63f
00000380: 3064 f23f 2eb2 d83f e10e c13f ea8b 703d
00000390: 4db7 b33d f401 c23c c2e6 d63c 4ef8 44bf
000003a0: d8fe 05bf e91d f6bd fa10 a83f f930 bd3f
000003b0: 1efa a33f d25c ac3f a95d d5bd 8657 823e
000003c0: a8e1 30be e44b 7f3d fd1a 41bf 4200 38bf
000003d0: bfd9 14bf 7090 ec3f aff2 dc3f 9f77 ab3f
000003e0: 4d1e f83f 68f8 843e 41a4 733e 5fd8 41be
000003f0: 02b8 8cbe 80cd 02bf f645 7cbf 25e2 bbbe
-1.0014883 -0.88436574 -0.059926357 1.1807482 1.4127812 1.452638 1.7894862 0.06120395
-0.3380942 -0.21373853 -0.5950284 1.7466758 3.2072034 -7.836068 1.0481762 0.84170574
1.1324406 1.827997 0.29066336 0.5780574 -0.047113385 0.032651257 -0.7875508 -1.0447627
-0.34684205 1.14011 1.8770175 1.4568695 1.5602236 0.11519098 0.2492049 -0.40751764
-0.22339506 1.0956773 -1.627134 0.03777745 -0.24849997 1.5521044 1.9367622 2.270288
-2.1369917 0.35756457 0.4472644 0.8404756 -1.1923604 -0.91100067 -0.5145593 1.7809716
1.4518251 1.7950273 1.9679579 -0.05601944 -0.042057034 -0.081593715 0.07003664 -0.51792586
-0.5562154 -0.406879 1.8217405 1.6080767 1.4316725 1.7344713 0.27983338 -0.17787467
-0.31064665 -0.53022707 -0.59563553 -0.49909115 -0.45370132 1.2355206 1.5078617 1.6525226
1.4139473 -0.007816625 0.07111269 -0.45314845 -0.11149246 -0.98133516 -1.0658176 -0.24373662
1.8382075 1.4087195 1.2485675 1.8445839 0.12881736 -0.25628257 -0.2983792 -0.2218616
-1.0356836 -0.61769456 -0.30910647 1.5091844 1.4267828 1.8163387 1.8405441 0.36225027
0.23021936 -0.30869272 -0.10379839 -0.98258764 -0.4797892 -0.39115044 1.3907775 1.5459684
1.608734 1.9055345 -0.016281666 -0.07630851 0.021690672 -0.381752 -0.5123987 -0.95285004
-0.542375 1.4569342 1.5493901 1.7998004 1.4737217 -0.10968255 -0.07318552 0.13069291
-0.123267956 2.5184455 2.4176357 2.2592194 -1.7476437 -1.8346478 -2.0797899 -2.4223301
-0.4948391 -0.45592535 -0.07193026 -0.49798635 2.918023 3.0424058 2.8446164 -2.3130605
-2.709738 -2.3103368 -2.252958 -0.39599314 -0.5102186 -0.51718426 -0.26522034 -0.77478385
-1.0354444 -0.02045552 1.8524816 1.8762902 1.4501272 1.4767298 0.016066477 -0.24169159
-0.40087724 -0.5241416 1.7513679 5.7285557 -9.581543 1.1358825 0.7620376 1.0317194
1.8415436 0.9646172 1.3075409 -0.118889086 -0.61466265 0.30625623 -1.1494043 0.17947194
0.8236408 1.7996501 2.7931356 -0.3783547 -3.0029073 0.21542574 1.900519 1.0801634
-0.9881407 -0.8219518 -0.21606295 1.5928348 1.2950387 1.5545784 1.6956072 -0.31481478
0.25709775 0.0711141 -0.5949243 2.1596963 1.4160328 1.0939536 -1.9461063 -0.6922002
-1.2125115 -2.489307 0.68083096 -1.1447729 -0.86694014 -0.7635301 -0.92985326 -0.56075877
-0.35972637 1.825138 1.829887 1.7509974 1.4319752 0.19895528 0.14597051 -0.4582146
0.011916467 -1.1221892 -0.9787253 -0.047443092 1.4029539 1.62522 1.4564462 1.8913859
-0.24431376 0.006157007 -0.28677577 -0.29058164 -0.5159943 -0.8923303 -0.58717203 1.9223161
1.8936825 1.6929376 1.5082666 0.058727182 0.08775196 0.023682572 0.02623308 -0.7694138
-0.52341986 -0.12017424 1.3130181 1.478057 1.2810705 1.3465827 -0.10418255 0.254574
-0.17273581 0.062328234 -0.75431806 -0.71875393 -0.58144754 1.8481579 1.7261561 1.339588
1.9384247 0.2597077 0.23793127 -0.18930195 -0.27484137 -0.5109482 -0.9854425 -0.36695972

fc1.bias f4 [128]
00000000: 6fad e23f c887 413f 0945 cd3f 8acc a43f
00000010: 6a3c 0e40 5f23 ec3f 7d1c e43f 5188 f33f
00000020: ca29 0840 6b43 d53f f7be e53f 168d 1bc0
00000030: 0278 4ac0 34d8 fa3f b787 2bbf 9c9b 323f
00000040: 0aee e63f 68de abbf 2070 0840 30aa e63f
00000050: 46a9 0e40 1d6d 0340 d7c6 e83f 6282 0240
00000060: eb61 f13f caf9 ee3f 3b95 d93f 03a3 0940
00000070: e811 bb3f 3c3e 0340 eb28 0740 a5c9 f63f
00000080: 5794 5b3e 0376 e13f eddb b83e fc6d e33f
00000090: a4bb f23f 39bd 0b40 acdc d23d 6bc1 0c40
000000a0: 57f5 0140 f0c5 a73f 47ea b03f 6291 e53f
000000b0: 2c78 993f cac7 acbd e957 843f 0c20 e83f
000000c0: 90a8 e03f 4ed8 933f c717 0740 bfdb 28c0
000000d0: 35df eb3f ddaa f63f b4fa 0640 d947 0340
000000e0: b248 0540 f048 0fbe 130e 0340 a6c1 e93f
000000f0: faa0 0440 c528 c13f c121 ef3f 016b e93f
00000100: fb5a 0940 1c0c 0640 6206 f23f e659 e1bf
00000110: 379f 0740 88b8 da3f ecfc 0140 67b2 37c0
00000120: 81ac 47c0 d8f3 dd3f fe9b b23e b364 0040
00000130: fba8 b43f 20f1 ea3f 9d9b e03f 0275 e63f
00000140: 0cd6 d53f da78 0640 e95f 4ec0 2c53 0640
00000150: 3b0a 0540 11a7 ff3f b781 f03f 7569 f83f
00000160: 020f fa3f a1d7 dc3f 8827 db3f e6c3 ff3f
00000170: 2662 f63f bb6a 843f 90b4 b4bd f037 0a40
00000180: bb09 0640 8f83 0340 ec86 ed3f 818d 12bf
00000190: c77a fa3f d677 f63f ca90 ca3f d992 ec3f
000001a0: 01f9 3cc0 57a0 b9be aca6 0540 c031 0040
000001b0: fb9b 0d40 1716 fc3f 1a5a ec3f 5581 f73f
000001c0: 455e fc3f 319f f63f 5d14 0b40 6bd9 96be
000001d0: 8669 cf3f 0842 ee3f 617f 0340 656e 0b40
000001e0: d1ad 0840 fe03 77be b898 0640 d46e 953f
000001f0: 597b 0640 6da9 de3f 74ae 0540 4b39 a63f
1.7709178 0.7559781 1.6036693 1.287492 2.2224374 1.8448294 1.7821194 1.9025975
2.1275506 1.6661199 1.7948903 -2.4304862 -3.1635747 1.959723 -0.6700396 0.6976869
1.8041394 -1.3427248 2.1318436 1.8020687 2.2290816 2.0535347 1.8185681 2.039208
1.8858007 1.866998 1.6998667 2.1505744 1.461484 2.0506735 2.1118724 1.9280287
0.21443306 1.7614139 0.3610529 1.776794 1.8963513 2.1834242 0.10295996 2.1993053
2.0305994 1.3107281 1.3821496 1.7934992 1.1989799 -0.08436544 1.0339328 1.813478
1.7551441 1.1550386 2.1108263 -2.6384122 1.8427492 1.9270893 2.1090517 2.0512602
2.082562 -0.13992667 2.047734 1.8262222 2.0723252 1.5090567 1.8682176 1.823578
2.146178 2.094489 1.8908198 -1.760556 2.1190927 1.7087564 2.0310621 -2.8702638
-3.1199038 1.734004 0.34884638 2.0061462 1.4114069 1.8354836 1.754749 1.8004458
1.6705947 2.1011262 -3.224604 2.0988264 2.0787494 1.997286 1.8789586 1.9407183
1.953583 1.7253305 1.7121439 1.9981658 1.9248703 1.0345072 -0.08823502 2.1596642
2.094344 2.0549047 1.85568 -0.5724717 1.9568719 1.9255321 1.5825436 1.8482314
-2.952698 -0.36255142 2.0882978 2.0030365 2.2126453 1.9694241 1.8464997 1.9336344
1.9716269 1.9267331 2.1731179 -0.29462752 1.6204078 1.8613901 2.0546496 2.178613
2.135609 -0.24122617 2.1030712 1.1674447 2.1012785 1.7395455 2.0887728 1.2986234

fc2.weight f4 [1, 128]
00000000: 0be4 d53f 7d4b a940 784f b73f ff86 3840
00000010: 1ef8 da3f 5821 b93f f3f6 943f 2e2f d83f
00000020: d7f7 ae3f 23f5 bd3f c048 b13f 97e8 5ac1
00000030: 01e2 80c1 04d4 fa3f af12 4041 5759 6340
00000040: 1557 c73f 7d9c a7c0 b1a0 bb3f 6299 e03f
00000050: 93c4 aa3f 5eb2 933f 311c ab3f 7f8b a63f
00000060: 1532 cc3f 1624 a53f 96c2 663f 1eb1 f43f
00000070: 9da7 0b40 a9ae c23f 6a6a a03f 39fd d83f
00000080: 32c0 bd40 b075 a93f d18b 1241 7b9c 7b3f
00000090: 1c05 9b3f 9c02 a83f 758a 6bc0 9435 d03f
000000a0: ad7d 833f 815b 5140 3e78 bb3f c984 b93f
000000b0: e248 1f40 d124 d440 f382 f93f d418 cc3f
000000c0: 7bb3 b63f be6e 3140 2367 c93f 223c 7ec1
000000d0: c752 b93f ce62 763f fd08 b73f 5588 a83f
000000e0: 12f1 b73f fd4b 8c40 4b79 cd3f 1ef2 be3f
000000f0: 53a0 fd3f f545 b83f 142d c83f 1290 af3f
00000100: 3ef0 c43f 7d1d cf3f 4217 ad3f bbfa 02c1
00000110: dacc df3f 0c57 9c3f e962 b53f 3932 8dc1
00000120: 8e26 83c1 5914 a33f 785f 2a41 29a5 953f
00000130: b435 4240 c24c 883f 5dfd aa3f cd1d a83f
00000140: e921 c13f 0952 cf3f c85e 82c1 94f3 bd3f
00000150: 5bcf a63f cd9e 983f 3507 ab3f e090 cd3f
00000160: c910 f03f 890e 733f 45bc b43f 6dc1 a93f
00000170: 35e9 c23f da62 1e40 69cf b740 deb4 c13f
00000180: 316f cf3f 6d13 b23f a491 c83f cd5d 5ac0
00000190: ef34 e23f 41b5 b23f 7f54 c73f 37df a43f
000001a0: 845f 82c1 0813 d740 1b40 bb3f acb7 be3f
000001b0: ea7a c23f 04d2 a33f dd35 9b3f ce09 b23f
000001c0: ef22 c43f b446 a93f d5c7 c23f 5924 663c
000001d0: 77cc bf3f ea07 eb3f 32a0 933f 764e ca3f
000001e0: de3a c23f c226 793d 3ade ab3f ef01 1a40
000001f0: d16b d33f 59d7 973f 1b39 db3f 5e6e 6640
1.6710218 5.290465 1.4321127 2.8832395 1.7106969 1.4463301 1.1637863 1.6889398
1.3669385 1.4840435 1.3850327 -13.681785 -16.110353 1.9595952 12.004561 3.5523279
1.557345 -5.2378526 1.4658414 1.7546809 1.334124 1.1538808 1.3367978 1.3011321
1.5952784 1.2901638 0.90140665 1.9116552 2.1821053 1.5209552 1.2532475 1.6952277
5.9297113 1.323904 9.159135 0.98285645 1.2110934 1.3125796 -3.6803257 1.6266351
1.0272728 3.27121 1.464607 1.4493648 2.4888234 6.629494 1.9493088 1.5945077
1.4273523 2.7723842 1.57346 -15.889681 1.4478387 0.96244514 1.4299618 1.3166605
1.4370444 4.384276 1.6052641 1.4917638 1.9814552 1.4396349 1.5638757 1.3715842
1.5385816 1.6180874 1.3522723 -8.1862135 1.7484391 1.2214065 1.417081 -17.649523
-16.393826 1.2740585 10.648308 1.1691028 3.0345278 1.0648425 1.335857 1.3134094
1.5088474 1.619691 -16.29628 1.4839959 1.303203 1.1923462 1.3361574 1.6059837
1.8755122 0.94944054 1.4119955 1.3262154 1.5227419 2.4747834 5.7440686 1.5133321
1.6205808 1.3912178 1.5669446 -3.4119751 1.7672404 1.3961564 1.5572661 1.288062
-16.296638 6.721073 1.4628938 1.4899802 1.519376 1.2798467 1.2125813 1.3909242
1.5323161 1.3224702 1.5217234 0.014046752 1.4984273 1.836179 1.1533263 1.5805194
1.5174215 0.060827978 1.3427193 2.406368 1.6517278 1.1862594 1.7126802 3.6004863
