models/actor-critic/critic_v3.pth (torch, 147036 bytes, 5 tensors)

fc1.weight f4 [256, 11]
00000000: 39c8 0d3f 5bbc 853e 8886 81be f27a 5bbe
00000010: 5643 2c3f 3d3f 1e3f 12e0 283f 36e0 00be
00000020: 44a2 953e 0695 85bf 634c b03d e531 6cbe
00000030: 95fa 1b3f b022 46bf 6416 2b3f 6f26 543e
00000040: 35d6 cb3e dcc3 1b3f f5f1 e8be ba38 17be
00000050: d60a a5be 3428 453d 5608 bf3f 8494 cdbd
00000060: ca04 eb3c 8ce8 9abd 7642 d1bf 5651 093f
00000070: 5812 c3bf 77ab 383e ce8a c7be ac55 07c0
00000080: 5bc9 06c0 e6b2 b63d 6c48 943d 465e 5c3d
00000090: 200d 7dbe abce 1b3e 2259 4bbe 8a2c 8abe
000000a0: 4f30 febc 68fe 86bd 9908 17be 9103 cebd
000000b0: 6286 453e 0fe6 603e 79bd 96be bf5a 473f
000000c0: 95f2 a93e 4e9f b83e 3211 7e3e 7164 ee3b
000000d0: 22d8 d83b 212d fabe aafb 7a3e 94bd aabe
000000e0: d9dd 94be 4f47 8ebd 7c51 db3e b8b1 cf3e
000000f0: 447a 183f c8c6 d93e 733b bdbe c3f6 ae3c
00000100: 470c 9ebe f716 833b 930f 24bf e7f9 b6be
00000110: d53f 0f3f 37a4 aa3e ca44 153f 227b 34bf
00000120: 4c81 bb3e 7de7 423e df9b e1be dd30 31bf
00000130: 6867 b5bd f782 43be c241 eb3e 7ce6 35be
00000140: 6daa 993e cbb2 61bf febc 343f b043 b83e
00000150: 3882 5abf 7cb6 95bc d667 863e a806 513d
00000160: 4d74 27bf 157f ddbc 99c1 983d 535a a83d
00000170: efd8 223f 8651 e33d 7875 253f 276d c3bd
00000180: 3e78 e1bd a8b3 2bbf fc93 f7be 163a 9bbe
00000190: d52c 0abf 6a78 c7be 3737 d53e 3d8d 723e
000001a0: 3c3d 0c3f 6627 593e 31fb 9cbe 7e34 8b3c
000001b0: a242 243e e469 a5bc b90b 94be 3e64 27bf
000001c0: fcc2 1bbe 179b 9c3e 5ca3 0a3f b825 0a3f
000001d0: 743f 4c3e 9a7a babe 65c2 f7bd bb1d 9cbd
000001e0: f142 783d dc53 abbe f814 b1be c5c7 ba3e
000001f0: 8027 903d a425 6f3e bebc 063f 062e 733f
00000200: 86df 2ebf 37fe a8be b725 31be 8b06 8a3e
00000210: 7a06 c6bd 8a1c c0be 7951 3ebe 0ab0 0a3f
00000220: 77fc 163e cc58 423e 83bd de3e 0b47 68be
00000230: 2823 9e3e 8066 a0bd 6009 2abe ead4 793d
00000240: 9bdf 15bf 548f 5fbe 3d75 ae3e bb06 193f
00000250: 26b7 c23e d8ed 863e 0d14 a7be eb99 ecbe
00000260: 4e46 023f 4c05 1d3f 063a 103d 1b27 77bf
00000270: 9620 713f 6615 be3e 0675 453e d553 0fbf
00000280: 1899 50bf a0e0 7abe 4b89 2a3d 3e4e 83bf
00000290: 2f14 6a3e 843a 9ebe d6ab 79be 4c79 ce3c
000002a0: a53c 283f 5135 65bd d237 2a3e fd49 8b3e
000002b0: 7c67 0ebf 295d 94bd 4a90 f5bd 2fbe 7b3c
000002c0: 21d1 e4be 88d0 42be 33e3 9cbe 267e c23e
000002d0: 68cd 4a3f 29b2 c4bb a30e 403e c030 88bd
000002e0: a6a5 3dbc 7289 a1bd 1d0f 14bf 1020 593e
000002f0: 1c43 b03d 6ddf 7fbf 72b8 ca3e 755b cb3e
00000300: 7e93 6abc 6191 0f3f b223 4abe d963 193e
00000310: 7ac2 b1be c73c 5dbf 262b 3b3f 569e d1bd
00000320: 03cb f9be c5ac 513f a116 da3e fbdb 45bb
00000330: 9efd 493e a0a7 5d3d 4e00 aebe 2e6e f0be
00000340: 2741 82bd 0d8c 13be 7f7b aabe d757 0dbf
00000350: 7341 c43e 3edb 013e 04f7 983e 4102 e33e
00000360: 1113 d63d 7c2e 57bd d972 bcbe e256 e73d
00000370: c5e9 c6be b509 cfbe 866e 31be b8d6 193f
00000380: 2c9e 693e 978d 673e 495f 9e3e aa22 34be
00000390: ec67 353e 8f5c 00be 4242 ddbd 028d 213e
000003a0: 7011 97bd 9fe2 3ebf 9eb5 983e e2a1 be3e
000003b0: aee6 d43e d66a e03e 3c5e 203a c6a7 91be
000003c0: 0adf 32be cc47 26be 887e 02bf 1460 72be
000003d0: b0b5 55be 9f8d 873e 86ee 293f 8eea 2e3f
000003e0: 49ed 133e bd85 393e 807c ba3c 7828 32be
000003f0: 93d9 8cbe c1d0 333d fa64 9abd eb73 3bbe
0.5538364 0.26120266 -0.25297952 -0.21433619 0.67290246 0.61815244 0.65966904 -0.1258553
0.2922536 -1.0436103 0.086083196 -0.23065908 0.6092923 -0.7739668 0.6683104 0.20717786
0.39811864 0.6084573 -0.454971 -0.14767733 -0.3223483 0.048134044 1.4924419 -0.10038093
0.028688807 -0.07563886 -1.6348407 0.53639734 -1.5239973 0.18034159 -0.38973087 -2.114604
-2.1060398 0.08920841 0.07240376 0.053800844 -0.24712038 0.15215556 -0.1985822 -0.26987106
-0.031028895 -0.06591493 -0.14749373 -0.10059274 0.19289544 0.2196276 -0.2944143 0.7787284
0.33192888 0.3605904 0.24811247 0.007275157 0.006617562 -0.48862556 0.24510065 -0.33347762
-0.29075506 -0.06947195 0.42835605 0.40565276 0.5956156 0.4253447 -0.3695942 0.0213579
-0.30868742 0.0040005404 -0.64086264 -0.35737535 0.55956775 0.3332841 0.5830809 -0.70500386
0.36622083 0.19033618 -0.44064233 -0.69215184 -0.08857614 -0.19092928 0.45948607 -0.17763704
0.30012837 -0.8816344 0.7060088 0.3598914 -0.8535495 -0.018275492 0.26251096 0.05103174
-0.65411836 -0.027038136 0.07458801 0.08220353 0.63612264 0.11099534 0.6463237 -0.095423035
-0.110092625 -0.6707101 -0.4835509 -0.30317754 -0.5397466 -0.38959056 0.41643688 0.2368669
0.54780936 0.21206436 -0.30660394 0.016992804 0.16041043 -0.020192094 -0.28915194 -0.6538733
-0.152111 0.30587074 0.54155517 0.53963804 0.1994608 -0.36421663 -0.12097625 -0.07622858
0.060610715 -0.33462417 -0.3458631 0.36480537 0.07038784 0.23354203 0.5263175 0.949921
-0.6830982 -0.3300645 -0.17299543 0.26958117 -0.09669204 -0.37521774 -0.18585767 0.54174864
0.14744745 0.18979186 0.4350396 -0.2268335 0.30886197 -0.0783205 -0.16605139 0.060994066
-0.5854432 -0.21832019 0.3407382 0.59775895 0.38030356 0.26353335 -0.32632485 -0.4621118
0.50888526 0.6133621 0.035211585 -0.96544045 0.9419035 0.371257 0.19282922 -0.5598729
-0.814836 -0.2449975 0.04163484 -1.0258253 0.22859262 -0.3090402 -0.24381956 0.025204323
0.65717536 -0.05595905 0.16622856 0.27204886 -0.55626655 -0.072443314 -0.119904116 0.0153651675
-0.44690803 -0.19024861 -0.3064209 0.3798687 0.79219675 -0.0060026837 0.18755583 -0.06649923
-0.011575138 -0.07887544 -0.5783556 0.21203637 0.0860655 -0.99950296 0.39593846 0.39718214
-0.014317391 0.56081206 -0.19740179 0.14979495 -0.34718686 -0.86420864 0.73112714 -0.10235278
-0.48787698 0.8190425 0.4259539 -0.0030190933 0.19725654 0.054114938 -0.33984607 -0.4695906
-0.06360083 -0.14408894 -0.33297345 -0.5521216 0.38331184 0.1268129 0.29875958 0.44337657
0.104528554 -0.052534565 -0.36806372 0.112958685 -0.38850227 -0.40437093 -0.17327318 0.6009326
0.22814244 0.22612606 0.30932072 -0.17591348 0.17715424 -0.12535308 -0.10803653 0.15776446
-0.07376373 -0.74564546 0.29826063 0.37232882 0.41582245 0.4383151 0.00061175576 -0.28448313
-0.17467895 -0.16238326 -0.5097432 -0.23669463 -0.2087009 0.26475236 0.6637958 0.6832665
0.14445986 0.18117423 0.022764444 -0.1739825 -0.27509746 0.043900255 -0.07538791 -0.18305938

fc1.bias f4 [256]
00000000: 3d4b d1be e702 f73d f370 3cbe 80b1 b1be
00000010: c7ba 7cbc 7026 c13e c83f 47bd ed36 09bb
00000020: 6d63 e03e eb7e 9c3e 40b9 d43e deff 7abe
00000030: e21e 003f 12d0 b83d 614e 32bf c95d ba3e
00000040: a46d d93e bcd7 903e 2392 4dbe b8c0 9d3e
00000050: 4889 cf3e 60d4 b43e 15ee 973e 380e 9cbe
00000060: 7253 9f3e d539 c73e 61d5 8f3e 5201 7e3e
00000070: ddeb 43be 49d9 20be aacd aabd 005c 1dbf
00000080: 8d80 143e 2565 0a3e 697b 86be 151c 923e
00000090: 7a1c cabd b469 0d3f 63dd bf3e b82c 1f3e
000000a0: f01e f83e cca0 aebe 647f 79be b06d ba3e
000000b0: 1415 d63e 52cd 003f 3a47 c03e 7559 a73e
000000c0: 02e2 bb3e 8c97 f1be 65f4 8e3e 6f5d 92bf
000000d0: 3454 803e 577e 5fbf a091 773e b6aa 033f
000000e0: 74d6 b53e f656 1fbf 6822 ee3e 0953 923e
000000f0: cd60 a6bd 9c72 e1be 279c e7bd c78b 293e
00000100: 84ef 8f3e 5c49 d43e 3afe 62bd 3cab cdbe
00000110: 00fd a83e df46 7c3e c485 773e 361b 48bd
00000120: 0fc9 e03e 1002 1d3f f61f 063f ca15 b33e
00000130: 6e14 8b3e fe01 fa3d c960 0f3f ac27 af3e
00000140: 2d23 4fbe e935 7f3e af1f 30bf 6191 863e
00000150: 3c53 2cbf 722b 0a3f 8518 b3be e093 aa3e
00000160: 60d7 c53d c35d 9ebe 6b03 4e3e f33c 243d
00000170: 4acb c6be 8af1 683e 50d6 d1be be25 18bf
00000180: ba81 0a3e 4d2f 713e 8839 aebe 37ff 993e
00000190: bf17 a7be 89f2 c33e 9df4 c53e 7b5e f13e
000001a0: a0da ecbd a2d6 9a3e acb8 0ebe b346 10bd
000001b0: f3d3 903e e356 0f3f f1cd e6bc 1608 df3e
000001c0: 6038 ae3e 88cf c3bd 113a 0f3f 7fea 103f
000001d0: b472 2cbf afd9 07bf 565e 0fbf f12c 783e
000001e0: 3872 5dbf 3ee8 a7be 0ea8 c93e 839a 0f3f
000001f0: f1eb aa3e 9fd9 e23d 5cdd 8bbd 1abc 9d3e
00000200: c863 ce3e 11e3 b03e a7a8 36bf 254e 0f3f
00000210: a39f 0e3f 1281 99be ed5e 75be daaf 51bd
00000220: 2b40 d1be e211 953d 3dc6 b33e 1928 f93d
00000230: 9ef5 03bf ae40 443e 8cf0 0b3e 2fd3 663e
00000240: 459a 1b3f 5cef 9cbe 7948 f23e 3d3e 063e
00000250: f9f0 973e 0951 8bbe 4ea8 d63d e6a1 e93e
00000260: f53e 7e3e 4a9d 903e 5e11 efbd d6c6 dd3e
00000270: 0a76 f83e 6020 bcbe a662 063f 431d e13e
00000280: 7a64 6b3e e3cd 983e aa3f d2be 63a9 f43e
00000290: c564 92be 371c 0dbe 575f 1f3e 46e9 423e
000002a0: a5dc 323e fd07 81be 63d0 633e c328 91be
000002b0: 6904 cc3e 20ea b6be 44a6 8b3e a4e3 ab3d
000002c0: b2a7 a23e f40e fe3e 4cdb 34bf 29cf b03e
000002d0: 1f71 893e d438 583e 52a0 c03e 2e70 0b3f
000002e0: 2463 1e3e cb19 213e 1f7f 23bf 5ce7 abbe
000002f0: 0953 a53e 6fae 0f3e 797b be3e 283c 8b3e
00000300: 9d81 a23e b78f d13e 1780 b63e 76aa e33e
00000310: 985c 5fbf e6a1 5fbf 0b10 96be 5d58 043f
00000320: 78aa 2a3e 13c7 21bf f923 08bf ee9a 063f
00000330: 66d9 923e 6e9a cabd 63f2 b93e 8de7 b43d
00000340: 80ed 89bd cc2c e43e 573d 67be 9936 cc3e
00000350: 69fd e5bd 479a 703e a837 733e 7a28 a93a
00000360: 74a6 ce3b 095b 943e b4df 9d3e d867 dc3e
00000370: f909 6a3d 548e 693e 72f5 ef3e a61f 813e
00000380: 990c 64be 46f0 31bd 5845 ac3e e43d 0c3f
00000390: 7b92 c03e 6d7d 5f3e d0d7 db3d df74 5c3e
000003a0: cea4 d43e 855d 663e 3966 1b3f f862 783e
000003b0: bd9e 08bf 9227 ba3e eead 293e cba4 2abe
000003c0: f81a 06be dc3a c13e 12cc a93e 5b58 0a3f
000003d0: 9e86 d5be 63f3 523e 0e6d ca3e 4d89 b93e
000003e0: ee43 c93e 6d08 5ebf cb72 cd3e 4f07 93be
000003f0: 3144 e23e 6856 cfbe b216 0b3f fccf 4a3d
-0.40877715 0.120611005 -0.18402462 -0.34705734 -0.015425391 0.37724638 -0.04864481 -0.002093728
0.43825856 0.3056558 0.41547585 -0.24511668 0.50047123 0.09024061 -0.69650847 0.36399677
0.42466462 0.28289592 -0.20075278 0.30811095 0.40534425 0.3531828 0.2967383 -0.30479598
0.3111835 0.3891131 0.28092483 0.24805191 -0.19132943 -0.15707888 -0.083400086 -0.61468506
0.14502163 0.13515146 -0.2626603 0.2853705 -0.09868713 0.55239415 0.37473592 0.15544403
0.48461103 -0.34107053 -0.24365002 0.3641181 0.41812956 0.50313294 0.37554342 0.32685438
0.36695868 -0.47185934 0.27920833 -1.1434764 0.25064242 -0.87302154 0.24176645 0.5143236
0.35515177 -0.62242067 0.46510625 0.28578976 -0.08123932 -0.44032753 -0.113090806 0.16557227
0.28112423 0.4146222 -0.05541823 -0.40169704 0.33005524 0.2463641 0.24172121 -0.048854075
0.43903396 0.6133127 0.5239252 0.3497756 0.27164024 0.12207411 0.5600706 0.34209955
-0.20228262 0.24922909 -0.68798345 0.2628279 -0.67314506 0.5397254 -0.34979644 0.33315945
0.0966022 -0.3093091 0.20118491 0.04009719 -0.38826972 0.2274839 -0.4098382 -0.5943259
0.1352605 0.235532 -0.34028268 0.30077526 -0.32635304 0.38270977 0.38663188 0.47142395
-0.11565137 0.30241877 -0.13937634 -0.035223674 0.28286704 0.55991954 -0.028174372 0.43560857
0.34027386 -0.09561068 0.5594798 0.5660781 -0.67362523 -0.53066534 -0.5600332 0.24235894
-0.8650241 -0.32794374 0.39386028 0.5609514 0.33383134 0.11076664 -0.0682933 0.30807573
0.40310502 0.34548238 -0.71351093 0.55978614 0.55712336 -0.29981285 -0.23961993 -0.051193096
-0.4086927 0.072788015 0.3511218 0.12165851 -0.5154666 0.19165298 0.1366598 0.22541498
0.6078227 -0.30651367 0.47320917 0.1310968 0.29676035 -0.27210262 0.1048132 0.4563133
0.24828704 0.28245002 -0.116732344 0.43315762 0.48527557 -0.3674345 0.52494276 0.43967637
0.22987548 0.2984458 -0.41064197 0.47785482 -0.28592506 -0.13780294 0.15563713 0.19034299
0.17466982 -0.25201407 0.22247462 -0.2835141 0.39847115 -0.35725498 0.27275288 0.083930284
0.31768566 0.49620783 -0.7064712 0.3453305 0.26844117 0.21115428 0.37622315 0.5446805
0.15467507 0.15732495 -0.63865846 -0.3357495 0.32289913 0.14031385 0.37203577 0.27194333
0.31739512 0.40929958 0.356446 0.4446599 -0.8725066 -0.8735641 -0.29309115 0.5169733
0.16666591 -0.6319439 -0.5317989 0.52580154 0.28681487 -0.098927364 0.3631774 0.08833227
-0.06734753 0.44565427 -0.22581993 0.39885405 -0.11229975 0.23496352 0.237517 0.001290574
0.006306464 0.28975704 0.30834734 0.43047976 0.057138417 0.228082 0.46866947 0.25219458
-0.2227043 -0.043442033 0.33646655 0.5478194 0.37611756 0.2182519 0.10734522 0.21528958
0.41531986 0.22496612 0.60702854 0.24256504 -0.53367215 0.36358315 0.16570255 -0.16664426
-0.13096225 0.3774022 0.33163506 0.5404107 -0.41704267 0.20600657 0.39536327 0.36237565
0.3930964 -0.86731607 0.40126643 -0.28716514 0.4419265 -0.4049561 0.54331505 0.049514756

fc2.weight f4 [128, 256]
00000000: 7084 233c e8ed 3ebc a077 38bc c4b1 d5bc
00000010: 743e 9dbc 5632 aabd 9053 8f3d 0e31 9fbd
00000020: 285c 903d cdf7 83bd b466 debc eef4 31bd
00000030: 5c7e 33bd 5008 39bd 19b1 533d 9b2a 3a3c
00000040: af74 553d 7a10 11bd 5070 91bb 05a0 81bc
00000050: c3e0 c3bd e4bd 7b3d 0c73 9ebd 91c5 0e3b
00000060: fdd7 6ebc 658d edb9 5347 24bd 72a9 14bd
00000070: 70ec 1e3d b0f8 d43c e095 6b3c 0634 49bd
00000080: c178 08bd 8a11 adbb 88ca 78bc 97b4 dd3c
00000090: 44f0 eb3c 30a8 64bd e618 a63c 7819 5a3d
000000a0: ec6d c53c e886 d1bc 0e5a 173d 15af 133d
000000b0: 8e83 e6bc 20d3 cf3b 361b 97bc 0add 4dbd
000000c0: 7751 86bd f83a b13c 6fc1 0d3c 2e0f 7e3d
000000d0: d6a2 07bd a834 0f3c 0f00 c5bc 94eb 95bc
000000e0: 8b35 40bd 82ea 02bd 313f d6ba 5463 cc3c
000000f0: 9ee8 adbd 3c1f 633d 6ea6 89bd e502 92bd
00000100: 90c9 26bc ec1f ebbc 445e eebc 987f 803c
00000110: 35a3 24bd ba6f 523c e26a 3dbd cfa9 29bd
00000120: 7985 e63c 9af7 683d 5be5 24bc a383 aebd
00000130: 7c2e 4ebd e1ad 75bd 908a 1cbc 5421 d6bc
00000140: 2647 613a 0041 873c fc7f fb3c cc2b 48bd
00000150: a052 cfbc e62e 073d a452 9bbc 1d6b 313c
00000160: 206c ed3c 169c 053d 6865 adbd 483f 8bbd
00000170: b43f 043d d4d0 0f3d 6845 2f3d fe08 10bd
00000180: 3e02 0ebd e005 5ebd ee93 3bbd 98f2 a93c
00000190: 495b 373d 2f6d 95bd c9f4 a43b 3c92 5cbd
000001a0: afd2 79bd 3cb1 4cbd b4da bebc c039 2d3c
000001b0: e1ec 69bd f878 61bd 1adb 8fbc 2d31 26bd
000001c0: 585e 393d f4e1 1c3b 503d d53c 5168 383d
000001d0: 60c1 b6bc d323 37bd b895 45bc 044e 99bc
000001e0: 8624 66bd c003 dc3b 7404 123c a888 a4bd
000001f0: bd27 893c 4195 7dbc 306d 443d b65d 5a3d
00000200: 766a fe3c 32b5 10bd bac1 3f3d e2cd 28bd
00000210: cc8f 09bc 1ef2 38bd 0040 ee39 53d4 30bd
00000220: 7294 2a3d 28d7 90bc a6c4 2a3b fcd7 cbbc
00000230: 3423 4a3c f3bf 21bd 80fa e13b 5067 b93c
00000240: 70e7 7a3d 1050 0e3d 0f5f 9cbd 9b77 aa3c
00000250: 308c b83b 3148 e43c 48ef 233c aa90 0e3d
00000260: 9205 093c eeba 093d 600c 523c acb7 c1bb
00000270: 4f6f 98bd 6a95 1cbd dc1f e5bc 9ebe 41bd
00000280: 1ccc 3d3d 089c e7bc 946c 6abd 104d 2f3c
00000290: c240 de3c fc0c 44bd ee75 3d39 f17a f9bc
000002a0: 651c 4e3d 497c 53bc 23e0 81bd 4cd8 febc
000002b0: a684 a6bd ea3d 1cbd de20 21bd 9650 cf39
000002c0: 1af8 54bd d411 593c 7c69 f6bc 674c febb
000002d0: c277 6cba 0882 f1bc b42d debb 1516 43bd
000002e0: bd4b 3bbb 9c5a 1dbd ce20 3e3d 148d 823d
000002f0: bc8b 97bd a601 4cbd 21c8 d3bc aa96 8ebd
00000300: 6225 86bd 1d2a cb3c e29f a63a 7f7c 403d
00000310: 58f4 64bc f2cb 34bd 30dc e2bc d9d5 f1ba
00000320: 9059 27bd 141b 453d 0047 313d b27f a4bc
00000330: ebe1 c0bd 4b6c e9bc 50c3 c8bb 6c3b 0dbd
00000340: 09cf fb3b f942 493c 6633 21bd b8d1 4dbd
00000350: 17a2 58bd fe82 7ebd 455e 03bd d45d 6d3d
00000360: df6a f4bb 585c ef3c 2b1b 783c c67c 0abd
00000370: 0f24 c7bc 5051 f7bc e9a7 48bc 6bf5 6ebd
00000380: 0267 533c d8f2 0e3c 3ab1 18bd 8bd9 40bb
00000390: 501c 96bd a182 f5bc 6a28 68bd 6bb6 c03c
000003a0: 67fb 56bd cdfd 8239 745e c63c 71c0 10bd
000003b0: ae9c 563d ed88 30bd 9792 25bb 9073 453c
000003c0: 6545 9ebb dec3 b0bb 2031 dd3c 3ffd 19bd
000003d0: 745b 2dbd 4bf0 efbb 3ce1 ffbc 086e 153c
000003e0: e414 b93c f737 713d bf3f 1abd ec92 32bd
000003f0: 893a 29bd e01b fd3c 40f4 eaba 3628 853c
0.009980306 -0.011653401 -0.01125899 -0.026085742 -0.019194819 -0.08310382 0.0699836 -0.07773028
0.070488274 -0.064437486 -0.027148582 -0.043446474 -0.043821678 -0.045173943 0.051682565 0.011362697
0.05211323 -0.035416104 -0.0044384375 -0.015823374 -0.09564354 0.06146039 -0.07736787 0.002178524
-0.014577863 -0.0004530951 -0.040107083 -0.03629441 0.038799703 0.02599749 0.014378995 -0.04912188
-0.033318285 -0.005281632 -0.015185006 0.027063651 0.028801091 -0.05582446 0.020275544 0.053246945
0.024100266 -0.025577024 0.036951117 0.036055643 -0.028138902 0.0063423067 -0.018445592 -0.050259627
-0.06558507 0.021634564 0.008652075 0.062026195 -0.033114277 0.008740582 -0.02404788 -0.018300809
-0.046926063 -0.031961925 -0.0016345737 0.024949707 -0.08491634 0.05544971 -0.06721197 -0.07129458
-0.010179892 -0.028701745 -0.029097684 0.015685841 -0.04019471 0.0128440205 -0.04624451 -0.041421708
0.028139817 0.056876756 -0.010064448 -0.085212015 -0.0503373 -0.059980277 -0.00955452 -0.026138939
0.0008593671 0.016510487 0.030700676 -0.048869893 -0.025307953 0.03300371 -0.018960305 0.01082876
0.028982222 0.03261956 -0.08466607 -0.06799179 0.032287315 0.035111263 0.0427908 -0.035164826
-0.034670107 -0.05420482 -0.045795374 0.02074556 0.04476479 -0.07296216 0.0050340635 -0.053850397
-0.06099194 -0.04997371 -0.023297645 0.010572851 -0.05711067 -0.055047005 -0.01756053 -0.04057424
0.04525599 0.002393839 0.026030213 0.04502136 -0.022309005 -0.0447119 -0.0120596215 -0.018713959
-0.056187175 0.006714314 0.0089121945 -0.080338776 0.016742582 -0.015477479 0.04795569 0.053312026
0.031056624 -0.03532905 0.04681561 -0.04121197 -0.0083961 -0.045152776 0.0004544258 -0.04317124
0.041645475 -0.01768072 0.0026057153 -0.024883263 0.012337495 -0.039489698 0.006896317 0.022632271
0.061255872 0.034744322 -0.076353185 0.020808985 0.005631946 0.027866455 0.01000578 0.03480593
0.0083631445 0.033625536 0.012820333 -0.005911788 -0.074431054 -0.03822843 -0.027969293 -0.047300927
0.046337232 -0.028272644 -0.057232454 0.0106995255 0.027130488 -0.047863945 0.00018068377 -0.03045413
0.050320048 -0.01290805 -0.06341579 -0.031108998 -0.081307694 -0.038144983 -0.039337985 0.00039542158
-0.05199442 0.013248879 -0.030079596 -0.0077605727 -0.0009020531 -0.029480949 -0.0067803506 -0.04762848
-0.002857908 -0.03841649 0.046418004 0.06374565 -0.07399699 -0.04980626 -0.025852265 -0.06962331
-0.06550099 0.024800355 0.0012712444 0.04699373 -0.013974272 -0.04413981 -0.027692884 -0.0018450572
-0.040856898 0.048121527 0.0432806 -0.020080421 -0.094180904 -0.02849402 -0.0061267987 -0.034480497
0.0076845926 0.012284034 -0.039355658 -0.05024883 -0.052888956 -0.062136643 -0.032072324 0.05795081
-0.007459029 0.029218838 0.015143196 -0.0338104 -0.024309186 -0.03019014 -0.012247064 -0.058339518
0.012902977 0.008724891 -0.03727839 -0.002942654 -0.07329619 -0.029969515 -0.056679167 0.023524484
-0.05248585 0.00024984629 0.02421496 -0.035339776 0.052395515 -0.043099333 -0.0025264376 0.012051478
-0.00483005 -0.005394443 0.027000964 -0.03759503 -0.042323545 -0.0073223463 -0.03123533 0.009120472
0.02259297 0.058891263 -0.03765845 -0.043597147 -0.04131559 0.03089708 -0.0017925575 0.016254526

fc2.bias f4 [128]
00000000: 9351 11bd 0caa 8a40 7b43 8740 0cc9 8640
00000010: 6415 b0bd 7d0a 5240 5b13 8740 9c7d 86bb
00000020: a089 8740 0277 5ebd 3175 a2bd a997 6d3c
00000030: 9d7f 33be 7045 d1bc bb55 83bd 8790 8140
00000040: fea6 8640 d362 cbbd 85b3 473b a5ea 8940
00000050: f1ad 4cbc 3303 4a3b 453d d2b9 8af8 8640
00000060: d1c8 dc3a 20d5 d8bc fa59 8540 57e7 8cbd
00000070: 7a6e 1ebd 6518 c2bb 227a 8840 4351 8840
00000080: 98d6 8240 0883 d8bc 693c 6abc 330b 8340
00000090: eea5 8640 6f7a 8840 6847 14be b30a 8840
000000a0: b7de 8940 d2e7 37bd b2b1 8640 ee14 8c40
000000b0: 383c 8840 1c71 53bd 451d 8640 ca4a 8a40
000000c0: 5b26 28bd 38de 9ebd 3058 b4bd 9e28 8940
000000d0: 0e5d 8840 b9f7 153b 259a 8940 8277 8940
000000e0: c4d0 8540 446a 19bd e1be 8540 1944 bcbd
000000f0: f0b9 d1bd 2586 8740 65b5 cfbd 0987 0dbd
00000100: 59c8 8a40 d829 16bc 6a87 b6bd 32fd 1b40
00000110: 7a12 62bd 36e6 8740 ebe1 77bd 2633 4fbd
00000120: 409c 493d 8ad0 8940 a1f3 6240 7f00 8940
00000130: b9dd 8640 ae2f eabd aab1 8640 7ae3 5840
00000140: 2871 0bbd 71d3 ae3f 17c7 c5bd 6032 8740
00000150: 6077 e3bd 5816 c1bc a3b8 8840 6014 5640
00000160: d5c4 8940 d8bc 8840 c776 8c40 3067 acbd
00000170: 6c54 8b40 1058 8840 0cf8 8540 f5ed 8840
00000180: 8867 c7bc 8ace febd 16f9 1cbd 7d37 d8bd
00000190: 1e22 8640 2e95 89bc c516 8c40 d964 95bd
000001a0: c0e2 63bc deec b2bd 51bc 8540 ff7e 93bd
000001b0: 5d7c 4abd 074a 89bd d139 8240 8e12 09bd
000001c0: 40f2 f5bc 905c 8940 10db 8a40 e498 8840
000001d0: 6e53 8540 fcc5 8a40 7e51 d3bd 0615 28ba
000001e0: 1d6a 8740 1bc7 8840 2813 8240 cb53 8840
000001f0: c87f cfbd 2daa 68bc 239c d6bd e5a5 973d
-0.035478186 4.3332577 4.2269874 4.212042 -0.0859783 3.2818902 4.2211127 -0.0041043293
4.23555 -0.054312713 -0.07932509 0.014501491 -0.1752915 -0.025545806 -0.06412836 4.0488925
4.207885 -0.099309586 0.0030471992 4.309893 -0.012492643 0.003082466 -0.0004009997 4.2178392
0.0016844516 -0.026468813 4.1672335 -0.06880062 -0.038679577 -0.005923318 4.264909 4.2599196
4.0886955 -0.026429668 -0.0142966295 4.095117 4.207755 4.2649455 -0.14480364 4.251306
4.308437 -0.044898815 4.2091913 4.377555 4.257351 -0.05162154 4.191073 4.3216295
-0.041052204 -0.077572286 -0.08805883 4.286208 4.261359 0.002288325 4.3000665 4.2958384
4.181734 -0.03745486 4.1795506 -0.09192676 -0.10240543 4.235125 -0.1014202 -0.034552608
4.3369565 -0.00916525 -0.08912547 2.4373288 -0.055193402 4.246852 -0.060518187 -0.05058589
0.049221277 4.3067064 3.54612 4.2813106 4.2145658 -0.114348754 4.2091875 3.388884
-0.03404346 1.3658277 -0.09657114 4.2248993 -0.11106753 -0.023570225 4.2725387 3.3449936
4.3052773 4.273052 4.389499 -0.08418119 4.3540554 4.26075 4.186529 4.2790475
-0.02434136 -0.12441738 -0.038323484 -0.105574585 4.1916647 -0.016794767 4.3777795 -0.07294626
-0.013909042 -0.08736585 4.179238 -0.07201957 -0.04943501 -0.06703573 4.0695577 -0.03346496
-0.03002274 4.292549 4.339241 4.2686634 4.1664343 4.336668 -0.10318278 -0.0006411824
4.2317033 4.274305 4.0648384 4.2602286 -0.10131794 -0.014200729 -0.104789995 0.07404689

fc3.weight f4 [1, 128]
00000000: b957 26bd 3e61 333e cb3f 5b3e f3d7 5d3e
00000010: 003f 12bd 2f92 6a3e 99b8 483e e109 833c
00000020: d066 403e 8f63 ecbd ee0d 8d3c 7c9a 663a
00000030: 5920 2cbc 6dea df3c 9ad2 a0bb 9480 5c3e
00000040: efcb 5c3e 271e 92ba 0603 2ebd 2cd6 2f3e
00000050: 20a6 abbc 4b33 a53c 7c08 ee3c bee6 453e
00000060: 7f8a f03c 7769 52bc 4542 3a3e d95f d2bc
00000070: bb7a 31bd 0504 8d3c 8577 463e 4cba 393e
00000080: f147 283e 32d0 90bc d01e 87bc 81df f63d
00000090: 2438 4a3e b55d 483e 5afd 2ebc 24e2 813e
000000a0: 5db3 553e c77d 683c 1e20 603e b1b9 583e
000000b0: 455f 1f3e b98a 16bd f396 453e 034a 533e
000000c0: 9561 94bc edc3 1cbd af56 94bc 62cb 543e
000000d0: c7e6 533e 1152 b63c 3b4e 773e b99f 433e
000000e0: 29f3 213e 6ad4 fdbb 2296 263e 5bd4 9bbc
000000f0: b954 a8bc 1961 823e 9fa1 01bd 9374 a33c
00000100: dc09 6c3e 80a4 80bc 6a52 b63c 85cc e83d
00000110: b9c2 253c 8f69 833e dd1a a7bb 3263 01bd
00000120: 6030 05be 327c 543e a7b3 443e dbec 5d3e
00000130: aa7d 613e 8412 efbc 067d 1f3e 382a 513e
00000140: 94b0 d5bc e1b5 283e d430 90bc 1256 703e
00000150: 1e4e 8ebb 7915 e93c e01d 003e be95 323e
00000160: ec00 813e cfbd 4b3e 9072 703e 48e8 663c
00000170: 73eb 4f3e 6a89 463e a1d5 743e 7c79 483e
00000180: b6f4 c9bc 1ffa c13b 541c 51bd 5ea4 33bc
00000190: 202d 633e 3ec5 4d3c 6199 5f3e aac0 98bd
000001a0: d364 4cbc f58c 04bc fdde 4b3e 2934 68bb
000001b0: 60eb a9bc 92af 233c c55d 453e c85d f7bc
000001c0: 7b23 963c ac9c 833e 2a38 633e fe3d 563e
000001d0: 25b3 513e 1ef9 313e b72b 6f3a 1d8c d03c
000001e0: 2e42 693e 01c4 3f3e 47d9 473e 5273 593e
000001f0: 4f4a 8c3c e197 9ebc 8a35 543c d16a 03be
-0.040611003 0.17517564 0.21411054 0.2166441 -0.035704613 0.22907327 0.19601668 0.015995922
0.1878922 -0.11542427 0.017218556 0.00087968237 -0.010505759 0.027333463 -0.004907918 0.21533424
0.2156217 -0.0011147902 -0.042483352 0.17171544 -0.020953238 0.02016606 0.02905678 0.19326302
0.029362915 -0.012842528 0.18189342 -0.02568047 -0.043329936 0.01721383 0.1938153 0.18137473
0.16433693 -0.0176774 -0.016494185 0.12054349 0.19747978 0.19566996 -0.010680521 0.25367844
0.20869203 0.014190144 0.21887252 0.21164586 0.15563686 -0.03675339 0.19295864 0.20633702
-0.018112937 -0.038272787 -0.01810774 0.2078071 0.20693503 0.02225593 0.24150936 0.19103898
0.15815414 -0.007746269 0.16268209 -0.019022157 -0.020548211 0.25464705 -0.031648275 0.019953048
0.23050636 -0.01570344 0.022256095 0.11367134 0.010117226 0.25666472 -0.005099638 -0.03158874
-0.13006735 0.20750502 0.19209157 0.21672384 0.22020593 -0.029183634 0.15575036 0.20426261
-0.026085176 0.16475631 -0.017601408 0.23470333 -0.0043428084 0.028452622 0.12511396 0.17439935
0.25196016 0.19896625 0.23481202 0.014093466 0.2030466 0.19388357 0.23909618 0.19577593
-0.02465282 0.0059197093 -0.051052406 -0.010964481 0.22185183 0.012559233 0.21835853 -0.07458623
-0.01247521 -0.008090247 0.19909282 -0.003543148 -0.020742118 0.00999059 0.19274051 -0.030196086
0.018327465 0.2570547 0.22189394 0.20922086 0.20478494 0.17380187 0.00091236405 0.025457436
0.22779152 0.18727113 0.19516478 0.21235397 0.017125277 -0.01935953 0.012952218 -0.12833716
