models/actor_v2.pth (torch, 181068 bytes, 8 tensors)

fc1.weight f4 [256, 11]
0.11386821 0.04107014 -0.12938549 0.0032658968 -0.33733624 0.112692915 0.15817346 -0.33508986
-0.5671529 0.2996305 -0.3660739 0.33053592 -0.65836704 0.29932132 0.41029528 -0.17342418
0.019413823 -0.4453244 0.060472682 -0.17657313 -0.43644822 0.21404561 -0.28687376 0.13809557
-0.34513038 0.15797661 0.31910017 0.30057055 -0.72399974 -0.25550354 -0.08400873 -0.085724406
0.74574417 -0.28623232 -0.64691895 0.02137325 -0.24650577 0.0021023382 -0.07263865 0.079420894
-0.12447018 0.5369082 0.15813449 -0.3532605 -0.0775907 0.13563603 -0.15234825 0.017652549
-0.28749162 0.018348347 -0.044999357 0.01744403 0.17018302 -0.34308985 -0.22196387 0.2400058
-0.39397788 -0.06738192 -0.21629642 -0.47796166 0.46611843 -0.4193515 0.4650495 -0.28932
0.0030694706 -0.047435377 -0.06054925 -0.096388645 -0.27368674 0.060071845 -0.49303237 0.4338276
0.32544565 -0.20010287 0.33882377 0.20815663 -0.6349495 0.2085815 0.25700396 -0.13572873
-0.17998047 -0.11695592 0.4352755 0.07689594 -0.21602057 0.6474104 -0.38579398 0.848277
-0.050538275 0.03403501 -0.062271222 -0.16952212 -0.012807107 -0.32796073 -0.01917667 0.035637066
-0.29178038 -0.35858172 -0.21137369 -0.233478 0.13262105 0.11697772 0.541638 -0.4868
0.27691087 0.09043107 -0.26999164 -0.25434917 0.7580922 -0.77083194 -0.012888583 0.34124643
-0.47468713 0.10418455 -0.6570994 -0.59854996 0.41297957 -0.5098094 0.10033237 0.43139064
0.05690702 -0.12178332 0.0065549044 -0.06682064 -0.34212008 -0.114677735 0.43065804 -0.1236679
-0.25312626 0.31586164 0.15884945 -0.33786872 0.2801592 0.3522527 -0.2575861 -0.32759625
0.51153666 -0.6867977 0.06732105 0.5315461 -0.32611457 0.43075976 -0.3285563 0.31806627
0.23712394 -0.14212337 -0.6055153 -0.5243669 0.20761819 0.3776697 -0.11100119 0.5023683
-0.21817227 0.25217506 0.14825684 -0.05571474 0.011911899 -0.055248022 0.1732929 0.041648835
-0.1896117 -0.27744782 -0.06806865 -0.19965182 -0.24582964 0.26670098 0.14890054 -0.70073086
0.18972038 -0.8072992 0.27266166 -0.03654089 -0.32664558 -0.7605522 0.8421004 -0.09397781
-0.08021242 -0.19182508 0.73413706 0.4472188 -0.3881844 -0.62831604 -0.16932726 0.012810211
0.13270178 0.036666956 0.22664009 -0.2612538 0.091246486 -0.05454949 0.16298446 0.29586908
-0.2161627 -0.30442557 -0.3738515 -0.03226618 -0.4357776 0.27585635 0.19473928 0.12639783
-0.50767905 0.22644427 -0.6502326 -0.096967526 0.61240745 -0.5793622 -0.100261316 0.3989907
0.0055141053 -0.32788903 0.027954362 -0.12309655 -0.35896203 0.34583786 0.34474155 -0.6805878
-0.04796123 -0.4182938 -0.37255108 0.45460665 -0.6700055 -0.520822 -0.013777618 0.22295673
0.07203342 0.13108821 0.055678997 0.3584993 -0.054888625 -0.7135857 -0.40996447 0.29927808
-0.21969512 0.22203133 0.25796905 0.05438922 0.274312 -0.7722996 -0.39079478 -0.15063356
-0.29073116 0.9438053 0.32386845 0.4306238 -0.3086488 0.4806218 -0.6408373 -0.63875616
0.45286623 -0.51755065 0.20555557 0.4050096 0.033940796 -0.3097676 0.023520429 0.0068670367
00000000: bc33 e93d 2a39 283d a17d 04be a808 563b
00000010: 56b7 acbe 8bcb e63d 39f8 213e e690 abbe
00000020: ef30 11bf 2b69 993e 0a6e bbbe 013c a93e
00000030: be8a 28bf a540 993e 3912 d23e 1c96 31be
00000040: bd09 9f3c 8f01 e4be 34b2 773d 96cf 34be
00000050: 2476 dfbe c62e 5b3e 1ee1 92be ed68 0d3e
00000060: eeb4 b0be 9fc4 213e 1961 a33e 62e4 993e
00000070: 0c58 39bf 5cd1 82be c50c acbd 4790 afbd
00000080: 17e9 3e3f 0b8d 92be 7b9c 25bf f416 af3c
00000090: 026c 7cbe 62c7 093b 93c3 94bd 6ca7 a23d
000000a0: 39ea febd d172 093f 02ee 213e 8fde b4be
000000b0: dfe7 9ebd 2ce4 0a3e 2e01 1cbe 149c 903c
000000c0: 1a32 93be 464f 963c 3f51 38bd c8e6 8e3c
000000d0: 7544 2e3e 79a9 afbe 7f4a 63be 15c4 753e
000000e0: 78b7 c9be 88ff 89bd cf7c 5dbe 64b7 f4be
000000f0: 13a7 ee3e 3db5 d6be f81a ee3e c021 94be
00000100: 2c29 493b 994b 42bd 7e02 78bd 6967 c5bd
00000110: ab20 8cbe e50d 763d bd6e fcbe a71e de3e
00000120: d0a0 a63e c4e7 4cbe 4f7a ad3e 0327 553e
00000130: 0d8c 22bf 6496 553e 0696 833e 79fc 0abe
00000140: cd4c 38be 9686 efbd 6edc de3e 9e7b 9d3d
00000150: 7f34 5dbe b0bc 253f ca86 c5be ae28 593f
00000160: 3901 4fbd 4b68 0b3d 1c10 7fbd 3597 2dbe
00000170: e6d4 51bc 78ea a7be 6418 9dbc 2cf8 113d
00000180: 3d64 95be 0698 b7be 5872 58be db14 6fbe
00000190: d0cd 073e 0492 ef3d caa8 0a3f d93d f9be
000001a0: 43c7 8d3e ed33 b93d 583c 8abe 0e3a 82be
000001b0: 5512 423f 3e55 45bf a32a 53bc dab7 ae3e
000001c0: 310a f3be b65e d53d ab37 28bf 923a 19bf
000001d0: 0f72 d33e de82 02bf 0f7b cd3d 3cdf dc3e
000001e0: 5617 693d 8969 f9bd 86ca d63b 42d9 88bd
000001f0: 5d2a afbe 29dc eabd 367f dc3e 9945 fdbd
00000200: c499 81be 9eb8 a13e 6ea9 223e 21fd acbe
00000210: 0771 8f3e 775a b43e 53e2 83be b2ba a7be
00000220: 11f4 023f f9d1 2fbf 9edf 893d 6813 083f
00000230: 7df8 a6be 8b8c dc3e 8838 a8be 95d9 a23e
00000240: 9ed0 723e ca88 11be 0d03 1bbf e93c 06bf
00000250: dd99 543e ec5d c13e 9854 e3bd 359b 003f
00000260: 8d68 5fbe 171d 813e a4d0 173e 2435 64bd
00000270: 202a 433c c04b 62bd b273 313e f897 2a3d
00000280: 9229 42be a40d 8ebe 9467 8bbd 8771 4cbe
00000290: c4ba 7bbe 088d 883e 6279 183e 1963 33bf
000002a0: 0f46 423e 29ab 4ebf 4f9a 8b3e e6ab 15bd
000002b0: 173e a7be 8db3 42bf e493 573f 7077 c0bd
000002c0: 6946 a4bd cb6d 44be 68f0 3b3f ddf9 e43e
000002d0: 1bc0 c6be 52d9 20bf 2064 2dbe ebe1 513c
000002e0: fae2 073e 1730 163d 5714 683e 0fc3 85be
000002f0: 70df ba3d 496f 5fbd 66e5 263e 277c 973e
00000300: c159 5dbe abdd 9bbe 7769 bfbe 8b29 04bd
00000310: 3e1e dfbe 0b3d 8d3e bc69 473e 6f6e 013e
00000320: 41f7 01bf 02e1 673e a575 26bf e996 c6bd
00000330: bcc6 1c3f 1551 14bf ce55 cdbd 8248 cc3e
00000340: abaf b43b 12e1 a7be 8c00 e53c 0b1a fcbd
00000350: dfc9 b7be a911 b13e f781 b03e 013b 2ebf
00000360: ff72 44bd 9b2a d6be 04bf bebe 34c2 e83e
00000370: 7b85 2bbf 9754 05bf 85bb 61bc c54e 643e
00000380: 4286 933d fd3b 063e a90f 643d 388d b73e
00000390: e5d2 60bd 8dad 36bf dde6 d1be fa3a 993e
000003a0: c2f7 60be 2e5c 633e 8514 843e 3bc7 5e3d
000003b0: 9f72 8c3e 6db5 45bf 4116 c8be af3f 1abe
000003c0: b7da 94be 399d 713f 16d2 a53e b97a dc3e
000003d0: 3707 9ebe 1014 f63e ea0d 24bf 8685 23bf
000003e0: 15de e73e 337e 04bf 297d 523e 6b5d cf3e
000003f0: 8105 0b3d dc99 9ebe eaad c03c e104 e13b

fc1.bias f4 [256]
-0.0956336 -0.3390773 -0.32717848 0.25765604 -0.34191445 -0.31682718 0.2100105 0.15203278
-0.0766376 0.038521893 0.01253441 -0.4202118 -0.1627412 -0.10891761 -0.267158 -0.124384016
-0.23532294 -0.37779874 0.056202643 -0.011930025 0.34158543 -0.102479294 0.04929814 0.04104874
0.30712765 0.08696652 -0.14195988 0.06419959 -0.24520744 -0.2610499 -0.15167543 -0.16003224
-0.21032785 0.1547235 -0.15130556 -0.10177934 0.04685854 -0.4723611 0.1665608 -0.103537
-0.14727569 0.16389054 -0.3620267 -0.4675192 -0.27411 -0.36574098 -0.12559877 0.020524926
-0.14382406 0.11909168 -0.18854317 0.061837725 -0.18249951 0.08242467 0.28278753 -0.1436417
-0.33359766 -0.35670778 -0.20816696 -0.2270258 0.07803409 0.5305924 0.09355219 -0.030568037
-0.06685221 -0.3578405 0.062223513 -0.045782425 -0.032166228 0.31012824 0.34865326 0.19645515
-0.068609506 -0.0011430167 0.24735938 0.12788808 -0.29757136 0.19688511 0.30352825 -0.06209276
-0.40021828 -0.15540001 0.08069978 -0.37047037 0.22391133 -0.16962464 0.114615984 -0.09432143
0.034047972 0.10964069 0.6250782 0.02175208 0.14376543 0.3800284 -0.19373149 0.024218151
0.20115298 0.1299191 0.077458836 0.1490203 -0.1550229 0.09490668 -0.24810168 -0.01991707
0.022005828 0.14229687 -0.11809481 -0.11365082 0.229739 -0.37470236 -0.024332376 -0.09855452
-0.21428962 0.25322324 -0.31037864 0.12205609 0.0004143288 -0.16742185 0.1544676 0.16852912
0.18382756 -0.19990876 -0.3775351 -0.084112875 0.02865173 -0.25585195 -0.3956676 -0.23778887
-0.12616397 0.019797865 0.2765392 0.20919028 -0.4028218 -0.27850795 -0.20910646 -0.030157648
0.23170185 -0.120163575 -0.045590814 0.009866484 -0.39497545 0.13887669 0.17557809 -0.08780039
0.08570593 -0.24604864 -0.46490628 -0.026455486 -0.2883444 0.12934084 -0.2753597 -0.10614193
0.16008556 -0.028922364 -0.150669 -0.022453127 -0.2153859 0.014335248 0.026857065 -0.3392214
-0.02442592 -0.4804938 0.23325375 0.31251562 -0.06396906 -0.27400944 -0.1798453 -0.024040611
0.11694967 0.012201694 -0.34953278 -0.1506568 0.16272911 -0.020204058 0.29910564 0.22414295
0.14680478 -0.2286419 0.15803538 0.066426784 -0.18409649 -0.059167348 0.22034173 0.022811553
-0.27577978 0.3875367 -0.33175173 -0.14131075 -0.17985775 -0.2703397 0.24660091 0.06891651
-0.23295046 -0.3101705 0.18432316 0.0030646513 0.30855918 0.50671065 0.08180186 -0.029410593
-0.1858589 -0.32401845 0.3306124 0.31589136 -0.02203885 -0.2626856 -0.13412106 0.20410512
0.043676913 -0.2009869 -0.05593425 0.10867327 0.23910306 -0.00042996948 -0.034399852 -0.057559945
0.22756688 -0.40422106 0.17052734 -0.2910541 -0.49774444 0.22931516 -0.14920962 0.15422763
0.21477772 -0.15396103 -0.085305974 0.20797116 0.42636666 -0.4474463 -0.048903555 -0.13653314
-0.34015802 0.12901327 -0.32894704 0.22937983 -0.01535462 0.14214481 -0.038381103 -0.099731214
-0.4877259 -0.043236144 -0.19797496 -0.49312097 0.134034 0.06146678 -0.119706236 0.03293602
0.09895454 0.14657462 0.12851097 -0.29369414 0.009055575 -0.14272062 0.006621539 0.078134395
00000000: 8ddb c3bd 8a9b adbe f083 a7be 7eeb 833e
00000010: 690f afbe 2c37 a2be fe0c 573e 7bae 1b3e
00000020: 2df4 9cbd 22c9 1d3d 205d 4d3c 0026 d7be
00000030: a1a5 26be 3210 dfbd efc8 88be 0cbd febd
00000040: 7ff8 70be d66e c1be be34 663d 2776 43bc
00000050: 49e4 ae3e aae0 d1bd d9ec 493d b922 283d
00000060: d63f 9d3e 811b b23d ee5d 11be 137b 833d
00000070: a917 7bbe 55a8 85be ce50 1bbe 7edf 23be
00000080: 2f60 57be d66f 1e3e d8ef 1abe b071 d0bd
00000090: beee 3f3d 50d9 f1be ea8e 2a3e 350b d4bd
000000a0: 70cf 16be ecd2 273e 905b b9be ad5e efbe
000000b0: 2558 8cbe 6742 bbbe f79c 00be e423 a83c
000000c0: 9d46 13be 57e6 f33d 7611 41be 8e49 7d3d
000000d0: 27e1 3abe 44ce a83d 87c9 903e cf16 13be
000000e0: 50cd aabe 67a2 b6be b829 55be 7479 68be
000000f0: 56d0 9f3d e7d4 073f 4a98 bf3d d269 fabc
00000100: d0e9 88bd df36 b7be 15de 7e3d 5a86 3bbd
00000110: bcc0 03bd 21c9 9e3e ae82 b23e 8a2b 493e
00000120: 2483 8cbd 47d1 95ba c74b 7d3e 18f5 023e
00000130: 465b 98be 409c 493e 0e68 9b3e fa54 7ebd
00000140: 69e9 ccbe 2e21 1fbe ed45 a53d 4bae bdbe
00000150: 0349 653e 15b2 2dbe c9bb ea3d 982b c1bd
00000160: e375 0b3d 4c8b e03d 2005 203f 6b31 b23c
00000170: 3f37 133e 1593 c23e 8c61 46be 2565 c63c
00000180: 0cfb 4d3e 8309 053e bda2 9e3d c798 183e
00000190: 53be 1ebe 6f5e c23d 5e0e 7ebe 2029 a3bc
000001a0: 9145 b43c 45b6 113e b1db f1bd c3c1 e8bd
000001b0: b340 6b3e fdd8 bfbe b154 c7bc f4d6 c9bd
000001c0: bd6e 5bbe 7aa6 813e f3e9 9ebe 8bf8 f93d
000001d0: 453a d939 a270 2bbe c12c 1e3e e692 2c3e
000001e0: 4b3d 3c3e e2b4 4cbe 484c c1be 5f43 acbd
000001f0: 08b7 ea3c 07ff 82be f294 cabe ed7e 73be
00000200: 2131 01be 222f a23c 8c96 8d3e fa35 563e
00000210: a93e cebe 9898 8ebe 0120 56be 2c0d f7bc
00000220: 4043 6d3e 5218 f6bd 6fbd 3abd 09a7 213c
00000230: 393a cabe b135 0e3e beca 333e b1d0 b3bd
00000240: 9786 af3d 2df4 7bbe 3208 eebe 2db9 d8bc
00000250: e1a1 93be ed71 043e f2fb 8cbe f160 d9bd
00000260: 78ed 233e 98ee ecbc f948 1abe 9fef b7bc
00000270: 1f8e 5cbe 63de 6a3c 5903 dc3c 6dae adbe
00000280: de18 c8bc 4903 f6be 12da 6e3e 0c02 a03e
00000290: 3602 83bd f74a 8cbe 5e29 38be d1f0 c4bc
000002a0: 4f83 ef3d 9de9 473c f6f5 b2be c745 1abe
000002b0: 76a2 263e fb82 a5bc 6024 993e bb85 653e
000002c0: fe53 163e 1a21 6abe 07d4 213e c40a 883d
000002d0: ca83 3cbe 7659 72bd 43a1 613e 4bdf ba3c
000002e0: 0233 8dbe 366b c63e 5ddb a9be c4b3 10be
000002f0: a12c 38be f769 8abe f384 7c3e 1924 8d3d
00000300: 918a 6ebe abce 9ebe 36bf 3c3e 51d8 483b
00000310: 78fb 9d3e cab7 013f bc87 a73d 7cee f0bc
00000320: cc51 3ebe bfe5 a5be 0746 a93e 83bc a13e
00000330: d18a b4bc ba7e 86be 0857 09be ef00 513e
00000340: 90e6 323d 83cf 4dbe 501b 65bd 1790 de3d
00000350: 6fd7 743e 876d e1b9 dce6 0cbd fac3 6bbd
00000360: 4b07 693e 10f6 cebe b89e 2e3e 0b05 95be
00000370: 5cd8 febe 98d1 6a3e 68ca 18be d9ed 1d3e
00000380: b1ee 5b3e f6a7 1dbe e6b4 aebd 64f6 543e
00000390: bb4c da3e ae17 e5be 184f 48bd 58cf 0bbe
000003a0: 3129 aebe 0e1c 043e bf6b a8be 8ce2 6a3e
000003b0: f291 7bbc 698e 113e 8135 1dbd e13f ccbd
000003c0: 36b7 f9be 6218 31bd f3b9 4abe 5a7a fcbe
000003d0: 3540 093e 97c4 7b3d 8b28 f5bd ece7 063d
000003e0: aea8 ca3d a817 163e 6198 033e 145f 96be
000003f0: d65d 143c 5b25 12be 7ff9 d83b ed04 a03d

fc2.weight f4 [128, 256]
-0.01913763 -0.079139404 -0.21945381 0.26062337 0.19046235 0.0056737303 0.16391255 -0.028671067
0.06654697 -0.1486938 0.5722934 -0.25227493 -0.262628 -0.079930015 -0.016540222 0.45072854
0.08275411 0.05941543 0.24823949 -0.1348722 -0.11789938 0.12803444 0.4984625 -0.054829367
0.22330995 -0.38219708 -0.15132606 -0.18165591 0.33463418 0.035901163 -0.25514373 -0.06602357
-0.23381597 -0.37477103 0.07427713 0.1928727 -0.26615414 0.045557063 -0.8033684 -0.14016968
-0.18439743 -0.32280195 0.11777967 0.0031531095 -0.16781111 0.023162734 -0.025529128 0.2317121
-0.22396724 -0.06654768 0.5301585 -0.48105118 -0.056362756 -0.6841548 -0.25765473 -0.36515877
0.1788575 -0.18202929 0.07175691 0.09529741 -0.28273892 0.09766416 -0.27330875 -0.06574207
0.28964004 0.020119488 0.37069464 0.19037221 -0.015372083 0.24326359 0.0086376155 0.15127154
0.15635522 -0.036203466 0.117012784 -0.7192497 -0.36420786 0.026044087 -0.39052665 -0.0056808814
0.029707015 -0.05014887 -0.09203456 -0.16739708 -0.14914055 0.0912886 -0.04927566 -0.010376227
0.1336536 -0.042900115 -0.050767858 -0.13610391 0.25335723 -0.33157426 0.040872656 -0.041744214
-0.36642158 -0.2983428 -0.39991388 -0.1376186 0.04734077 0.33297756 0.1276929 -0.3896258
0.045850985 0.27502194 -0.055507604 -0.09627441 -0.036920015 -0.4146062 0.6076323 0.025857806
-0.30664566 0.09868641 0.31288856 -0.09597954 0.08119804 0.36335966 0.0792203 0.14366299
0.52600694 -0.028686833 0.29363343 -0.1315822 -0.1290226 -0.006018229 -0.20432556 0.030094665
0.13103163 -0.28470045 0.18236005 -0.16050394 0.22032066 -0.07428572 -0.47169796 -0.318531
-0.028086163 0.268533 -0.12532008 -0.10930903 0.18415974 -0.41103822 -0.25693852 -0.36196598
0.022767117 0.25806993 0.1122568 -0.15341319 -0.031029845 0.05617329 -0.05131586 0.013845093
0.097942606 0.06580248 -0.7137413 0.108337454 -0.2114027 -0.027291741 -0.15773448 -0.053632025
-0.08542677 -0.0012689657 -0.36196926 0.089789785 0.016172346 0.37372378 0.2512523 -0.086439714
-0.07107058 -0.085899174 -0.06234277 0.24249698 -0.19836034 -0.22988951 0.07383492 -0.47735327
-0.10273981 -0.08056078 -0.16455503 -0.29407537 -0.5927445 -0.110559486 -0.10901961 -0.20867434
0.012420237 -0.29347765 0.03468668 0.0682548 0.33771646 0.030248148 -0.6244075 -0.029395506
-0.017077362 0.08628094 -0.6817638 -0.5193098 -0.6999856 0.22596338 0.12002616 0.06591974
-0.47944775 -0.22805972 -0.34213468 -0.037253745 -0.45717612 -0.055769727 0.020516984 -0.008720259
0.10609967 0.039158344 -0.022322163 -0.051351663 -0.36589634 -0.174726 -0.48347133 0.16780977
-0.3298197 0.18816073 0.059319004 0.018092796 0.05182134 -0.31479207 -0.2470453 -0.24214259
-0.208117 0.0583025 -0.039106645 -0.01342341 0.08921593 0.003962638 0.14165018 0.05018589
-0.02898776 -0.30854872 0.09738065 -0.24264035 0.23771194 0.039767276 -0.08468842 -0.03989639
0.102724314 -0.3677619 -0.556639 0.09471298 -0.10227253 -0.18117636 -0.1590648 -0.097850196
0.08300888 0.41695133 -0.46505013 -0.0027065664 -0.16528438 0.16885903 -0.20971334 -0.3416518
00000000: 85c6 9cbc d713 a2bd 80b8 60be 6d70 853e
00000010: 9008 433e b3ea b93b b1d8 273e 96df eabc
00000020: c749 883d 3043 18be d281 123f 2e2a 81be
00000030: 2d77 86be 59b2 a3bd 5c7f 87bc e4c5 e63e
00000040: fd7a a93d 985d 733d 7e32 7e3e f01b 0abe
00000050: 3b75 f1bd 761b 033e 7a36 ff3e c294 60bd
00000060: 5dab 643e 56af c3be 38f5 1abe 0204 3abe
00000070: 2c55 ab3e 190d 133d 33a2 82be 5e37 87bd
00000080: 746d 6fbe fde1 bfbe 9c1e 983d 6c80 453e
00000090: 5b45 88be 0b9a 3a3d 8da9 4dbf a488 0fbe
000000a0: aed2 3cbe 4c46 a5be 7836 f13d 66a4 4e3b
000000b0: add6 2bbe c6bf bd3c 7622 d1bc f045 6d3e
000000c0: ab57 65be 264a 88bd 78b8 073f 574c f6be
000000d0: a2dc 66bd c524 2fbf 52eb 83be 17f6 babe
000000e0: 6c26 373e e365 3abe 49f5 923d 4a2b c33d
000000f0: 28c3 90be 2604 c83d 20ef 8bbe c7a3 86bd
00000100: b34b 943e a0d1 a43c b0cb bd3e eff0 423e
00000110: 30db 7bbc 171a 793e c984 0d3c ede6 1a3e
00000120: 951b 203e 164a 14bd 66a4 ef3d c020 38bf
00000130: 7479 babe 695a d53c 1cf3 c7be b026 babb
00000140: 205c f33c e768 4dbd 9e7c bcbd 246a 2bbe
00000150: 4db8 18be 84f5 ba3d 46d5 49bd 0d01 2abc
00000160: 7ddc 083e 08b8 2fbd f5f1 4fbd d35e 0bbe
00000170: 0ab8 813e 1ac4 a9be 166a 273d fbfb 2abd
00000180: 9c9b bbbe 63c0 98be 83c1 ccbe e4eb 0cbe
00000190: 65e8 413d 097c aa3e edc1 023e 087d c7be
000001a0: 3ece 3b3d adcf 8c3e f15b 63bd 852b c5bd
000001b0: 7139 17bd 4447 d4be ca8d 1b3f c0d3 d33c
000001c0: a900 9dbe 1a1c ca3d ee32 a03e ec90 c4bd
000001d0: 284b a63d 470a ba3e 413e a23d 641c 133e
000001e0: 64a8 063f a600 ebbc 1f57 963e 7cbd 06be
000001f0: 801e 04be 9034 c5bb b83a 51be 1689 f63c
00000200: 282d 063e 42c4 91be 98bc 3a3e 255b 24be
00000210: bd9b 613e 1d23 98bd 6582 f1be 7f16 a3be
00000220: f414 e6bc 287d 893e e853 00be 6add dfbd
00000230: 5f94 3c3e 9a73 d2be 728d 83be 9b53 b9be
00000240: 1b82 ba3c be21 843e e5e6 e53d 5918 1dbe
00000250: 4d32 febc f715 663d 9430 52bd 87d6 623c
00000260: 2296 c83d 73c3 863d c0b7 36bf 07e0 dd3d
00000270: f379 58be ee92 dfbc 2685 21be 41ad 5bbd
00000280: 3bf4 aebd 6c53 a6ba 0954 b9be b5e3 b73d
00000290: de7b 843c b958 bf3e 24a4 803e 4e07 b1bd
000002a0: 748d 91bd e8eb afbd 225b 7fbd 2151 783e
000002b0: f91e 4bbe 2868 6bbe c336 973d a667 f4be
000002c0: 4069 d2bd 0dfd a4bd 1d81 28be 0c91 96be
000002d0: 1bbe 17bf 036d e2bd ac45 dfbd baae 55be
000002e0: 407e 4b3c b442 96be 9f13 0e3d 2cc9 8b3d
000002f0: 2ce9 ac3e f7ca f73c 2bd9 1fbf d8ce f0bc
00000300: d3e5 8bbc 10b4 b03d 1388 2ebf 7df1 04bf
00000310: 4232 33bf f262 673e 46d0 f53d ee00 873d
00000320: 2d7a f5be 7d88 69be 472c afbe 6297 18bd
00000330: fd12 eabe cc6e 64bd 3c13 a83c 6bdf 0ebc
00000340: c94a d93d 8064 203d f8dc b6bc 1f56 52bd
00000350: c456 bbbe 5feb 32be 8e89 f7be 53d6 2b3e
00000360: 21de a8be 35ad 403e 7cf8 723d 5837 943c
00000370: 9d42 543d 6d2c a1be 71f9 7cbe 3af4 77be
00000380: 9f1c 55be 9ace 6e3d 4a2e 20bd dded 5bbc
00000390: d7b6 b63d 04d9 813b bf0c 113e b88f 4d3d
000003a0: bd77 edbc 19fa 9dbe 826f c73d b676 78be
000003b0: c26a 733e 03e3 223d 1f71 adbd 666a 23bd
000003c0: 2061 d23d 4a4b bcbe e57f 0ebf e1f8 c13d
000003d0: 4374 d1bd 4c86 39be e2e1 22be af65 c8bd
000003e0: 8f00 aa3d a57a d53e 0d1b eebe a660 31bb
000003f0: 4f40 29be 62e9 2c3e 18bf 56be fcec aebe

fc2.bias f4 [128]
0.0005094447 0.21322496 -0.22901572 -0.02132198 -0.12003741 -0.030937696 -0.10219228 -0.14341953
0.062160246 0.03410538 -0.038821876 -0.08875956 -0.068648696 -0.069296144 0.004670451 0.07873229
-0.05421813 -0.19370861 -0.11541295 -0.06997319 -0.04189267 -0.057185333 0.09620294 -0.035269953
-0.035244215 0.018174868 -0.0661571 -0.08160565 -0.018838096 -0.11536371 -0.02974996 -0.094209746
-0.102307186 0.061251216 -0.012893807 -0.028329765 0.2212223 0.0962759 -0.057582017 -0.07946538
0.118165635 -0.22611593 -0.026866991 -0.054173194 -0.026083559 0.027748108 0.0231062 -0.02009182
0.100977436 -0.038015347 -0.07033073 -0.009614341 0.09223091 -0.16272724 -0.11915886 -0.3177444
0.052241758 0.0066297892 -0.044288296 -0.03198496 0.024220996 -0.04339755 0.19480722 -0.051965714
-0.15342239 -0.22311626 -0.34875688 0.03127178 -0.079921536 0.025785401 0.001755845 -0.031420972
-0.032130178 -0.09154249 -0.035586294 -0.007388063 -0.05287316 -0.02885261 0.002131112 -0.24348815
-0.038867183 -0.08634231 -0.13020013 0.17382634 0.047846805 -0.0055391835 -0.0682032 0.06367777
-0.087200135 -0.07261626 -0.07589938 -0.031419486 0.07627983 0.299977 -0.23943509 0.10502477
0.13444075 0.14322251 -0.14723599 -0.08384854 0.07929493 -0.07684959 0.02271479 0.006236448
-0.032461118 0.046603587 -0.23994261 0.20105761 0.04105513 -0.01821859 -0.070976146 -0.051814746
-0.10944558 -0.1619569 -0.17769404 -0.06739683 0.08072243 0.077341914 -0.14681868 -0.017314387
-0.08546286 -0.05609283 0.021931175 -0.18614745 -0.21161096 -0.023832316 -0.028151423 -0.34819853
00000000: 418c 053a a557 5a3e 1983 6abe 6fab aebc
00000010: 2cd6 f5bd 0d71 fdbc 304a d1bd 92dc 12be
00000020: be9b 7e3d 15b2 0b3d b003 1fbd 92c7 b5bd
00000030: b097 8cbd 23eb 8dbd 950a 993b 653e a13d
00000040: d413 5ebd 8d5b 46be a05d ecbd 1b4e 8fbd
00000050: a697 2bbd 2b3b 6abd 0c06 c53d 3a77 10bd
00000060: 3d5c 10bd 76e3 943c 607d 87bd dd20 a7bd
00000070: 5a52 9abc cf43 ecbd 30b6 f3bc 0af1 c0bd
00000080: 6e86 d1bd 8ee2 7a3d 8c40 53bc d313 e8bc
00000090: 1988 623e 4d2c c53d 1fdb 6bbd bfbe a2bd
000000a0: d300 f23d ef8a 67be 2a18 dcbc b6e4 5dbd
000000b0: 30ad d5bc 0050 e33c 3749 bd3c 9a97 a4bc
000000c0: 42cd ce3d fbb5 1bbd 8f09 90bd 7885 1dbc
000000d0: 8fe3 bc3d f8a1 26be 8f09 f4bd 65af a2be
000000e0: 74fb 553d b43e d93b a567 35bd a902 03bd
000000f0: 1c6b c63c a1c1 31bd 8b7b 473e 00da 54bd
00000100: c21a 1dbe 9778 64be 4390 b2be d716 003d
00000110: e7ad a3bd e83b d33c 6224 e63a 47b3 00bd
00000120: ef9a 03bd a17a bbbd efc2 11bd 9017 f2bb
00000130: 8791 58bd 4f5c ecbc 20aa 0b3b f554 79be
00000140: 3233 1fbd 3dd4 b0bd 2f53 05be 88ff 313e
00000150: 03fb 433d 0a82 b5bb 1fae 8bbd 7e69 823d
00000160: fc95 b2bd d5b7 94bd 2271 9bbd b8b1 00bd
00000170: 9938 9c3d 9696 993e 792e 75be 3a17 d73d
00000180: d6aa 093e eca8 123e 08c5 16be c9b8 abbd
00000190: 6165 a23d 5163 9dbd 5e14 ba3c 1e5b cc3b
000001a0: f3f5 04bd 67e3 3e3d 84b3 75be 0ce2 4d3e
000001b0: 6d29 283d 273f 95bc f15b 91bd b33b 54bd
000001c0: 0125 e0bd 08d8 25be 6df5 35be 5907 8abd
000001d0: cd51 a53d 7065 9e3d a357 16be e7d6 8dbc
000001e0: 2707 afbd 98c1 65bd 02a9 b33c 709d 3ebe
000001f0: 8bb0 58be fd3b c3bc d09d e6bc 1447 b2be

fc3.weight f4 [64, 128]
0.093722396 -0.20526193 -0.39903352 -0.008765089 -0.3056686 -0.106535986 0.08375521 0.059627846
-0.008774782 0.20284532 -0.039335072 0.025178725 -0.12356805 -0.25867203 -0.08254427 0.2990879
-0.00344181 -0.22500539 -0.009219074 -0.060131244 -0.032394595 0.08392962 0.055826273 -0.029552095
-0.048884366 0.033737097 -0.06352361 -0.065836914 -0.04057181 -0.026477054 0.018323824 -0.004901732
0.11199922 0.28723648 -0.05333371 0.08462673 -0.18111448 -0.27041405 0.022710953 -0.27608055
0.11301467 0.013556949 0.06729435 -0.0056941137 -0.2593729 -0.00034599545 0.10505901 -0.022421364
0.5384699 -0.37128368 -0.03634126 0.05736753 -0.23110372 0.05334878 -0.028646193 -0.06135711
-0.23301363 0.049087204 0.021661319 -0.072789416 0.042205777 0.050784566 0.4779497 -0.06644489
0.053099606 -0.08730433 0.08544916 0.08910825 -0.05569573 -0.37201145 -0.105254084 0.026557073
-0.07577298 0.015668068 -0.014407324 0.092279434 -0.075533964 0.14013822 -0.021613434 -0.10559631
-0.02520526 -0.029228332 -0.037794176 0.3036683 -0.21056558 -0.10091472 -0.038967002 -0.13449214
0.027186697 0.13080265 -0.33008882 0.05250475 -0.20200896 0.22285256 -0.37672892 0.009309716
0.10617209 0.016333241 0.20325182 -0.041168593 0.5167536 -0.06017634 -0.039980486 0.058532406
-0.07834401 0.15836187 0.0070856363 -0.020797227 0.2068226 0.029676892 0.061485954 0.054459017
-0.2859865 -0.2803069 -0.19191392 0.016809946 0.4214511 -0.26809362 0.5794641 -0.032941964
-0.08218199 0.12650797 -0.070323065 -0.070226476 -0.11482262 0.08660204 -0.28423443 0.06906546
0.26356134 -0.07994777 0.5923295 -0.052134816 0.20589529 -0.16942726 0.03374677 -0.07584756
-0.025933027 -0.14649945 0.028434984 -0.026871828 -0.0726634 0.4113358 -0.08054751 0.039028984
0.092849806 0.3179914 0.054336183 -0.047545563 0.05073188 0.044463225 0.28546846 -0.0024422677
-0.074837685 0.07542161 0.3469388 -0.05548252 0.011303349 0.06997996 0.11486331 0.10593974
0.20828418 0.37460113 0.16634308 -0.004293694 0.70216006 0.13732944 -0.067278065 0.50229967
0.3743948 -0.28701937 0.01059278 0.0178827 0.48179707 0.2851321 -0.2945948 -0.06687932
-0.16654119 0.40318957 -0.06372421 0.008924958 0.02177192 -0.12870103 0.04001617 0.19451635
-0.032124914 0.01596264 -0.043124203 0.06043021 0.013253362 -0.06500102 -0.24191934 0.011034916
-0.20661283 -0.010671804 -0.26730126 0.09852514 -0.019373761 0.33822417 -0.11358158 -0.085804574
0.051725484 0.050680313 0.042282093 0.003748188 -0.3815212 0.08129876 -0.057442572 -0.03539395
0.054201357 0.03490544 -0.2854102 -0.049147293 0.46625206 -0.14594218 -0.0005632984 7.7436525e-05
0.07528242 0.061075546 0.12063816 -0.033381615 -0.11803951 -0.09954349 0.3073254 -0.033140633
-0.05413344 -0.0042858985 0.20567325 -0.03592481 -0.11931859 -0.08289553 0.040923677 -0.06570712
0.0018158675 -0.16824292 0.05183702 -0.14348476 0.13032216 0.021342989 -0.018044144 0.04412628
0.45284486 -0.17636706 0.35137925 0.07871693 0.0042368053 0.064031936 0.025766548 0.020378005
0.5134036 0.059456207 -0.036236435 -0.065624185 0.027844798 0.13910855 -0.055986635 0.25955394
00000000: 87f1 bf3d 2f30 52be 1f4e ccbe 739b 0fbc
00000010: 9880 9cbe 8a2f dabd da87 ab3d 543c 743d
00000020: 1ac4 0fbc afb6 4f3e d01d 21bd 9d43 ce3c
00000030: 3f11 fdbd a970 84be f80c a9bd 0d22 993e
00000040: fd8f 61bb d067 66be 990b 17bc 2e4c 76bd
00000050: 32b0 04bd 4be3 ab3d 17aa 643d 3c17 f2bc
00000060: f93a 48bd e92f 0a3d ab18 82bd 81d5 86bd
00000070: a02e 26bd 68e6 d8bc d81b 963c b59e a0bb
00000080: d95f e53d a910 933e 7374 5abd c750 ad3d
00000090: 1376 39be b673 8abe 520c ba3c 6e5a 8dbe
000000a0: 3c74 e73d f71d 5e3c 9fd1 893d b095 babb
000000b0: 86cc 84be b966 b5b9 2e29 d73d 02ad b7bc
000000c0: 2ad9 093f e518 bebe 93da 14bd 37fa 6a3d
000000d0: 74a6 6cbe 4084 5a3d 6cab eabc 9851 7bbd
000000e0: 209b 6ebe aa0f 493d 1473 b13c 9e12 95bd
000000f0: f7df 2c3d 7a03 503d d3b5 f43e 4214 88bd
00000100: f97e 593d 9dcc b2bd f8ff ae3d 637e b63d
00000110: 3521 64bd 4978 bebe 748f d7bd 388e d93c
00000120: dd2e 9bbd 525a 803c b20c 6cbc 00fd bc3d
00000130: 8db1 9abd 6580 0f3e a80e b1bc e142 d8bd
00000140: 437b cebc 4170 efbc 11ce 1abd 697a 9b3e
00000150: 819e 57be 60ac cebd dd9b 1fbd 4fb8 09be
00000160: a3b6 de3c 21f1 053e 6701 a9be 390f 573d
00000170: 70db 4ebe 7633 643e 9de2 c0be c787 183c
00000180: c170 d93d 4acd 853c 3f21 503e 66a0 28bd
00000190: f749 043f 777b 76bd 94c2 23bd adbf 6f3d
000001a0: d372 a0bd 9d29 223e a02e e83b f25e aabc
000001b0: 4ec9 533e f41c f33c b2d8 7b3d 6b10 5f3d
000001c0: d36c 92be 6384 8fbe 1585 44be 03b5 893c
000001d0: 70c8 d73e 9143 89be c257 143f 27ee 06bd
000001e0: 084f a8bd 4e8b 013e 8a05 90bd e6d2 8fbd
000001f0: 1f28 ebbd 695c b13d 2d87 91be 3172 8d3d
00000200: 83f1 863e a8bb a3bd e8a2 173f 518b 55bd
00000210: 37d6 523e 577e 2dbe 0e3a 0a3d f755 9bbd
00000220: 8071 d4bc f403 16be 7cf0 e83c 4f22 dcbc
00000230: 8cd0 94bd 9b9a d23e 18f6 a4bd dbdc 1f3d
00000240: 0a28 be3d c5cf a23e 9e8f 5e3d 23bf 42bd
00000250: 3bcc 4f3d 121f 363d ec28 923e 740e 20bb
00000260: 8044 99bd a576 9a3d f6a1 b13e a441 63bd
00000270: af31 393c a751 8f3d 743d eb3d eff6 d83d
00000280: 7348 553e b8cb bf3e d755 2a3e 1eb2 8cbb
00000290: c3c0 333f 17a0 0c3e 15c9 89bd b696 003f
000002a0: adb0 bf3e 34f4 92be 578d 2d3c bd7e 923c
000002b0: 1bae f63e d6fc 913e 21d5 96be 06f8 88bd
000002c0: c689 2abe dd6e ce3e d781 82bd fd39 123c
000002d0: 075b b23c 34ca 03be ffe7 233d 4b2f 473e
000002e0: 6a95 03bd 15c4 823c 01a3 30bd ab85 773d
000002f0: a124 593c 411f 85bd b4b9 77be cbcb 343c
00000300: 5092 53be cad8 2ebc b6db 88be 8cc7 c93d
00000310: b9b5 9ebc b82b ad3e 769d e8bd 4fba afbd
00000320: 1ade 533d 2996 4f3d fd2f 2d3d 29a4 753b
00000330: bf56 c3be f77f a63d e748 6bbd 3ff9 10bd
00000340: 3e02 5e3d 02f9 0e3d 4921 92be ac4e 49bd
00000350: 97b8 ee3e de71 15be 51aa 13ba 6b65 a238
00000360: ab2d 9a3d 5a2a 7a3d 2411 f73d 29bb 08bd
00000370: b3be f1bd 75dd cbbd c159 9d3e 79be 07bd
00000380: 07bb 5dbd b970 8cbb 029c 523e e525 13bd
00000390: 4e5d f4bd 22c5 a9bd 969f 273d 7491 86bd
000003a0: 6702 ee3a df47 2cbe 0e53 543d abed 12be
000003b0: 2c73 053e 7ed7 ae3c 50d1 93bc c2bd 343d
000003c0: 48db e73e 9199 34be fbe7 b33e 5736 a13d
000003d0: e6d4 8a3b 2d23 833d 5e14 d33c c6ef a63c
000003e0: 6b6e 033f 5a88 733d a86c 14bd f965 86bd
000003f0: c61a e43c 7972 0e3e 3e52 65bd 41e4 843e

fc3.bias f4 [64]
0.08348425 0.26531398 -0.1377379 -0.02402221 0.16511832 -0.025644975 -0.08147607 0.2058099
0.23125352 -0.11191574 -0.0013407086 -0.014649298 0.16407852 0.057413913 0.09591197 -0.061137516
0.22968055 0.20138736 -0.02506333 -0.11747757 0.09119142 -0.08756912 0.13759328 -0.20349856
-0.12814264 -0.012017343 -0.19127156 -0.11832967 -0.09515893 -0.13138151 0.19172649 -0.21191694
0.12701602 0.0807496 -0.06558704 0.12014037 0.363642 0.09753364 0.04099567 0.17635638
0.15480247 0.101444855 -0.23569266 -0.12937391 -0.14762792 0.06449941 0.073139794 0.117299594
-0.03495717 -0.061022185 -0.05231502 0.1407359 0.013048454 -0.07894013 -0.032832395 0.09044665
-0.04765742 0.10618758 0.20280106 0.03853703 -0.12138193 -0.017240234 0.042733513 0.14577112
00000000: caf9 aa3d 3cd7 873e 2a0b 0dbe 3aca c4bc
00000010: c714 293e 6915 d2bc eddc a6bd d5bf 523e
00000020: b9cd 6c3e 1434 e5bd b7ba afba 9c03 70bc
00000030: 3304 283e da2a 6b3d 7f6d c43d 556b 7abd
00000040: 6131 6b3e 7d38 4e3e 9d51 cdbc 1598 f0bd
00000050: 91c2 ba3d 7057 b3bd 41e5 0c3e ed61 50be
00000060: d337 03be 64e4 44bc b1dc 43be d356 f2bd
00000070: afe2 c2bd e088 06be f353 443e c100 59be
00000080: 7d10 023e 0c60 a53d 7f52 86bd 280c f63d
00000090: 492f ba3e b8bf c73d 13eb 273d c496 343e
000000a0: 8a84 1e3e 52c2 cf3d 6b59 71be 987a 04be
000000b0: c62b 17be 4418 843d 51ca 953d c53a f03d
000000c0: 402f 0fbd 66f2 79bd 4648 56bd 121d 103e
000000d0: 2fc9 553c 5dab a1bd 437b 06bd 183c b93d
000000e0: 6d34 43bd e078 d93d 15ab 4f3e 01d9 1d3d
000000f0: 1797 f8bd 643b 8dbc 5609 2f3d 0645 153e

fc4.weight f4 [4, 64]
-0.09049149 -0.35278186 -0.065045476 0.16209781 -0.10952215 -0.0829578 -0.20498502 -0.40209413
0.4606554 -0.23039626 -0.11797827 -0.40022448 0.68555415 0.43846273 0.08912859 -0.14848386
0.4513169 0.79932743 0.22086966 -0.0841034 -0.017227115 0.01098438 -0.03150408 -0.146316
0.111392744 0.0017935301 0.08044787 0.21676469 -0.26168308 0.34666127 0.46419194 -0.25503415
-0.30608448 0.54928595 0.12873828 -0.05758681 0.00582972 -0.22304247 -0.4069201 0.35386917
0.5802779 -0.020044481 0.0393262 -0.13125359 -0.007452997 -0.08364075 0.2316371 -0.032345187
0.10038637 -0.0022642172 0.063960485 0.1760779 -0.03423254 0.103253536 -0.023685388 -0.078933075
0.66456723 0.40195456 0.7904339 0.019325785 0.05274969 0.07512519 0.11805603 -0.2997948
0.14902766 0.20564713 -0.008084465 0.25134778 0.21783888 0.057494484 -0.010049556 0.14589374
0.010923146 -0.158945 0.17546825 0.17993456 -0.08401993 -0.033592854 0.13699588 0.10490072
-0.37851143 -0.18310982 -0.044878118 -0.094789326 0.4328606 -0.119966276 0.31791404 -0.023585208
0.09928423 -0.05852206 0.3465339 0.34905565 -0.034143683 0.14702941 0.33792648 0.25527847
-0.17403118 -0.27226698 -0.046368897 0.5604667 0.22775787 0.2241351 0.36006942 0.00687739
-0.16543694 0.024578318 0.06510982 -0.053808868 0.0361124 -0.18304728 -0.34940615 0.14317001
0.23245364 -0.076692596 0.03996547 0.3208107 -0.04196957 -0.05682389 0.053337324 0.44304547
-0.17177793 0.060914576 0.031023009 0.07974781 -0.29280308 0.046523068 0.005446114 0.50837046
0.4901634 0.019635258 -0.036462847 -0.24957404 0.5163472 -0.21473242 0.18056636 -0.012899747
-0.130636 -0.16920315 -0.07289607 -0.05361744 -0.02024855 -0.32139987 0.46388242 0.25591946
0.41274533 0.027470278 0.34354317 0.02160345 0.6808949 0.027367458 -0.046231084 0.13620815
0.041093025 -0.082811885 -0.037234627 -0.22300689 0.40671876 -0.16675054 -0.19802618 0.07467256
0.24920608 0.43500313 0.030704081 -0.25179657 -0.25868648 -0.24840815 0.6431937 -0.23490885
-0.045918792 0.5472069 0.09613934 -0.07854741 0.009203302 -0.021311933 0.22288376 0.48902622
0.12289118 0.08697271 0.020544967 -0.03560023 0.0688582 -0.055657435 0.31462803 -0.27188325
-0.049934123 -0.0127442125 0.055175465 -0.082680546 0.12837985 0.05426354 -0.18723965 -0.22093605
-0.6026995 0.58483505 -0.035661973 0.047319356 -0.2563277 0.068574935 0.17802604 0.59596974
-0.2664584 0.47525436 -0.11310286 -0.09600489 0.025445152 0.26187855 -0.15438242 0.045373656
-0.056113396 -0.30218652 -0.15992428 -0.017754313 -0.4142544 0.047789074 -0.29348165 0.1394193
0.07219523 0.0067636296 -0.042153142 0.13101098 0.49550366 -0.016665077 -0.21274582 0.23439881
0.58818966 -0.2279119 0.091932006 -0.35843801 0.6043628 0.38761735 -0.18693477 0.15518247
-0.2175789 -0.22815217 0.0052184253 0.05411555 -0.020386094 0.43878555 -0.14483628 -0.15118112
0.18034333 -0.081827484 0.06527567 0.4294896 0.047795434 0.07248514 -0.37546644 -0.26585382
-0.24611546 -0.21576458 -0.08804057 0.029325658 0.09024845 0.042475913 -0.007792795 -0.12511556
00000000: 9a53 b9bd d39f b4be 9036 85bd f8fc 253e
00000010: 264d e0bd c7e5 a9bd 98e7 51be 48df cdbe
00000020: 06db eb3e ffec 6bbe 979e f1bd 39ea ccbe
00000030: 7a80 2f3f 307e e03e 0d89 b63d 270c 18be
00000040: 0213 e73e b9a0 4c3f a82b 623e 673e acbd
00000050: e11f 8dbc d4f7 333c 6c0a 01bd ddd3 15be
00000060: e121 e43d e214 eb3a dac1 a43d 90f7 5d3e
00000070: 53fb 85be 967d b13e 91aa ed3e d693 82be
00000080: 1bb7 9cbe 019e 0c3f f8d3 033e 26e0 6bbd
00000090: 3c07 bf3b 3f65 64be d557 d0be 572e b53e
000000a0: 188d 143f 5334 a4bc 8214 213d 5767 06be
000000b0: 4538 f4bb d74b abbd 4732 6d3e 637c 04bd
000000c0: 5f97 cd3d 4363 14bb b7fd 823d c44d 343e
000000d0: 6b37 0cbd 9776 d33d dc07 c2bc aaa7 a1bd
000000e0: 1421 2a3f fdcc cd3e e059 4a3f 1c51 9e3c
000000f0: 0f10 583d 3cdb 993d 5cc7 f13d b47e 99be
00000100: b59a 183e 2995 523e b474 04bc a8b0 803e
00000110: 2811 5f3e 567f 6b3d e5a6 24bc 2b65 153e
00000120: fff6 323c 7ac2 22be f3ad 333e c440 383e
00000130: a412 acbd a998 09bd a648 0c3e 30d6 d63d
00000140: 40cc c1be 2481 3bbe 1ed2 37bd e820 c2bd
00000150: e89f dd3e e1b0 f5bd a1c5 a23e c435 c1bc
00000160: 8855 cb3d d4b4 6fbd e46c b13e 6cb7 b23e
00000170: 3fda 0bbd e18e 163e b304 ad3e dcb3 823e
00000180: 3b35 32be 9466 8bbe 50ed 3dbd bf7a 0f3f
00000190: 5c39 693e ac83 653e 055b b83e bb5b e13b
000001a0: 4d68 29be 7858 c93c 4c58 853d b066 5cbd
000001b0: 99ea 133d bf70 3bbe 5de5 b2be 299b 123e
000001c0: 5408 6e3e 0211 9dbd d5b2 233d 4d41 a43e
000001d0: 49e8 2bbd 2bc0 68bd 3d78 5a3d dbd6 e23e
000001e0: 8ee6 2fbe 9081 793d f723 fe3c d252 a33d
000001f0: 49ea 95be f98e 3e3d 5175 b23b 9124 023f
00000200: b2f6 fa3e 1fda a03c 115a 15bd 5690 7fbe
00000210: 552f 043f d1e2 5bbe 63e6 383e 7659 53bc
00000220: 72c5 05be 9743 2dbe 894a 95bd f69d 5bbd
00000230: 4ae0 a5bc 868e a4be ff81 ed3e e007 833e
00000240: 5b53 d33e 5909 e13c e4e4 af3e b8f9 b03c
00000250: 214f 2e3f b831 e03c ce5c 3dbd 267a 0b3e
00000260: 2951 283d 4799 a9bd 5683 18bd eb5b 64be
00000270: 713d d03e a7c0 2abe 60c7 4abe eded 983d
00000280: e12f 7f3e bbb8 de3e 2087 fb3c 7beb 80be
00000290: 8e72 84be b55e 7ebe 58a8 243f f28b 70be
000002a0: 5815 3cbd c015 0c3f b4e4 c43d 77dd a0bd
000002b0: 72c9 163c 5d96 aebc a43b 643e a561 fa3e
000002c0: 5fae fb3d c01e b23d eb4d a83c 8cd1 11bd
000002d0: 8705 8d3d 0df9 63bd ed16 a13e 4834 8bbe
000002e0: b987 4cbd 1acd 50bc abff 613d 6b54 a9bd
000002f0: 0276 033e 7243 5e3d c0bb 3fbe 0f3d 62be
00000300: 844a 1abf c0b7 153f 4a12 12bd f1d1 413d
00000310: 623d 83be 0471 8c3d 754c 363e 7991 183f
00000320: 3c6d 88be 8a54 f33e 79a2 e7bd 369e c4bd
00000330: 5a72 d03c f214 863e 6d16 1ebe bad9 393d
00000340: 29d7 65bd 31b8 9abe 31c3 23be 7e71 91bc
00000350: 2719 d4be 7abe 433d 3a43 96be efc3 0e3e
00000360: 18db 933d 70a1 dd3b c6a8 2cbd be27 063e
00000370: a8b2 fd3e 3385 88bc 0ada 59be 3e06 703e
00000380: 9993 163f bd61 69be d946 bc3d 3085 b7be
00000390: 85b7 1a3f c875 c63e d46b 3fbe 27e8 1e3e
000003a0: 01cd 5ebe b9a0 69be 53ff aa3b 44a8 5d3d
000003b0: bd00 a7bc 80a8 e03e f64f 14be 39cf 1abe
000003c0: ecab 383e 2b95 a7bd 40af 853d 10e6 db3e
000003d0: 25c5 433d 1773 943d 233d c0be fe1d 88be
000003e0: b105 7cbe 64f1 5cbe 9d4e b4bd 5d3c f03c
000003f0: 2ed4 b83d 39fb 2d3d b45a ffbb 4b1e 00be

fc4.bias f4 [4]
0.2277569 0.025865518 0.29098517 0.23569006
00000000: 1b39 693e ece3 d33c 02fc 943e bc58 713e
