models/actor.pth (torch, 10048 bytes, 4 tensors)

fc1.weight f4 [128, 11]
0	0x3d9bf42b	0.07614931
1	0xbe71b671	-0.23604752
2	0xbe57dc7b	-0.210802
3	0x3eac2ae9	0.33626488
4	0x3ec84996	0.39118642
5	0x3f167933	0.58778685
6	0xbf2c4402	-0.6729127
7	0xbec76e2a	-0.38951236
8	0xbf5d3124	-0.8640311
9	0xbf183812	-0.59460557
10	0x3ee76a3d	0.4519824
11	0xbee9a9a3	-0.45637235
12	0x3f5e2ef2	0.8679038
13	0xbf5de1eb	-0.8667285
14	0x3f947862	1.1599238
15	0x3d5e1735	0.05422135
16	0xbf2eed06	-0.6833042
17	0xbf0c56fd	-0.54820234
18	0x3eb223c5	0.34792915
19	0x3c06d692	0.0082298685
20	0x3b60103e	0.0034189369
21	0xbf0994a1	-0.53742415
22	0xbf990b0e	-1.1956499
23	0xbec7bc9e	-0.3901109
24	0x3ee34e3c	0.44395626
25	0xbe322589	-0.17397131
26	0x3f8094e1	1.0045434
27	0xbf296ce8	-0.661818
28	0xbe93ddd5	-0.28880182
29	0xbdac85dd	-0.0842397
30	0xbff7473a	-1.9318612
31	0x3e94948b	0.2901958
32	0x3e657fb8	0.22412002
33	0x3ee334c4	0.44376194
34	0xbf94924c	-1.1607146
35	0x3d85851a	0.06519528
36	0xbf5cf1b3	-0.86306304
37	0xbf54a1cd	-0.8305939
38	0xbf3f7e94	-0.7480252
39	0x3f71bf94	0.9443295
40	0x3f1951c3	0.59890383
41	0x3e8082d6	0.2509982
42	0xbe2f0651	-0.17092253
43	0x3dab7d4d	0.083735086
44	0x3f5911da	0.84792864
45	0xbf554abb	-0.83317155
46	0xbe194e51	-0.14971282
47	0x3ee603aa	0.4492467
48	0xbf57cbf8	-0.84295607
49	0x3f3b55f2	0.7317802
50	0xbf2f9ab4	-0.68595433
51	0x3e299333	0.16560058
52	0xbdadb72f	-0.08482205
53	0x3eace5a4	0.33768952
54	0x3e6d1fac	0.23156613
55	0xbf0ff31d	-0.56230336
56	0xbe9b9a32	-0.3039108
57	0x3f7a0f3d	0.976795
58	0x3f84693a	1.0344613
59	0xbf804fea	-1.0024388
60	0xbeee1f0f	-0.4650807
61	0x3f043e6e	0.5165776
62	0x3dc36c74	0.0954217
63	0x3ebadb40	0.364954
64	0xbd54adcf	-0.05192357
65	0xbe88c619	-0.26713637
66	0x3f8eacf8	1.1146536
67	0xbe95af71	-0.29235414
68	0xbeee5a4e	-0.46553272
69	0x3f0580c4	0.52149606
70	0xbf70ec85	-0.941109
71	0x3e9b5691	0.30339482
72	0xbf202988	-0.6256337
73	0xbe2f3b9a	-0.1711258
74	0x3e307ebe	0.17235848
75	0x3d27bb8b	0.04095034
76	0xbdcd0bee	-0.10012041
77	0x3f977e1e	1.1835363
78	0xbef00bae	-0.4688391
79	0xbef9fb6f	-0.4882464
80	0x3ee1e9de	0.4412374
81	0xbf3b0338	-0.73051786
82	0x3f25316c	0.64528537
83	0xbf8d4426	-1.1036422
84	0xbdaf2c92	-0.08553423
85	0xbe8fb897	-0.28070518
86	0x3dd90d23	0.10598209
87	0xbc59625f	-0.013268082
88	0x3d0ee6f2	0.034888215
89	0xbe22d636	-0.15902027
90	0xbf0e1321	-0.5549794
91	0x3e8eafe3	0.27868566
92	0xbe040c0b	-0.12895219
93	0x3edb66a2	0.4285174
94	0xbf1357a6	-0.57555616
95	0xbe3604c1	-0.17775251
96	0xbe2080fb	-0.15674202
97	0xbf2bc11b	-0.6709153
98	0x3ee584a8	0.4482777
99	0xbeb07b20	-0.34468937
100	0xbf0aaecd	-0.54172975
101	0xbf8311d6	-1.0239818
102	0x3e5afa62	0.21384576
103	0xbb8a3382	-0.004217566
104	0xbde04397	-0.10950392
105	0x3ebfc808	0.374573
106	0xbf364743	-0.71202487
107	0x3f088d52	0.5334064
108	0x3f036c63	0.5133726
109	0x3c76f02a	0.015071908
110	0xbfae523c	-1.3618846
111	0x3dc99075	0.09842006
112	0x3e4db2ad	0.2008769
113	0x3f3db0a1	0.7409764
114	0xbed0b1d3	-0.4076067
115	0x3ea68933	0.3252655
116	0xbf04f77a	-0.5194012
117	0x3e3eb617	0.1862415
118	0x3eda281c	0.42608726
119	0xbf053f6e	-0.5204991
120	0xbf173c6f	-0.5907659
121	0xbea611ad	-0.3243536
122	0x3eb5982b	0.35467657
123	0xbf9fe84b	-1.2492765
124	0xbf6f9df2	-0.9360038
125	0x3f0939cb	0.5360381
126	0x3e56d340	0.20979023
127	0xbf51bf85	-0.8193286
128	0x3e26abb8	0.16276443
129	0xbf7a0ddc	-0.976774
130	0x3d351aa9	0.04421488
131	0x3e491051	0.1963513
132	0x3f85f00d	1.0463883
133	0xbe0bb120	-0.13641787
134	0xbf2fa8cd	-0.68616945
135	0x3f673908	0.903214
136	0xbf517e4c	-0.8183334
137	0x3e127e8b	0.14306085
138	0xbf8bb49d	-1.0914494
139	0xbead7b5c	-0.33883178
140	0x3c989fe7	0.018630935
141	0xbe1f771b	-0.15572779
142	0xbd80fcb2	-0.06298198
143	0xbf607bc1	-0.87688833
144	0xbefe330d	-0.49648324
145	0xbfb5e4be	-1.4210432
146	0x3ed3b08c	0.41345632
147	0x3f19a653	0.60019416
148	0x3e9bf13e	0.3045749
149	0x3eb180e6	0.34668654
150	0x3f2b644c	0.66949916
151	0xbf35748e	-0.70880973
152	0xbe8a564f	-0.27018973
153	0xbdef051d	-0.11670897
154	0xbf0b3471	-0.54376894
155	0x3f49bfed	0.7880848
156	0xbf41ed2b	-0.75752515
157	0x3f98b5f4	1.1930528
158	0xbe0dd818	-0.13851964
159	0xbf22ca01	-0.63589483
160	0xbf4d1da3	-0.8012335
161	0x3ef51a25	0.4787151
162	0xbe41a1a6	-0.1890932
163	0xbd913a7c	-0.07091233
164	0xbec3a7eb	-0.3821405
165	0x3ed71bd6	0.42013425
166	0xbf58ad29	-0.8463922
167	0xbe4d9b1f	-0.20078705
168	0xbef4b03c	-0.47790706
169	0x3f1a344b	0.6023604
170	0xbedde638	-0.43339705
171	0x3e8ada4f	0.2711968
172	0xbef54d35	-0.47910467
173	0x3f187ecd	0.5956848
174	0x3da3b527	0.079935364
175	0xbdabe75f	-0.0839374
176	0x3d8dddba	0.069270566
177	0x3aa7706d	0.0012774594
178	0xbe18f2d2	-0.14936379
179	0xbdbd85e9	-0.09254057
180	0xbe79b99f	-0.24387215
181	0xbe2f18bb	-0.17099278
182	0xbe993f6c	-0.299312
183	0x3e2cba54	0.16867954
184	0x3e08d4fb	0.13362496
185	0xbdf2a5dc	-0.118480414
186	0xbe34904d	-0.17633171
187	0xbe47f4d5	-0.1952699
188	0x3f4920c8	0.78565645
189	0xbf0aba8b	-0.5419089
190	0xbf30efd7	-0.69115967
191	0xbf5ba9e4	-0.8580611
192	0x3ef8976a	0.4855302
193	0xbd2beb91	-0.0419727
194	0x3d243f01	0.040099148
195	0x3ec150b9	0.377569
196	0xbe88d2b7	-0.26723263
197	0xbde37ed3	-0.11108174
198	0x3ed2021d	0.41017237
199	0xbf82f269	-1.0230228
200	0x3d4af6b5	0.049551684
201	0xbf8a91c6	-1.0825737
202	0x3e462487	0.19349872
203	0xbd9f4939	-0.07777638
204	0x3ec7c8da	0.39020425
205	0x3e214ba5	0.15751512
206	0x3eb53782	0.35393912
207	0xbf0bcf37	-0.5461306
208	0xbda8c742	-0.082411304
209	0xbea39387	-0.31948492
210	0xbf2e8ef7	-0.681869
211	0xbdc58533	-0.09644546
212	0x3e892422	0.2678538
213	0x3e8f3a85	0.27974334
214	0xbf373bf0	-0.7157583
215	0x3eac24dd	0.33621874
216	0x3f088438	0.5332675
217	0xbf8a3e1d	-1.0800205
218	0xbecbb36d	-0.39785329
219	0x3ea7ca69	0.32771614
220	0x3fa51559	1.289714
221	0xbf339d0c	-0.7016151
222	0xbe5661a0	-0.20935678
223	0xbf742651	-0.95370966
224	0x3f53cf3f	0.8273811
225	0xbf80b0d7	-1.0053967
226	0x3f0b20e5	0.5434707
227	0xbd60d182	-0.054887302
228	0x3dbec7cd	0.09315453
229	0xbe051097	-0.1299461
230	0xbd087caa	-0.033322014
231	0xbeb3a792	-0.35088784
232	0x3ea791e5	0.32728496
233	0xbf77eba6	-0.96843946
234	0x3f502582	0.8130723
235	0x3e215528	0.15755141
236	0xbf37c91b	-0.7179124
237	0xbf0fc60c	-0.5616157
238	0x3f07e079	0.53076893
239	0xbec189f0	-0.3780055
240	0x3cddfeee	0.027099099
241	0xbec7daee	-0.39034218
242	0x3e20ff9f	0.15722512
243	0xbf88839f	-1.0665168
244	0xbca29112	-0.019844566
245	0x3e697ab9	0.22800721
246	0xbf19b2f4	-0.60038686
247	0x3e62db19	0.22153892
248	0xbf22d344	-0.63603616
249	0xbe3b7ce1	-0.18309356
250	0xbe05862d	-0.13039465
251	0x3e41546a	0.18879858
252	0x3de01e21	0.10943247
253	0xbf0d99cd	-0.55312806
254	0x3f661270	0.89871883
255	0xbeec1088	-0.46106362

fc1.bias f4 [128]
0	0xbe4b42f6	-0.19849762
1	0xbe968bf9	-0.29403666
2	0xbd9ab7a5	-0.07554559
3	0xbda5d304	-0.08096889
4	0xbdf223ae	-0.118232116
5	0xbeb2883d	-0.34869567
6	0xbe927806	-0.28607196
7	0x3c59deb0	0.013297722
8	0xbe5ed394	-0.21760398
9	0xbe89fd46	-0.26951045
10	0x3e45717f	0.19281577
11	0x3dfd9e76	0.1238374
12	0xbeef56a1	-0.4674578
13	0x3daefafd	0.08543966
14	0xbef1e167	-0.4724228
15	0xbe849f0d	-0.25902596
16	0xbe82d280	-0.25551224
17	0x3b8f5caf	0.0043750624
18	0x3ad4ee5a	0.0016245351
19	0x3e86daa1	0.26338676
20	0xbed468a5	-0.41486087
21	0xbde48eba	-0.111600354
22	0x3e75dcfc	0.2401008
23	0x3d8a3fed	0.06750474
24	0xbd4c72e2	-0.04991425
25	0xbeaa6b1b	-0.3328484
26	0xbd1d14cb	-0.038349908
27	0x3e3a07ec	0.18167084
28	0xbd136e06	-0.0359936
29	0xbd71b6f0	-0.059012353
30	0xbe69534a	-0.22785679
31	0xbe7bcfb5	-0.24590953
32	0xbc14682d	-0.009058041
33	0x3ebcb6b5	0.36858144
34	0x3e9305d4	0.28715384
35	0xbd938ed3	-0.07204976
36	0x3c21284e	0.00983627
37	0xbe80fbbe	-0.25192064
38	0xbcd37833	-0.025814151
39	0xbc060f9e	-0.008182434
40	0xbeb69f13	-0.3566824
41	0xbd7e68d9	-0.06211171
42	0xbde9e676	-0.1142091
43	0xbec9c137	-0.39405224
44	0x3c835864	0.016033359
45	0x3e799375	0.24372657
46	0x3e5d6e47	0.21624099
47	0xbe8dc8d3	-0.2769228
48	0x3e1a3f85	0.15063293
49	0x3e66e129	0.2254683
50	0x3c127492	0.008938925
51	0x3e09a3aa	0.13441339
52	0xbe8a58b4	-0.270208
53	0xbddc61e9	-0.107608624
54	0x3df5f3f5	0.12009422
55	0xbd75646e	-0.05991023
56	0xbeaa3bb9	-0.3324869
57	0xbb8586db	-0.004074914
58	0x3db42ed9	0.08797998
59	0x3e28c28c	0.16480464
60	0xbe7521ea	-0.23938718
61	0x3e686d3a	0.22697917
62	0x3d115a84	0.035486713
63	0xbd444055	-0.047912914
64	0x3dddf805	0.108383216
65	0x3d001a57	0.03127512
66	0x3e00e697	0.12587963
67	0x3ddbbc19	0.10729236
68	0xbe225390	-0.15852189
69	0xbe92635d	-0.28591433
70	0x3e3e8d0c	0.18608493
71	0x3d8e1501	0.069376
72	0xbe15c962	-0.14627603
73	0x3e006c06	0.12541208
74	0xbea15a22	-0.31514078
75	0xbdeab68d	-0.114606
76	0xbe245e31	-0.16051556
77	0x3b4aeea1	0.0030964988
78	0xbe05811d	-0.13037534
79	0x3dba4cde	0.090966925
80	0xbdb7f884	-0.089829475
81	0xbe3ec9e8	-0.18631709
82	0x3deb4a16	0.1148874
83	0x3f00929e	0.5022372
84	0x3e350075	0.17675956
85	0xbccda48d	-0.025102878
86	0xbe416eab	-0.18889873
87	0xbec79b23	-0.38985547
88	0xbd5da57b	-0.054112893
89	0xbe9525a7	-0.2913029
90	0xbeacfcd5	-0.33786646
91	0xbd467ee9	-0.048460875
92	0xbccdef10	-0.025138408
93	0xbc682624	-0.01416925
94	0x3e255743	0.16146569
95	0x3d6508bc	0.055916533
96	0xbeb167d3	-0.34649524
97	0xbe06eaaa	-0.13175455
98	0x3dab3c4e	0.083611116
99	0x3d40dcf5	0.04708572
100	0x3e10256b	0.14076774
101	0xbe035b29	-0.12827744
102	0x3ee28622	0.4424296
103	0xbe68fca3	-0.22752623
104	0xbe8f37a0	-0.27972126
105	0xbe9b34f3	-0.30313835
106	0xbf16469c	-0.5870149
107	0xbe0dfcad	-0.1386592
108	0x3d859cb0	0.065240264
109	0xbd67ae5d	-0.05656277
110	0xbdf471be	-0.11935757
111	0x3ea29462	0.31753832
112	0x3e251205	0.16120155
113	0xbe2c41ae	-0.1682193
114	0xbd277f39	-0.040892813
115	0x3e1256a9	0.1429087
116	0x3d3214ce	0.043476872
117	0xbe42102c	-0.18951482
118	0x3ea73c85	0.3266336
119	0xbe5d933c	-0.21638197
120	0xbe8f78de	-0.28021902
121	0xbe076b46	-0.13224515
122	0x3d1e3613	0.038625788
123	0xbea73969	-0.32660988
124	0x3da0fe24	0.078609735
125	0xbeb852a0	-0.36000538
126	0xbd565f3f	-0.052336928
127	0x3ab23883	0.0013597164

fc2.weight f4 [4, 128]
0	0xbf0c44c1	-0.5479241
1	0x3f9e43e3	1.2364467
2	0xbd38d710	-0.045126975
3	0x3fad18fe	1.3523252
4	0xbd0c97e2	-0.034324534
5	0x3f548669	0.83017594
6	0xbf3a5849	-0.7279096
7	0xbf5cf4ac	-0.8631084
8	0x3e837339	0.25673845
9	0xbec8588d	-0.3913006
10	0x3f9ce643	1.225777
11	0x3f258590	0.64656925
12	0x3da6c3fb	0.08142849
13	0x3f5d72a4	0.8650305
14	0x3f966f5f	1.1752738
15	0x3ee61308	0.44936395
16	0x3cdff2cd	0.027337456
17	0xbeb01a12	-0.3439489
18	0x3f11d527	0.5696587
19	0x3f11f948	0.57021
20	0x3f60fb7b	0.8788373
21	0x3f816406	1.010865
22	0x3e21065a	0.15725079
23	0x3f85fe28	1.0468187
24	0x3e03bb6f	0.12864469
25	0xbe3e4402	-0.1858063
26	0xbee68242	-0.45021254
27	0x3eb33f8a	0.35009414
28	0x3f7cfc0c	0.98822093
29	0x3e6893a9	0.22712578
30	0xbe8899d5	-0.26679865
31	0x3f436aa2	0.76334584
32	0xbf3460bf	-0.7046012
33	0xbe9c948a	-0.30582076
34	0xbf954807	-1.1662606
35	0x3f2b17bd	0.66833097
36	0x3edbf490	0.42960024
37	0x3e90aa0c	0.28254735
38	0xbf3046c2	-0.6885797
39	0xbe83c4d8	-0.25736117
40	0xbd4809f6	-0.048837624
41	0x3f8be7b8	1.093009
42	0x3e59534b	0.2122318
43	0xbf5a9c58	-0.8539481
44	0x3f4482bc	0.76761985
45	0xbf4843c4	-0.782284
46	0xbf17c534	-0.59285283
47	0xbcea216d	-0.028580392
48	0x3f33c469	0.70221573
49	0x3e8ae76f	0.27129695
50	0x3fa90dba	1.3207314
51	0x3f58027d	0.84378797
52	0x3ed60224	0.41798508
53	0xbf566fd6	-0.837644
54	0xbbe21e64	-0.0069005955
55	0x3dedf06a	0.11618121
56	0x3f96ca4d	1.1780487
57	0x3f4f3012	0.80932724
58	0xbf8dcece	-1.1078737
59	0x3e80613c	0.25074184
60	0x3f9d5595	1.2291743
61	0xbf022439	-0.5083652
62	0xbf8a39ad	-1.0798851
63	0x3c8a4285	0.016877422
64	0x3e1f3c00	0.15550232
65	0xbedb2d92	-0.42808205
66	0xbf5a0b64	-0.8517363
67	0x3f746dfc	0.9548032
68	0x3ee331f6	0.44374055
69	0x3f3359dc	0.7005899
70	0xbef1c7e6	-0.47222823
71	0xbbdb245d	-0.0066876845
72	0x3f2cde06	0.6752628
73	0x3f25b8e2	0.64735234
74	0x3e4e89c7	0.20169745
75	0x3df655f1	0.12028111
76	0x3e5d3419	0.21601905
77	0x3f580152	0.84377015
78	0xbb803fc2	-0.0039138505
79	0xbebf9a5d	-0.37422457
80	0xbe218ebc	-0.15777105
81	0x3dcfdb59	0.10149259
82	0x3ccdb3d8	0.02511017
83	0x3ee90c30	0.4551711
84	0xbea15793	-0.31512126
85	0x3f7f069d	0.99619466
86	0x3e355e0a	0.17711654
87	0x3e903ebb	0.2817286
88	0xbf7aba13	-0.97940177
89	0x3ea10f20	0.31456852
90	0x3f3722a1	0.71537215
91	0x3f15b50f	0.584794
92	0xbf5c3f60	-0.860342
93	0xbebfc78e	-0.37456936
94	0x3f66cef7	0.90159553
95	0x3f443580	0.76644135
96	0x3f9dffc3	1.2343677
97	0x3e86f453	0.2635828
98	0x3f0467e5	0.5172103
99	0xbee118f2	-0.43964344
100	0xbf17e308	-0.593308
101	0x3e049813	0.12948637
102	0xbe8377ae	-0.25677246
103	0x3f877af4	1.0584397
104	0x3de08903	0.10963633
105	0x3f13821b	0.576204
106	0x3f32710f	0.69703764
107	0x3f8c0d24	1.094151
108	0xbe6d0e7a	-0.23150054
109	0xbf35b1dd	-0.7097452
110	0x3d98830c	0.0744687
111	0x3ebb61d1	0.36598065
112	0xbef460a9	-0.47729996
113	0xbd58b16e	-0.052903585
114	0x3e5ec8ce	0.21756288
115	0xbf76a753	-0.96349066
116	0xbd7a2f54	-0.061080292
117	0x3d51ecae	0.051251106
118	0xbec2dcf7	-0.38059208
119	0x3f6ca437	0.9243807
120	0x3d4857a2	0.0489117
121	0xbf6894ed	-0.9085224
122	0x3f869d37	1.0516728
123	0xbd2ef986	-0.042718433
124	0xbf41f875	-0.7576974
125	0xbce6dd20	-0.028181612
126	0xbf2a0beb	-0.66424435
127	0xbf489927	-0.7835869
128	0x3f4374d5	0.76350147
129	0xbf4f1ea1	-0.8090611
130	0x3f928f2b	1.1449941
131	0x3da21c3b	0.07915541
132	0x3efb57ac	0.49090326
133	0x3e559d60	0.20860815
134	0x3f8843ea	1.0645726
135	0x3fa8f0b1	1.3198453
136	0x3f1c35c3	0.61019534
137	0xbe45b716	-0.19308123
138	0xbf0965c8	-0.5367093
139	0x3f6823b9	0.9067951
140	0x3f4dcc1c	0.8038957
141	0x3e8e4709	0.2778857
142	0xbea2238d	-0.31667748
143	0xbe241f8a	-0.16027656
144	0x3d4400db	0.04785238
145	0x3f41b159	0.75661236
146	0xbf3a0471	-0.7266303
147	0x3f0465d5	0.51717883
148	0xbf04b300	-0.5183563
149	0xbf9fb912	-1.2478354
150	0x3e8dd4d0	0.27701426
151	0x3d73426f	0.059389528
152	0x3f2f13b0	0.68389416
153	0xbf98dd1f	-1.1942481
154	0x3d93d008	0.07217413
155	0x3e0d8a35	0.13822253
156	0x3f4b5f90	0.7944269
157	0x3f3e4dc2	0.743374
158	0x3f0b88ba	0.54505503
159	0x3f45982c	0.7718532
160	0x3f74f2ac	0.9568279
161	0x3f90b469	1.1305057
162	0x3f123d94	0.5712521
163	0xbf0a9de3	-0.54147166
164	0x3f2b1dc1	0.66842276
165	0x3f2aec36	0.6676668
166	0xbf1ba5b6	-0.6079973
167	0x3f3aa574	0.7290871
168	0x3f063fb9	0.52440983
169	0x3f276626	0.6539024
170	0x3efdd8a9	0.4957936
171	0x3f3c5bc8	0.7357755
172	0xbe1c0b15	-0.15238602
173	0xbf10fae9	-0.5663286
174	0x3eec7493	0.4618269
175	0xbd9585e3	-0.073009275
176	0x3f572007	0.84033245
177	0x3ef4f826	0.47845572
178	0xbe8929b1	-0.2678962
179	0x3eb0aa52	0.34504944
180	0xbf943764	-1.1579404
181	0x3fba48f9	1.455352
182	0x3e4a35c6	0.19747075
183	0x3f0c5b0d	0.5482643
184	0xbd8f1ebe	-0.069882855
185	0x3def3f7e	0.11682032
186	0x3f65cd49	0.89766365
187	0x3f5b9035	0.8576692
188	0xbe7356cd	-0.2376358
189	0x3f95bc86	1.1698158
190	0x3f43a854	0.76428723
191	0xbf5ef70f	-0.8709573
192	0x3f1c8bd0	0.61150837
193	0xbf006c0c	-0.50164866
194	0x3f01447c	0.50495124
195	0xbf47b186	-0.78005254
196	0xbf0e4cc5	-0.5558589
197	0xbe023a42	-0.12717536
198	0x3f8d5b7b	1.1043543
199	0xbed8d2f7	-0.42348453
200	0xbf74e123	-0.9565603
201	0x3f2db757	0.6785788
202	0x3f03c07e	0.51465595
203	0xbf9cd9ea	-1.2254002
204	0x3e872ce5	0.2640144
205	0x3d380aa2	0.044932015
206	0x3f5d5fdf	0.8647441
207	0x3ed9a4b8	0.42508483
208	0x3ed7f882	0.42181784
209	0x3eb049b4	0.3443123
210	0xbf1cafcf	-0.6120576
211	0x3ee44e61	0.44591048
212	0x3e0540a7	0.13012944
213	0x3f196190	0.59914494
214	0xbe34485b	-0.17605726
215	0xbec6b645	-0.38810936
216	0x3cd8ef30	0.026481241
217	0xbf04f337	-0.51933616
218	0xbe83f7e2	-0.25775057
219	0xbe04440d	-0.12916584
220	0x3f64e059	0.8940483
221	0x3f308631	0.6895476
222	0x3ec66868	0.3875153
223	0xbf473cec	-0.77827334
224	0xbe9b6a68	-0.3035462
225	0x3f5d6f0b	0.86497563
226	0x3eba5f99	0.3640106
227	0x3f4ff268	0.8122926
228	0x3f921a58	1.141429
229	0x3d937677	0.0720033
230	0x3f2601db	0.6484658
231	0xbf1ecbd8	-0.6202979
232	0x3cf66d2d	0.030081356
233	0x3e2cae88	0.16863453
234	0xbec65878	-0.3873937
235	0xbf4afec8	-0.79295015
236	0x3f584345	0.84477645
237	0x3e7edf33	0.24889831
238	0xbf3356b4	-0.70054173
239	0x3f3a7830	0.7283964
240	0x3ef5a634	0.47978365
241	0xbf303a55	-0.6883901
242	0xbf0a5441	-0.5403481
243	0x3ebb0bae	0.36532348
244	0xbf271c93	-0.65277976
245	0xbe4c96a4	-0.1997934
246	0x3f8342f7	1.0254811
247	0x3f29e0dc	0.66358733
248	0x3df4cf65	0.1195362
249	0x3ed53bec	0.4164728
250	0xbd31d671	-0.043417398
251	0x3ef36d8a	0.4754451
252	0xbdf73630	-0.12070882
253	0xbdbc7ef9	-0.092039056
254	0xbf80ea0e	-1.0071428
255	0x3f06a9c6	0.52602804

fc2.bias f4 [4]
0	0x3eaf9848	0.3429587
1	0xbab9c314	-0.0014172518
2	0x3f2935c5	0.6609767
3	0xbdf53827	-0.11973601
