models/actor_v3.pth (torch, 181068 bytes, 8 tensors)

fc1.weight f4 [256, 11]
000000 3f 15 0a be ef 92 f5 3d c1 10 2d 3e f4 50 63 be
       -0.13484667 0.11990916 0.16900922 -0.2219885
000010 d4 63 72 be 75 b5 53 be 2c dd 15 bd a8 05 8c be
       -0.23670894 -0.20674689 -0.03658788 -0.27348065
000020 52 f5 9f be 35 22 52 be be 7c 52 be bf b4 2f 3e
       -0.31241852 -0.20520861 -0.20555398 0.17158793
000030 03 31 97 be 33 ad 11 3e bf 39 22 bf 2f e4 9e bd
       -0.2952958 0.14226227 -0.63369364 -0.07758366
000040 ff be 90 3e b9 04 ec 3e 7c 0e 8e be cb ac 4a 3f
       0.28270718 0.46097353 -0.27745426 0.7916991
000050 0c 47 d4 be 10 4e bf ba b1 ea 7f 3d 52 6a af be
       -0.41460454 -0.0014595408 0.06247968 -0.34260803
000060 c4 ce 92 3e 3a f0 99 3e 21 9b 94 be 79 30 b1 3e
       0.28673375 0.3006609 -0.29024604 0.34607294
000070 73 ac 0f bf c2 a5 1c bd b5 1d 03 bf b8 8c 00 bf
       -0.5612251 -0.038244016 -0.51217204 -0.5021472
000080 f7 ef dd 3e 6a d4 82 bd 38 22 ff be ce ff 3d 3e
       0.4334714 -0.06388171 -0.49830794 0.18554613
000090 60 bf bb 3e 85 7b ff 3d ea f9 20 be b7 92 5a be
       0.36669445 0.12474731 -0.15720335 -0.2134503
0000a0 df ab 0e bf e4 db 75 be 5d 2d 19 bf be 92 ff 3e
       -0.55731004 -0.24009663 -0.59834844 0.49916643
0000b0 fd 6e 8f 3d 42 53 a7 bd 80 fe 05 be 10 5d a1 3e
       0.07003591 -0.08170177 -0.13085365 0.31516314
0000c0 14 7a 92 3d 4e 4b 23 bf 8b 76 7b bd 88 b0 55 3f
       0.07152191 -0.6378678 -0.06139235 0.8347249
0000d0 d8 af a3 be 50 7a ce be c5 f7 17 be ce f4 0f 3f
       -0.31970096 -0.40327692 -0.1484061 0.5623292
0000e0 48 01 37 be 48 d1 c0 be 37 36 74 bd 77 62 ea 3e
       -0.17871583 -0.3765967 -0.059622016 0.45778248
0000f0 db e2 23 bf 24 de 3d 3d 6a a6 3e 3e 11 c4 9c bd
       -0.6401803 0.046354428 0.1861817 -0.07654584
000100 0c dc 58 bd 46 86 82 be 5c 67 07 bd c3 e9 ba 3e
       -0.052944228 -0.25493068 -0.033057556 0.3650647
000110 18 ab 96 3e 56 1e ed 3d e5 cb 96 be 1e 3c 1f 3e
       0.2942741 0.11578052 -0.29452434 0.15550277
000120 c3 92 3d 3e 7e 12 04 be 35 59 fd 3e 6a 00 2b bf
       0.18513016 -0.12897679 0.49482122 -0.66797507
000130 d9 5e 85 3e f7 4d ee be da f1 2a bc e0 9b 72 3e
       0.26048926 -0.46543857 -0.0104336385 0.23692274
000140 b7 91 65 be d0 e9 25 bf 82 5c 35 be c5 2c f7 3e
       -0.22418867 -0.64809895 -0.1771107 0.48276344
000150 b8 aa 80 3e c9 6e d0 3d df 70 8f 3f 2e 01 86 bc
       0.25130248 0.101773806 1.120632 -0.016357984
000160 00 26 9d be 2d 42 df 3d 5e de d5 bd 57 08 a8 be
       -0.30693054 0.10901294 -0.10442804 -0.32818863
000170 65 53 2e 3c 5a d5 8d 3d c1 15 a0 3d ab 7f 14 3e
       0.01064 0.06925459 0.07816649 0.14501826
000180 ea 69 b4 bb 05 c8 38 bb 45 9a 5d ba b9 c0 93 bc
       -0.00550579 -0.0028195393 -0.0008453469 -0.018036233
000190 ea 77 82 bd 25 34 0d be a2 50 1d bf 5e 42 10 be
       -0.06370528 -0.13789423 -0.6145116 -0.14087817
0001a0 22 3a ab 3e fd 5b e6 bd bf 53 09 bf 0c a4 08 3f
       0.3344279 -0.11248014 -0.5364341 0.53375316
0001b0 0d 62 01 be a0 8e 13 be 71 6a 8f 3e b6 49 d5 3e
       -0.1263506 -0.14409876 0.28010896 0.416578
0001c0 6d bc bf 3d 29 64 25 3f 20 4d 1a bf 4d 96 95 bd
       0.09362111 0.6460596 -0.60273933 -0.07304058
0001d0 19 79 7d bd 51 b3 7e 3e a8 b3 45 bf 32 26 69 3e
       -0.061883066 0.24873091 -0.7722726 0.22768477
0001e0 76 ff b6 be 6a 6c a1 bd b8 54 d9 bd b8 b2 3e 3e
       -0.35741776 -0.078820065 -0.10611862 0.18622863
0001f0 50 5c 03 be 27 16 10 be b6 56 59 be 1a 76 a7 3d
       -0.12828183 -0.1407095 -0.21224484 0.08176823
000200 06 1d 06 be b6 0f e0 bd 50 52 65 bd 8e ec 8f be
       -0.13097009 -0.109404966 -0.055986702 -0.28110164
000210 99 36 0f 3f cd 48 e8 be e5 f9 84 3e dd 81 8c 3d
       0.55942684 -0.45368043 0.25971904 0.06860707
000220 02 b2 13 3e 7d eb 0a bf 51 73 89 3e 64 54 19 3f
       0.14423373 -0.54265577 0.26845792 0.59894395
000230 1c 3a c6 be ea 48 10 be 75 3d bf bb 3e 11 01 3f
       -0.3871621 -0.14090315 -0.0058361837 0.50416934
000240 ee 52 ad bd 69 e9 71 be 08 62 5f 3e 92 f6 5e bf
       -0.08463083 -0.23624195 0.2181474 -0.87094986
000250 1c ec 12 3f 44 14 3c bf ad 58 2e be b8 79 8f 3c
       0.57391524 -0.7346842 -0.17026015 0.017514095
000260 c1 e0 ba 3e 9d 3e 76 3d fe 16 c1 3b 90 5c cd 3e
       0.364996 0.060118306 0.0058926335 0.40109682
000270 f3 69 0e 3e 2c 23 36 3e ee 4e 0c bd 57 c0 ce be
       0.13907604 0.17786855 -0.03425496 -0.4038112
000280 52 58 c3 3e 55 31 e9 3e 38 dd 24 3e a2 82 38 bf
       0.3815332 0.4554545 0.16100013 -0.7207433
000290 ae dc 9e be e4 e4 c7 be b4 17 af bd e3 d7 48 3d
       -0.3102774 -0.39041817 -0.08549443 0.04903401
0002a0 35 4b 30 3e 78 04 08 be 10 e9 bc 3c 7a d0 c4 be
       0.17216189 -0.13282955 0.023060352 -0.38440305
0002b0 95 40 0f bf 60 3f 16 bd e7 5b 9a be 81 2a 0f bd
       -0.5595792 -0.036681533 -0.3014824 -0.034952644
0002c0 95 57 48 bf 78 87 ff bd 54 93 bd bd 64 07 51 3e
       -0.7825864 -0.124770105 -0.09256616 0.20412976
0002d0 8a 4c c8 be ab a0 cd be 1b f5 c1 3d 65 52 26 bf
       -0.39120895 -0.40161642 0.09470578 -0.64969474
0002e0 f0 a0 b2 bd f0 e2 ff 3e e6 a7 30 be 4e 24 17 3e
       -0.08722103 0.49977827 -0.17251548 0.14759943
0002f0 34 c2 45 bc 3d 93 a5 3b 6a 3c 24 3f f8 23 af 3e
       -0.012070227 0.0050529526 0.64154685 0.3420713
000300 ee c4 8d bd cf 6b 13 bf aa 9c 3b be d2 41 04 3d
       -0.06922327 -0.5758638 -0.18321481 0.032289334
000310 1e d8 8e be 57 f9 26 3f 26 22 d3 be 4a eb 34 3e
       -0.2789926 0.6522421 -0.4123699 0.1766788
000320 a4 cb 07 be 2f 39 ab bc 9c 6c b1 bd dc ac d0 be
       -0.13261276 -0.02090129 -0.08663294 -0.4075688
000330 39 9a 1c be 29 81 10 be 42 a3 c0 3c bd e5 83 be
       -0.15293206 -0.1411177 0.023515347 -0.25761214
000340 e0 48 49 be f0 a4 bd be f6 92 a0 be 1d c8 04 bc
       -0.19656706 -0.370399 -0.31362122 -0.008104351
000350 e2 5a 20 bf d8 fb db 3c 66 a1 12 3e 20 69 69 be
       -0.62638676 0.026853487 0.14319381 -0.22794008
000360 84 2e ac be 1f 18 fb 3e 69 20 1c bf 26 36 ff be
       -0.3362924 0.4904184 -0.60986954 -0.49846
000370 b6 f5 d4 bd c4 f0 fb 3d cc 6c dc be 54 79 ca 3e
       -0.10398428 0.12301782 -0.43051755 0.3954569
000380 46 b3 a1 3e 4b 4d 25 bf 69 40 9c 3e 13 09 31 3f
       0.31582087 -0.64571065 0.3051789 0.6915447
000390 e7 61 14 be 7f b1 ee be 37 36 a8 be e4 cc 78 3e
       -0.14490472 -0.46619794 -0.32853863 0.2429691
0003a0 72 b6 43 bf e3 d1 42 3e 97 a0 58 3f 97 ae a7 be
       -0.76450264 0.19025378 0.8462004 -0.3275039
0003b0 c5 b9 f4 3d 17 59 51 bf a2 a3 8e 3e 5b 17 a9 be
       0.11949495 -0.81776565 0.27859217 -0.3302563
0003c0 80 89 07 bf 98 1f e7 3e 6f 1c 2d be 48 34 26 3e
       -0.52944183 0.45141292 -0.16905378 0.16230881
0003d0 9f 37 b5 be 6c b6 0e 3d c3 fb 27 bf ed 15 a1 3d
       -0.35393998 0.03484194 -0.6561853 0.0786551
0003e0 4e 44 10 3e 99 b4 c3 be bf ff e6 be b0 97 b6 3e
       0.14088556 -0.38223723 -0.45116994 0.35662603
0003f0 84 25 ba be 46 6e 2c bf 02 4a c5 3e 37 0a 15 be
       -0.36356747 -0.67355764 0.38533026 -0.14554678

fc1.bias f4 [256]
000000 33 17 9a bd a5 fc 8b bd 0d c8 81 bd fd 75 24 3e
       -0.07523956 -0.068352975 -0.06336985 0.16060634
000010 95 03 30 3d 9b 37 cf be 83 72 0b be 88 d0 85 3e
       0.042972166 -0.4047211 -0.13617902 0.2613566
000020 c9 70 dc be d0 21 1d be 04 e0 e8 bc 87 e3 9c be
       -0.43054798 -0.1534493 -0.028427131 -0.3064234
000030 ec 78 0e 3e f5 ee d5 bd e4 74 9a be 07 98 94 be
       0.13913316 -0.10445968 -0.30167305 -0.29022238
000040 6e ff 44 bd 89 28 7a be 18 40 41 be fa 24 db bc
       -0.04809516 -0.24429525 -0.18872106 -0.02675103
000050 9a a6 f5 3d 3f a0 81 be de f1 7d be 69 46 b8 3d
       0.11994667 -0.2531757 -0.24799296 0.08997805
000060 f7 ab 9e be de 26 f9 bd dd 87 29 be 93 81 7e 3d
       -0.30990574 -0.121656165 -0.16555734 0.06213529
000070 5f f4 6c 3d ad 54 97 be bb c9 91 be 87 70 8f 3e
       0.057850238 -0.2955679 -0.2847422 0.2801554
000080 38 68 5a be d4 aa 52 be 84 a7 20 3e 6d 9b 7e 3e
       -0.21328819 -0.20572978 0.15688902 0.24863978
000090 ff e4 6d 3d c8 c0 a8 bc cd 76 e5 3d 60 c2 82 3d
       0.058079716 -0.020599738 0.112043 0.0638473
0000a0 67 03 4a 3e e7 12 09 be 75 72 63 be d5 0b 39 3d
       0.1972786 -0.13386117 -0.2221163 0.0451773
0000b0 f7 e0 a9 be fe fc 33 be 06 cc 15 3e 6c 24 93 3e
       -0.33179447 -0.17576978 0.1462861 0.28738725
0000c0 27 7b 7c be f1 7f c8 be 69 db 3d 3e 4a 28 b3 be
       -0.24656354 -0.39160112 0.1854073 -0.34991676
0000d0 90 ef d4 3d 15 59 a5 3e 69 8e 61 be fb 6c fe 3d
       0.103972554 0.32294527 -0.22026981 0.1242313
0000e0 41 28 33 3e a2 61 b1 3e 4c a5 82 3e e5 3d 56 be
       0.17495824 0.346448 0.25516737 -0.20922048
0000f0 3c 53 39 be 4c 7f e7 3d 57 c8 4c bd c7 7b 7b be
       -0.18098158 0.11303577 -0.049995746 -0.24558936
000100 ee 8b 5c be 7d 5d da bd 5d 0c d9 3d 6b 76 a2 3e
       -0.21537754 -0.10662363 0.10598061 0.3173097
000110 80 0f c1 3e 52 42 87 3e 75 2a 3a 3e ac 8e 9a be
       0.37707138 0.26417786 0.18180259 -0.30186975
000120 d4 26 df 3e 9b ff 7a bd 13 9d 81 3e 6b 7c 81 be
       0.4358431 -0.06127892 0.2531515 -0.25290236
000130 a7 ca 0f be 6e 7a 32 be c0 da 19 be 6e 4a 92 bc
       -0.1404215 -0.17429516 -0.15024853 -0.017857756
000140 aa 52 e1 3b e4 78 24 3e bf 7e bb be e7 44 9a be
       0.0068763094 0.16061741 -0.36620137 -0.30130693
000150 85 79 30 3e 21 f0 c0 be e7 ee 9a bd 8a 57 70 be
       0.17233856 -0.37683204 -0.07565098 -0.23470894
000160 37 38 8a be bf ac 55 be f2 f4 50 be a7 1a 79 3d
       -0.26996014 -0.20866679 -0.20405939 0.060816433
000170 f4 36 ba be 32 9e 5f 3e 5e 50 b6 be c0 72 b2 be
       -0.3637005 0.2183769 -0.3560819 -0.34853172
000180 82 d1 2c be 35 ce 9e be 58 0a 3b bd a3 03 77 bd
       -0.16876796 -0.31016698 -0.04566416 -0.060306203
000190 2f 38 3b bd 0d f5 b4 bd 6d 99 b9 be 35 6e fe bd
       -0.045707878 -0.08835802 -0.36249867 -0.12423364
0001a0 b8 09 ff bd 29 dc 5d 3e 7e 0b da be e7 79 11 3d
       -0.124530256 0.21666016 -0.42586893 0.035516646
0001b0 51 b4 37 3f b1 33 53 bd 83 45 67 bd c0 ce 56 be
       0.71759516 -0.05156297 -0.056462776 -0.20977306
0001c0 a3 f9 9d be c3 48 d4 be c2 0f a4 be 20 89 c1 be
       -0.3085452 -0.41461763 -0.32043272 -0.3779993
0001d0 25 4f da 3a e6 24 93 be 68 21 b4 3e 4a ea b0 be
       0.0016655667 -0.2873909 0.35181737 -0.34553748
0001e0 99 88 ee bd 75 7b e4 3d 3a c8 6e be ee 77 d4 3d
       -0.11647148 0.1115636 -0.23318568 0.10374437
0001f0 e9 1f 09 be 73 0c c2 3b cc 4a 93 be c9 e1 ca bd
       -0.13391079 0.005921894 -0.28768003 -0.09906346
000200 cd ed 21 3c 83 1e e7 be 18 4b 18 be 65 06 e9 3d
       0.009883356 -0.45140466 -0.14872396 0.11378173
000210 dc c9 4d 3e e0 cf 03 be 7a e7 15 3e 19 e4 fd 3c
       0.20096534 -0.12872267 0.14639083 0.030992555
000220 05 31 13 be c4 de 09 bf 85 58 84 3e c0 1d 1c be
       -0.14374168 -0.5385554 0.25848785 -0.15245724
000230 bb 6a 27 be 3c 19 ee bd 70 88 74 be 4f 37 14 be
       -0.16349308 -0.11625907 -0.23880172 -0.14474224
000240 7b 93 3e bc 77 a5 18 be c8 9b e9 3c 50 31 00 bf
       -0.011631842 -0.1490687 0.028516665 -0.50075245
000250 f6 c6 5e be 63 7a ac 3d c3 1c eb 3c 0c 64 8d 3d
       -0.21755585 0.08421781 0.028700238 0.06903848
000260 ab 48 6c 3d cf e9 8c 3d 22 a7 f8 bd 36 08 23 3c
       0.05768649 0.06880533 -0.12141253 0.009950688
000270 33 77 70 bc 44 74 4a bd 5f 03 6a 3e 39 9a 98 3e
       -0.014676857 -0.049427286 0.22852848 0.29805163
000280 29 42 87 be d3 a0 45 3e c9 ee 07 3e a1 f2 e3 3e
       -0.26417664 0.19299631 0.13274683 0.4452105
000290 a4 db 55 bd 2e cb 00 3e 25 30 fe bd 8a 4c b7 3d
       -0.05221142 0.12577507 -0.124115266 0.089501455
0002a0 ff ea 43 be 39 57 a4 be f5 32 88 be e4 72 98 bd
       -0.19132613 -0.32097796 -0.26601377 -0.07443789
0002b0 01 04 c7 bd 7c 82 65 be 73 c7 8b bd 53 02 5c 3d
       -0.097175606 -0.22413057 -0.06825151 0.053713154
0002c0 86 36 6a bc 7c df b3 3c b9 43 ca bd 9c 76 72 be
       -0.014295226 0.021957152 -0.09876198 -0.23678058
0002d0 26 1a 38 be 04 fd f9 be 25 59 9c be 2b 4e ea 3d
       -0.17978725 -0.48825848 -0.30536762 0.114406906
0002e0 19 0b 2e be 9f 8b 4c be 9f ee d3 bc 41 36 18 3d
       -0.16996421 -0.19975136 -0.02587062 0.037161116
0002f0 20 dd 5d 3e 36 39 bf be 5c 03 66 be e8 c2 d3 bd
       0.21666384 -0.37348336 -0.22462219 -0.1033991
000300 ac a7 52 be bf 23 69 bd 05 39 38 3c 71 22 de be
       -0.20571774 -0.056918856 0.011244063 -0.43385652
000310 2c 6b 83 be bd 1b 38 3e 49 86 d6 be 6d 24 be 3d
       -0.25667703 0.17979331 -0.41899326 0.092842914
000320 c6 e0 96 be cb 24 6b be 92 fa 65 be ca 1c 88 3c
       -0.29468364 -0.22963254 -0.22458866 0.01661529
000330 1f ef 11 3e 51 28 0e 3f 34 14 78 3b ea 39 1e 3d
       0.14251374 0.5553027 0.003785384 0.03862945
000340 1b d4 36 bd 7b 96 80 3e 75 1c 95 3e 8e 03 03 be
       -0.044635873 0.25114807 0.29123273 -0.12794325
000350 6e cc 8b 3d bc 13 c0 3d 49 3d 96 3e 1f 19 9d be
       0.06826101 0.09378764 0.29343632 -0.30683228
000360 6e cd 87 be f1 42 77 be af 7d 40 3e 9b d5 88 bc
       -0.26523918 -0.2414663 0.18797944 -0.016703418
000370 ed dd 34 3e 79 ae 8d bd f7 9b 98 be 79 e1 8e 3e
       0.17662783 -0.06918044 -0.29806492 0.27906397
000380 29 86 e5 3d 93 46 19 be a3 df ee bd d8 3f df 3c
       0.1120723 -0.14968328 -0.11663749 0.027252123
000390 6b f2 54 3e 06 e3 ff bd 0e 28 1b bd 10 37 9a be
       0.207956 -0.12494473 -0.037879996 -0.30120134
0003a0 de 9b a4 be c4 fe bb 3e be 77 8a 3e 5c 17 4d bc
       -0.32150167 0.36717808 0.2704448 -0.012517776
0003b0 8f 5a f5 3d 39 8c 58 3e fd f7 94 3e a8 ed 88 3e
       0.11980163 0.2114724 0.2909545 0.26743817
0003c0 65 9e dd 3e 96 d5 58 be 9b 97 b7 3d f2 45 54 bc
       0.43284908 -0.21175227 0.08964463 -0.012956129
0003d0 91 b9 cb 3d a2 2a 83 be e2 88 a6 3e 3d 8e fa 3d
       0.09947503 -0.25618464 0.32526308 0.12234161
0003e0 00 e9 58 be 2b 76 0a bf 22 21 ab 3d d9 fd 85 bd
       -0.21182632 -0.5408656 0.08355929 -0.06542558
0003f0 eb d9 24 bd 2f ff 7b 3d d1 74 3a be 3c 30 02 bc
       -0.040246885 0.06152266 -0.18208624 -0.00794607

fc2.weight f4 [128, 256]
000000 45 a2 c4 3d 69 44 70 bd eb df 84 3e 12 4f 65 3d
       0.09601263 -0.05865899 0.25952086 0.05598361
000010 6b 4e d2 bd a7 83 c9 3d 27 80 f2 bd 7a 1b 8b be
       -0.10268863 0.09839564 -0.11840849 -0.271694
000020 19 68 5a bd 72 13 98 3e b3 1a 4e be 61 84 0c bd
       -0.05332193 0.29702336 -0.20127372 -0.034305934
000030 31 cf 00 3d 78 40 88 bd 09 3c 22 be 0b f9 32 be
       0.031447593 -0.066529214 -0.15843214 -0.17477815
000040 87 74 46 be 8c 0c 3c bf 20 b7 06 3e ce 50 b6 bd
       -0.19380389 -0.73456645 0.13155794 -0.08902131
000050 e5 08 ba 3e bc 8a 66 3d 8b b6 d5 3c 04 ff 25 be
       0.3633491 0.05628465 0.02608802 -0.16210562
000060 ff 66 2f be 68 d3 9e 3d 21 e8 59 be d2 39 b3 3e
       -0.17129134 0.07755166 -0.21279956 0.3500505
000070 a8 03 87 3d 56 73 36 3e 30 09 dc bb b2 1f ce 3d
       0.06592494 0.17817435 -0.0067149624 0.10064639
000080 dd 80 91 3e 1b 51 ed 3c 24 06 22 3e 82 1a f0 3d
       0.28418627 0.028969338 0.15822655 0.11723806
000090 9c 8c 22 be ca bd 37 3e 6b 54 ea bd dc 62 1f be
       -0.1587395 0.17943493 -0.11441883 -0.15565056
0000a0 8e 09 07 be 8f ea 48 bb c0 25 16 3e 7a c1 4f 3d
       -0.13187239 -0.0030657386 0.14662838 0.050721623
0000b0 07 09 79 be 9a ff 7a 3d 70 9f 01 bf c7 e0 64 be
       -0.2431985 0.061278917 -0.5063391 -0.22351371
0000c0 23 a7 af 3d 75 24 3b 3e ad e1 29 be 3d de 06 3b
       0.08576801 0.18275626 -0.16589995 0.0020579242
0000d0 b1 10 4d bd c2 26 4e bd 0d 03 ca 3d ea 50 9c bc
       -0.050064746 -0.05032993 0.09863863 -0.019081552
0000e0 b4 d1 03 3d 85 e9 ba be fd de 4e be c8 fe f4 be
       0.03218241 -0.36506286 -0.20202251 -0.47850633
0000f0 78 81 b7 bc f7 00 16 3d 5c 7e 5c be ea 4f e9 3b
       -0.022400603 0.036622014 -0.21532577 0.007120122
000100 bd 07 c9 be 80 7d e7 3d b8 37 08 3d c7 65 9a be
       -0.39263716 0.11303234 0.033256263 -0.30155775
000110 bf 26 98 be 71 82 16 be fe 49 12 3e b6 ba 19 3e
       -0.2971706 -0.14698197 0.14286038 0.15012631
000120 6f 3e b4 bc b9 c0 be bd b3 8d fa be 64 19 22 3e
       -0.022002427 -0.09314103 -0.48936233 0.15829998
000130 9f 03 bd 3d ca 5d 67 3e e0 da 51 3d 26 82 18 3e
       0.09229206 0.22594371 0.051234126 0.14893398
000140 21 d5 d6 3d 98 c0 0b be d1 5d 4a 3e 46 9f 20 bd
       0.1048987 -0.13647687 0.1976235 -0.039214395
000150 21 3b 42 3e 72 47 e2 3c 00 a9 23 3e b2 84 bb be
       0.18967868 0.027621958 0.15982437 -0.36624676
000160 dc 70 4f 3d eb 6e 0b bf 7b 0e f5 3d bf ab 83 be
       0.05064474 -0.5446612 0.119656526 -0.2571697
000170 0d ac 5e be 90 e5 92 be a0 c0 11 3d 02 bf b1 3d
       -0.2174532 -0.28690767 0.035584092 0.0867901
000180 67 c1 8f be f0 19 90 bd 6d 90 07 be 27 72 a0 be
       -0.28077242 -0.07036197 -0.13238688 -0.3133709
000190 b4 41 86 bd aa f4 c0 bd b0 8f 2e 3d 77 d9 8e bd
       -0.065555006 -0.09421666 0.0426175 -0.06975072
0001a0 d7 26 a4 bc ec c6 65 be ea 68 0a 3e 93 62 64 3d
       -0.020038052 -0.22439164 0.13516584 0.05575807
0001b0 d2 de 8b be e3 05 24 3d ec c4 51 3d 61 98 03 be
       -0.27318436 0.040044677 0.05121319 -0.12851097
0001c0 ef 3f 93 3d 39 5a ed bd 24 eb ee 3d eb ef 2b be
       0.07189929 -0.11589474 0.11665943 -0.1679074
0001d0 a7 4d f0 3d 63 07 06 bd ed ac c9 be 70 38 b9 3d
       0.11733561 -0.03272189 -0.39389744 0.09043968
0001e0 39 35 9a bd 3d 1a 0f 3d 7f 87 13 3e a5 4a 3b bd
       -0.07529683 0.034937132 0.14407156 -0.045725483
0001f0 0e 21 80 3e bd a0 0e be 0a bb 96 3d 47 8e 51 3d
       0.2502522 -0.13928504 0.073598936 0.051161077
000200 15 15 8b be 78 59 73 be de 06 45 bd 73 84 35 be
       -0.27164522 -0.23764598 -0.048102252 -0.17726307
000210 7b 2d 38 3e e1 6a 88 be c3 44 06 be 9d 36 5f 3b
       0.179861 -0.26644042 -0.13112168 0.0034059652
000220 60 60 ea 3d 29 aa ad 3d 5d c2 71 be c0 7c c0 bd
       0.11444163 0.08479721 -0.236093 -0.09398794
000230 0b 0b 48 be b2 38 9b bd ef 99 00 bd a4 56 05 3e
       -0.19535463 -0.07579173 -0.031396803 0.13021332
000240 e1 1a 1f be 05 e3 c1 be 2b 61 b1 be ce bf 3d be
       -0.15537597 -0.37868515 -0.34644446 -0.18530199
000250 f5 d3 0b bd ac c5 2f 3d 5b e7 83 be 91 05 a3 bd
       -0.034137685 0.042913124 -0.25762448 -0.07960046
000260 e4 31 06 be 49 8f 81 be 23 6b 0b 3d 4a 93 da 3d
       -0.1310497 -0.2530463 0.03403772 0.106726244
000270 0d dc 83 3e 99 89 03 be 9f 03 9a 3e 37 29 6d bd
       0.25753823 -0.12845458 0.30080888 -0.057900634
000280 8a fa 26 3d d2 b9 90 be f3 89 58 3d 1c 49 29 bd
       0.040766276 -0.2826677 0.052865934 -0.04132949
000290 64 41 ee bd c0 38 55 3d 47 12 21 3e b6 11 7a 3d
       -0.11633566 0.052056074 0.15729629 0.061052047
0002a0 30 de ed 3d 9c 6c 1e 3e 9f 54 3c 3e a8 70 a0 bc
       0.116146445 0.15471119 0.18391655 -0.019584969
0002b0 56 84 d3 be ee 1f c2 bd dd af 6e 3d 74 09 93 3d
       -0.41311902 -0.09478746 0.058273185 0.071795374
0002c0 a4 80 4a be 42 2f 20 bc 41 e6 94 3c 5a 9f 2a 3e
       -0.19775635 -0.009776892 0.0181762 0.1666235
0002d0 59 39 69 3c e0 03 88 3e 4b b1 fd 3c f7 c9 85 3e
       0.014234864 0.26565456 0.030968329 0.2613065
0002e0 5a 4f 83 be 33 cf d5 3c 22 e4 86 3c 2a 79 bb be
       -0.25646478 0.026099777 0.016466204 -0.36615878
0002f0 80 ae 7d bc 8e 29 87 be 00 f4 90 3e 97 6a e9 bc
       -0.015483499 -0.2639889 0.28311157 -0.028493209
000300 4a b5 8c be 67 1e 56 be 05 0b 17 3e f0 0a 6d bd
       -0.27482063 -0.20910035 0.14750297 -0.05787176
000310 d8 58 a8 3c 18 3b a4 be 95 1a 9a 3d 48 0a 45 bd
       0.020550177 -0.32076335 0.07524601 -0.048105508
000320 4c 8c f3 bd 72 e0 69 be 71 d4 e6 3d cd 75 10 be
       -0.11891994 -0.22839525 0.11270989 -0.14107437
000330 06 6c 5a be be 9d 7a 3c fd ec 90 3e eb 58 e4 3e
       -0.2133027 0.015296398 0.28305808 0.4459909
000340 1e 45 8c 3e ad 19 17 be 69 1b d6 bd 78 fb 3f 3e
       0.27396482 -0.14755888 -0.10454447 0.18748271
000350 19 4a a7 3c 1c e9 1c 3e e2 a5 f3 bd 95 98 2d be
       0.020421075 0.15323299 -0.11896874 -0.16952737
000360 a8 2a d9 bd 17 fc 8e be f3 f7 7e bd 0f c5 9a be
       -0.10603839 -0.27926704 -0.06224818 -0.3022847
000370 7b 43 83 3b da eb 9e be 60 c6 95 bd ab ec c9 bd
       0.004005847 -0.31039315 -0.07313228 -0.09859594
000380 32 2c ae 3d af 78 6a 3e c6 fc b2 3d b3 2f 53 bd
       0.08504523 0.228976 0.08739619 -0.05155916
000390 a3 a1 8e be c0 fa 4d be 55 c3 80 be eb d0 73 be
       -0.27857694 -0.20115185 -0.25149027 -0.23810165
0003a0 63 7a 43 3d 9d 9f 9a bd 62 bf b5 be 6a b3 f6 bd
       0.04772414 -0.07549975 -0.35497576 -0.12045939
0003b0 3e 48 7e be d8 99 60 3e fc 63 54 3e fc 8a e3 bd
       -0.24832246 0.21933687 0.20741266 -0.111104935
0003c0 54 ff 76 be 15 36 60 3b 64 ce 2c be 84 c6 5c be
       -0.24120837 0.0034211923 -0.16875607 -0.21560103
0003d0 31 c3 65 bd 12 59 54 3e 57 d5 fb be c2 b0 ff 3c
       -0.056094352 0.20737103 -0.49186203 0.031212214
0003e0 a2 cc 8e 3d fb 06 ff bd 69 2d ce bd f8 2e 0f 3d
       0.06972624 -0.12452503 -0.10067255 0.034956902
0003f0 05 3d 52 3e f9 9d b8 be 99 df 00 be 82 3a 13 3c
       0.2053109 -0.36058024 -0.12585296 0.008986117

fc2.bias f4 [128]
000000 a4 92 32 be c3 62 92 bd b2 ea 6a be 03 5c 04 3e
       -0.17438751 -0.071477436 -0.22941092 0.12925725
000010 c7 bc cf bc 28 04 8e 3e a3 ff de bd 3e 93 fe bd
       -0.02535857 0.27737546 -0.108886026 -0.12430428
000020 be 6f 84 bc 47 b2 fd 3d 43 62 81 3d 68 72 33 3e
       -0.016166564 0.12387519 0.0631757 0.17524111
000030 52 3a 6f bd d1 67 b2 3e 3e a6 ca bd 10 24 58 3d
       -0.058405228 0.3484483 -0.098949894 0.052768767
000040 6b 5f 65 bd dd bb 81 3d 11 65 7c be c9 25 37 3e
       -0.0559992 0.0633466 -0.24647929 0.17885508
000050 28 50 90 3d 6f d1 0c bd a3 7c c0 bd 6a 63 b2 bd
       0.070465386 -0.03437942 -0.093987726 -0.08710368
000060 14 63 b5 bc 8d e5 0f bd b6 98 b3 bd a2 05 88 bd
       -0.02214197 -0.035131026 -0.08769362 -0.066416994
000070 6b 3c d2 3d 10 c7 40 3e 9e 9a 7b 3e ec 78 b8 3b
       0.1026543 0.18825936 0.245707 0.0056296494
000080 34 3e 80 be 48 37 1b be 89 1f 4b be a9 9c be be
       -0.25047457 -0.15157807 -0.19836248 -0.37228897
000090 f4 31 49 3e 98 5d 7c 3e 92 7b fa bd 41 d2 ad 3d
       0.19647962 0.24645078 -0.122306004 0.084873684
0000a0 09 a8 81 3c 14 c7 89 bd dc 31 36 be 28 99 64 be
       0.015827196 -0.06727424 -0.17792457 -0.2232405
0000b0 00 d1 b4 bd 2b 0c 7e bd a9 5f 6b bd 02 40 eb 3d
       -0.08828926 -0.062023323 -0.057464276 0.11486818
0000c0 d8 e0 f8 bd cc 69 d0 3e 7d 85 82 be 47 fc b6 bd
       -0.121522605 0.40705717 -0.25492468 -0.08934837
0000d0 58 c2 93 3e 7c 50 7e 3d 9f 62 46 3c 53 52 39 3d
       0.2885921 0.062088475 0.012108474 0.045244526
0000e0 65 b6 90 bc 33 46 9c be 99 08 15 be b2 9a f6 bd
       -0.017665097 -0.30522308 -0.14554061 -0.120412245
0000f0 7f 36 83 bd 92 1f b3 bd 6c a4 55 3d ef 4a c7 be
       -0.06406879 -0.08746256 0.052158758 -0.38924357
000100 7c c5 cf bd 61 41 64 3d 89 21 51 be 59 82 46 be
       -0.10145089 0.055726413 -0.20422949 -0.19385661
000110 7c d4 db 3e 2f 31 5e be 51 e5 04 3e 67 43 b4 3c
       0.4293555 -0.2169845 0.12978102 0.022004796
000120 b8 7d c0 bc 20 46 82 bd b9 4e 9d bd b9 29 28 3d
       -0.023497447 -0.063610315 -0.07681031 0.041055415
000130 97 51 5f be 61 95 b0 bd a4 a4 30 be 84 7e fc 3d
       -0.21808468 -0.08622242 -0.17250305 0.123288184
000140 8b 60 12 be 8b 37 29 3e 1d 46 45 3e 15 c4 1a bd
       -0.1429464 0.16525094 0.19265027 -0.037784655
000150 9b 1f cb bc a5 0b 00 be 52 26 08 3e 8c 49 80 3e
       -0.024795344 -0.12504442 0.13295868 0.25056112
000160 04 5c a5 bd c2 2a 60 bd c9 1f 91 3e e4 fd c4 3e
       -0.08074191 -0.054728277 0.28344563 0.38474953
000170 03 00 83 bd 21 68 16 be 28 6a 14 3e da ce 72 bb
       -0.063964866 -0.1468816 0.1449362 -0.0037049563
000180 2a 52 b1 bd 26 a1 b5 bc 3f b3 b7 bc c6 1e fa bc
       -0.0865825 -0.022171568 -0.022424338 -0.030532252
000190 17 44 63 bb a1 bf 8e 3e 51 ee d0 3a 4e e3 04 be
       -0.0034678036 0.27880576 0.0015940164 -0.12977335
0001a0 59 03 05 bc c3 12 a7 bd 83 b1 64 be c5 f1 9e 3d
       -0.008118474 -0.081578754 -0.2233334 0.07760958
0001b0 78 19 8c 3d 49 65 93 3d b2 44 4a 3e 31 0c 16 bd
       0.06840795 0.07197053 0.19752768 -0.03663272
0001c0 c1 7a 46 ba 63 93 dd bd ce d0 02 be d4 ec fb bd
       -0.00075713923 -0.108191274 -0.12774965 -0.12301031
0001d0 3a f4 75 bc 33 16 07 bd 97 67 16 3c 57 7e a0 3c
       -0.015011841 -0.032980155 0.009179971 0.019591494
0001e0 7c de a1 3b 47 0b f1 3c b0 f2 50 3d 04 4c 0b be
       0.0049398523 0.029424323 0.051012695 -0.13603216
0001f0 de 8f 99 bd bd e1 6b 3e 92 a9 eb bc 17 db e6 be
       -0.074981436 0.23035331 -0.02876738 -0.45089027

fc3.weight f4 [64, 128]
000000 1a 74 50 be 6a 61 6b bc a6 22 52 3e 90 08 d2 bd
       -0.20356789 -0.014366487 0.2052103 -0.102555394
000010 80 d2 cc 3d bd b0 b5 be 92 29 32 3e 6f 8e 91 3d
       0.10001087 -0.35486403 0.1739867 0.07107245
000020 4e 14 b4 3a ff c4 68 3f b2 07 37 3d 7c 2f 0c 3e
       0.0013738961 0.9092559 0.044685073 0.13689989
000030 81 0d b8 3d 26 57 98 3e 1f 92 b0 be e9 ea 28 be
       0.08986951 0.2975399 -0.34486482 -0.16495861
000040 a3 41 4c bd 00 1f 8b 3d b0 66 dc bd 52 d0 d7 be
       -0.049867284 0.06793022 -0.107617736 -0.42151123
000050 88 70 3a 3d 11 1d 99 bc 8a 67 12 be b1 74 6b bc
       0.045517474 -0.018690618 -0.1429731 -0.014371083
000060 2b 74 0d bd 15 89 31 3f 23 37 59 3e 4f 7d da 3c
       -0.034534615 0.69349796 0.21212439 0.02667108
000070 d7 4a 82 bd b0 b7 89 bd 7a 81 80 be 7a 9c c5 bd
       -0.06361931 -0.06724489 -0.25098783 -0.09648986
000080 90 8b 0c be 3b 21 96 3d 49 1b 08 3e 89 f0 8f bc
       -0.13725114 0.07330557 0.13291658 -0.01757075
000090 f9 dd 97 3e 7c ec e5 be 8c 6d b1 3b c9 0a d7 3d
       0.2966154 -0.44906986 0.0054146703 0.10500104
0000a0 4d 28 27 3e 0e d9 55 3f 01 44 8f be 1c 61 bb bc
       0.16323967 0.83534324 -0.2798157 -0.022873454
0000b0 df 69 39 3d ec e3 84 bd a5 88 ae 3d 10 df 53 be
       0.045266982 -0.06488785 0.085221566 -0.2069056
0000c0 98 e1 f0 3b 51 91 10 3f 4c 7c d5 bc f1 c9 dd bd
       0.0073511116 0.56471735 -0.026060246 -0.10829533
0000d0 7f d1 7b 3e 24 a2 00 3f 10 81 31 be 79 98 c5 3e
       0.24591635 0.50247407 -0.1733439 0.3859289
0000e0 84 33 0a 3e 4c 3c 12 3e 81 76 10 3d 42 7e 5e 3e
       0.13496214 0.14280814 0.035269264 0.21727851
0000f0 0b bb 22 bd 9a 59 ad bd 84 a7 09 3d a2 f4 d7 3e
       -0.03972916 -0.08464356 0.03360702 0.42178828
000100 4c 5c 18 bc 2b 71 81 be 70 9c 50 3d da 11 c4 bd
       -0.009299349 -0.25281653 0.05093044 -0.095737174
000110 aa f4 c6 bd a1 c0 be 3c 53 5c 01 3f 5a 85 f3 bd
       -0.09714635 0.023285212 0.505315 -0.11890669
000120 62 95 6c be f0 62 17 bd 1a e6 91 3e a1 8e ff 3e
       -0.2310386 -0.03695959 0.28495866 0.49913505
000130 53 c1 1e be 55 94 5e 3d 2f d0 c5 3d d6 22 4a be
       -0.15503435 0.05434068 0.096588485 -0.19739851
000140 24 79 8a 3e a3 a3 3b be 94 ab b1 3c 65 5c d0 3c
       0.27045548 -0.18324141 0.02168826 0.025434682
000150 44 0e dc 3c e6 f8 10 3e 54 68 10 3f 52 42 0d 3f
       0.026862271 0.14157447 0.5640919 0.5517932
000160 d2 96 81 bc 3d e3 62 bd 36 f6 ca be 27 ac 61 be
       -0.015818987 -0.055392493 -0.3964097 -0.22038327
000170 7c 47 3d be 89 13 63 bd 99 71 2c 3f dc 49 94 bd
       -0.184843 -0.055438552 0.67360836 -0.0724065
000180 8f cb d7 bc 41 58 9a 3d d6 57 42 bc 48 76 01 be
       -0.026342181 0.07536364 -0.011861762 -0.12642777
000190 2d e7 12 3e 91 92 b4 bd 0d 0e 18 bc ec c3 26 3f
       0.14345999 -0.08817018 -0.009280694 0.65142703
0001a0 2b 2a 04 bd 2f db b1 3d 9f a7 48 3d 8b c1 96 bd
       -0.032266777 0.08684384 0.04898798 -0.07361134
0001b0 93 1e 89 bd 57 50 08 3f 4e 60 5e 3d a0 a3 d8 3d
       -0.06695285 0.5324759 0.054291062 0.10578084
0001c0 1a 8d b5 be 79 3a fd bd b2 3b 06 3c 2f 98 43 3d
       -0.35459214 -0.123646684 0.008192943 0.047752555
0001d0 9e 9d 4c be 20 b3 dc bd ba 0d b5 be 3d 63 81 be
       -0.19982001 -0.10776353 -0.35362035 -0.25271025
0001e0 ad 99 25 3f 30 1d 9b bd 71 82 11 bf 14 e2 f6 bd
       0.64687616 -0.075739264 -0.5683966 -0.1205484
0001f0 7f 39 33 3e be 0b f7 bd 6f 63 f7 bc df 3d 24 3e
       0.17502402 -0.120627865 -0.03019878 0.16039227
000200 48 ac 84 3d b7 90 a4 bc b4 aa cc bd bb 32 55 be
       0.064781725 -0.020088537 -0.099934965 -0.20820133
000210 d8 66 a3 bc fd 3a 7d 3d ea 03 a3 bd 8b a8 ce bd
       -0.0199465 0.061823834 -0.07959731 -0.10090741
000220 50 08 f7 3d 39 1f 0e 3f c7 3d 83 be ec 08 47 3d
       0.12062132 0.5551639 -0.2563307 0.048592493
000230 9e 0e db bd c6 20 8f 3e 7a 20 66 bd 19 89 74 3e
       -0.106961474 0.27954692 -0.056183316 0.23880424
000240 fe 7a c8 bd c4 75 da be c2 ea ff 3c 7e 14 83 3d
       -0.09789084 -0.42667973 0.031239871 0.06400393
000250 41 d6 41 3e 47 48 ce 3d 0c 74 78 3e af c3 96 3d
       0.18929388 0.100723796 0.24263018 0.073615424
000260 af a7 8d bd ea 1a 20 3f de a3 97 be dc 71 a0 3d
       -0.06916749 0.6254107 -0.29617208 0.07834217
000270 98 a9 01 3d 6f 1b 56 be 70 a9 b7 3d 05 0d c5 bd
       0.031655878 -0.20908903 0.089678645 -0.09621624
000280 f6 76 ec 3d 54 7e 2d 3e 3c bd c2 bc 5d d8 5e be
       0.115461275 0.16942722 -0.023771875 -0.21762224
000290 50 19 76 bd 53 b6 83 3e 27 1d ad bd 78 ee ce be
       -0.060082734 0.2572504 -0.08452826 -0.40416312
0002a0 71 89 ef 3d 8e 2c 95 3e 61 06 ef bd f7 51 c5 bd
       0.11696137 0.29135555 -0.116711386 -0.09634774
0002b0 c4 b8 25 3d f0 36 b9 bd 2e f2 4b 3e 57 58 95 be
       0.04045941 -0.090436816 0.19916603 -0.2916896
0002c0 07 8d eb bd c1 6b ef 3e da 34 79 3e b0 19 80 bc
       -0.11501508 0.46761897 0.24336568 -0.015637249
0002d0 d5 82 1e 3f 96 de a5 3d cb 31 ae be af c5 c4 3e
       0.61918384 0.080990955 -0.34022364 0.3843207
0002e0 8b 0e 86 bd fa 83 19 3d b5 fd 68 bd 50 a6 5c 3e
       -0.065457426 0.03747938 -0.05688258 0.21547818
0002f0 55 be 78 3d 4d cb 22 3c 84 6a 59 3e 90 71 a6 be
       0.06072839 0.009936166 0.21232039 -0.32508516
000300 38 1e 90 3d 74 82 a5 be d1 9a d8 bd 62 d6 35 3b
       0.07037014 -0.3232609 -0.10576404 0.002774619
000310 1f 9d 76 3e 24 68 a0 3c bc 19 51 3e 57 ad ab be
       0.24083374 0.019580908 0.20419973 -0.33530685
000320 17 1d 5d 3e 3c dd 3a 3d be 8d c8 3d f9 ec cc 3d
       0.21593128 0.04562114 0.0979266 0.100061364
000330 10 3d 40 be b1 a5 9e 3d 71 52 c5 bb 34 6c 05 bf
       -0.18773293 0.07746447 -0.0060217907 -0.5211823
000340 73 91 17 3e 3e 11 a4 3d e2 04 59 3e bc 21 86 bd
       0.14801578 0.08011101 0.21193269 -0.06549403
000350 50 c3 31 3e bb 93 90 bd d7 ae a7 3e 8c f5 93 3d
       0.17359662 -0.07059427 0.3275058 0.07224569
000360 ac 16 f2 3d 36 5a e1 bc cb 01 42 be 03 7d c6 b9
       0.118207306 -0.027508836 -0.18945996 -0.00037858644
000370 5d 1c 47 3e 8e 78 86 3d 7c ca d1 3e e4 32 98 3c
       0.19444413 0.06565963 0.40974796 0.018578954
000380 5d 6a 63 3d cb 4a 22 3e f3 f6 2f bd fd 36 de bc
       0.055521358 0.15848844 -0.04296012 -0.02712583
000390 ce 42 76 3e 4c 14 d3 3e 46 df 8e be 41 a4 0f 3f
       0.24048921 0.41226423 -0.2790472 0.56110007
0003a0 6b be 86 bb b3 d1 94 3d 18 69 f9 3d 70 53 61 be
       -0.004112055 0.072665595 0.12178248 -0.22004485
0003b0 e0 d1 67 be 1f 00 56 3f 93 4d c5 be 79 90 70 bd
       -0.22638655 0.83593935 -0.38535747 -0.05873153
0003c0 9f a5 5d bd d2 64 01 bd f7 fd 86 3d 01 c7 48 39
       -0.054113027 -0.03159029 0.06591409 0.00019147621
0003d0 76 93 2b 3d 5b 79 19 bd a6 f0 c6 bd 63 5b 26 be
       0.041888677 -0.03746925 -0.09713869 -0.16245799
0003e0 10 b9 ab 3e 76 e4 97 3d 87 51 97 bd 30 c5 2b 3d
       0.3353963 0.07416622 -0.07388597 0.0419361
0003f0 de 7d fb be f4 08 6d be 44 30 83 3c 6d 4d 3c 3e
       -0.49119467 -0.23147947 0.016014226 0.1838891

fc3.bias f4 [64]
000000 26 57 8e 3d 4d f6 3b 3c 1d f1 a9 be bf c1 49 be
       0.06950216 0.011472297 -0.33191767 -0.19702815
000010 20 a6 81 bd 40 91 82 bd 5b d0 c7 bd bd b6 88 3e
       -0.06330514 -0.063753605 -0.097565375 0.26701918
000020 42 b9 ad 3d 66 6e 4a bc 6c 7a 0c be ac d1 29 be
       0.08482601 -0.012355423 -0.13718575 -0.1658389
000030 e4 c6 99 bd 81 cb 64 3e cf 9f 64 bd 13 11 8c 3b
       -0.075086385 0.22343256 -0.055816468 0.0042744963
000040 13 48 ac be 95 77 c0 3c f8 be ae bc de d1 92 bd
       -0.33648738 0.023494521 -0.021331295 -0.07168935
000050 b0 40 88 3d 22 5a ae ba b4 3f de 3c e4 7e fe 3d
       0.06652963 -0.0013302008 0.027129985 0.12426546
000060 d0 39 bb bd b1 f2 65 3e 5c 08 6c be 17 10 56 3d
       -0.09141886 0.2245586 -0.23050064 0.05226144
000070 88 eb bc 3e 84 00 ee bd 83 c6 b4 3d 25 6a dc 3d
       0.36898446 -0.11621192 0.088269256 0.10762433
000080 a7 07 30 be 57 e8 f9 3b c6 cf ae be 27 92 4e be
       -0.17190419 0.007626574 -0.34142894 -0.2017294
000090 c0 4d a5 be 1b c2 00 3e 1d f2 79 be 4f 23 ad 3c
       -0.3228588 0.12574045 -0.24408765 0.021135
0000a0 91 ea 47 be 9a 7d ec be 28 6d 0d 3e 21 ed c8 3e
       -0.19523074 -0.46189576 0.13811171 0.39243415
0000b0 97 1b 67 3e a9 e9 5a 3e 92 ac 97 be 2b a0 f7 bd
       0.22569118 0.21378197 -0.29623848 -0.120910965
0000c0 1c 5e ab bd b3 16 c6 bc 7f f2 66 be fc 7e 3e 3e
       -0.08367559 -0.024180746 -0.22553442 0.18603128
0000d0 54 51 80 bd 7a cf be 3c bf 5a 6c be ee e8 7b bd
       -0.06265512 0.023292292 -0.23081492 -0.061501436
0000e0 03 b6 a0 be 76 fd 46 be dd c3 b5 3e dc 0b 0d 3e
       -0.31388864 -0.19432625 0.35500994 0.13774055
0000f0 02 e6 7b be 0f 28 96 be 30 58 7e be 9d a8 02 bc
       -0.2459946 -0.29327437 -0.24838328 -0.007974771

fc4.weight f4 [4, 64]
000000 ba b4 66 be 1c 0e cc ba d3 84 15 3d 7f 48 11 3d
       -0.22529879 -0.001556817 0.036503624 0.03546953
000010 32 dd a1 bd 11 9e b3 be f6 71 a9 be 33 ed 95 be
       -0.07903518 -0.35081533 -0.33094758 -0.2928253
000020 9c e1 69 be 0e a6 bf 3d 3d 70 8c 3b e5 e0 4c 3d
       -0.2283997 0.09357844 0.004285841 0.050019164
000030 79 fc 85 bd 3b f1 1f 3f 68 75 b3 be 5a 92 11 bd
       -0.06542296 0.62477463 -0.3505051 -0.035539962
000040 a1 b9 17 3d a5 8c d1 be 66 99 a4 3e fe 56 bf 3e
       0.037042264 -0.40927616 0.32148284 0.37371057
000050 63 c6 d6 be 73 6b aa 3d 6e 3d 8c be ed e2 ff 3e
       -0.41948232 0.083212756 -0.27390617 0.49977818
000060 66 db 12 bd 5d cd 9b be 6b 10 ec 3d f5 e2 c2 3e
       -0.035853766 -0.30430117 0.11526569 0.3806378
000070 5a 2d e9 be 3b 57 b8 3e 08 ef 23 3e 70 35 07 be
       -0.45542413 0.36004052 0.16009152 -0.13203979
000080 5c eb 59 be a4 f4 06 bf 53 e4 52 bc d9 9d a1 3b
       -0.21281189 -0.5271704 -0.01287182 0.004932147
000090 c8 40 50 be e9 e9 23 3f bc 72 20 3e ab 89 0d 3f
       -0.20337212 0.64028794 0.15668768 0.5528819
0000a0 2e 8b 23 3e 86 ba 5a 3e a9 1f b2 be aa b8 20 3f
       0.15971062 0.21360216 -0.3478978 0.62781775
0000b0 52 80 1f be 1c b5 ef 3e db 90 58 bd 64 a4 ba be
       -0.15576294 0.46817863 -0.05287252 -0.36453545
0000c0 4a 7b 9c be 15 60 2c be 64 c4 51 be 71 e9 1b 3f
       -0.30562812 -0.16833527 -0.20485073 0.6090308
0000d0 e9 82 c4 3b 70 33 b1 3d 01 b9 a5 bd 24 20 bd be
       0.005997051 0.08652389 -0.08091927 -0.36938584
0000e0 36 a2 73 3d 4a 59 9f bd a0 76 03 bf a2 b6 a3 3c
       0.05948087 -0.077807024 -0.5135288 0.019984547
0000f0 e6 d0 56 bc 7d 7b 64 bd 7d 29 96 3e 58 6e 82 be
       -0.013111329 -0.05578183 0.29328528 -0.2547481
000100 12 f8 d0 bd 96 2d b3 3e 2f 85 e5 bd 21 7f 58 bd
       -0.10203566 0.34995717 -0.112070434 -0.052855615
000110 04 c7 a4 3e 0b 69 bf be 72 dc 1f 3e 77 3a bf be
       0.32183087 -0.3738483 0.15611437 -0.37349293
000120 02 71 6e 3d 6e a5 a3 bd ad bb 5b bd aa 2c 98 3d
       0.05821324 -0.079905376 -0.05364578 0.07430394
000130 85 69 e6 3e 8a d6 ed be ad 6b 8b 3e cd 0a 52 bd
       0.4500238 -0.46452743 0.27230588 -0.05127983
000140 af b0 4b 3e fc 8c d5 bd 46 65 0f be 8b b5 9e bd
       0.19891618 -0.10427281 -0.14003477 -0.0774947
000150 90 7a 98 bd 32 31 0b 3f ad 27 23 3f 22 f1 8b be
       -0.07445252 0.5437194 0.63732415 -0.27332407
000160 84 0f 90 3c a9 1d 9c bc c3 52 57 3c ba a3 0e 3f
       0.017585523 -0.019057112 0.0131422905 0.55718577
000170 86 8a a8 3e 45 48 96 3d e9 55 5d be 89 17 bf 3e
       0.32918185 0.07338003 -0.21614803 0.37322643
000180 9d 34 f6 3d 1c b5 09 3f 15 ea bc bd 6d 85 43 bd
       0.12021754 0.53791976 -0.09224335 -0.047734667
000190 1e 48 f5 3e ba 71 0f be 55 b2 89 bd 8d bd 17 be
       0.47906584 -0.14008227 -0.06723467 -0.14818402
0001a0 e7 f7 52 be 94 a4 8c be a6 3a 28 be 9d db 9b bd
       -0.2060238 -0.27469313 -0.16428623 -0.07610247
0001b0 2c f1 7c be e7 ba 96 be ae c4 88 be 30 70 3d bd
       -0.24701375 -0.2943947 -0.26712555 -0.04624957
0001c0 0e 4a af be a5 57 c6 be 09 eb cf bd 21 e0 c5 bd
       -0.34236187 -0.38738742 -0.10152251 -0.0966189
0001d0 e7 1a 6f 3c f1 99 a3 3d 86 44 66 3c 78 70 de 3d
       0.014593816 0.07988346 0.014054423 0.108612955
0001e0 de 55 ba 3e 41 a0 6e 3b 16 7d 3d 3c eb ff ef 3d
       0.36393636 0.0036411437 0.011565467 0.11718734
0001f0 4a 46 67 be ab e3 f1 3e 04 f3 95 be 18 5e 40 3f
       -0.22585407 0.4724401 -0.2928697 0.75143576
000200 b5 06 d6 be 94 3e c4 be 17 1e 67 be 30 52 f7 bc
       -0.41801992 -0.38328993 -0.22570072 -0.030190557
000210 85 76 94 3d 64 4d 1b 3f e4 7e ae 3d f6 d6 b4 be
       0.07249168 0.60664964 0.08520296 -0.35320252
000220 ed 59 bd bd 0b 52 98 bd 12 83 2a bd 97 f2 91 3c
       -0.092456676 -0.074375235 -0.041628905 0.017815871
000230 7f 2f 9f be 24 5c 82 3e a5 d7 fa be 53 9d af 3e
       -0.31090924 0.25460923 -0.4899265 0.34299716
000240 a3 b0 13 3e da d1 0b 3f 00 f1 b3 be b1 57 12 3e
       0.1442285 0.54617083 -0.35144806 0.14291264
000250 91 7b 07 bd 99 8d 60 bd 7d 08 9e be 49 cf 05 be
       -0.033076826 -0.054822538 -0.3086585 -0.13067354
000260 0e 0d 24 3e 84 3d 18 bd 5a dd 20 3e 5b d7 be be
       0.16020605 -0.03716804 0.15709439 -0.37273678
000270 4b 47 1e bf ec d6 79 3e c9 28 55 3e c5 a1 94 be
       -0.61827534 0.24398392 0.2081634 -0.2902967
000280 66 c1 84 3c 03 52 27 be fc bc fe bc 7b 7f 28 bd
       0.0162055 -0.16339879 -0.031095974 -0.0411372
000290 c4 85 9b 3c c9 6c 8c be 1a 3e 08 3d 40 e0 01 bd
       0.018984683 -0.27426746 0.03326235 -0.031708002
0002a0 1f bb 49 3e ee 6d 8f be 1d 3e 00 3f 9d 35 ed bd
       0.19700287 -0.28013557 0.5009478 -0.115824915
0002b0 11 c3 f9 3e 12 80 f1 3d c5 86 5a 3e 88 c6 cb 3e
       0.48781636 0.117920056 0.21340473 0.39799905
0002c0 d9 78 03 3f 5e e4 db 3d 6e 36 1b 3d fa 28 66 3e
       0.51356274 0.10736917 0.037893705 0.22476569
0002d0 a5 26 65 bc 81 54 e3 3e c3 16 b3 3d 4a 8d 1e bd
       -0.013986264 0.4440041 0.08744576 -0.038708963
0002e0 1d 55 b0 3d ab ed 0f bc 7f 7c 00 3f 86 cc 9a bc
       0.08609984 -0.008784692 0.50189966 -0.018896352
0002f0 35 bd e6 bc 94 45 8d be 4f ae be bd 6f a9 e4 bd
       -0.028166393 -0.27592146 -0.093105905 -0.111651294
000300 7a 18 e2 3e c1 4f ce 3e 91 15 48 be 31 1d 04 3e
       0.441593 0.40295222 -0.19539477 0.1290176
000310 64 8c e0 be 68 02 da 3c da 50 39 3e 9e f4 07 3f
       -0.4385711 0.026612476 0.18097249 0.5310763
000320 dc 84 36 3f 6b b1 c5 3e 00 ff 3b bd 79 7c f2 3c
       0.7129648 0.38611922 -0.045897484 0.029600369
000330 d7 5d 8a be 11 71 88 be 39 ad 46 3f ec 83 d0 bd
       -0.2702472 -0.26648763 0.77608067 -0.10181412
000340 34 57 a6 be 45 cb 9d be a8 16 fc 3c b7 c1 b8 3d
       -0.32488406 -0.30819145 0.030772522 0.09021323
000350 97 2b 14 3f f4 6f d2 be 83 b0 65 bb 5f 0c 72 3e
       0.5787901 -0.41101038 -0.0035047836 0.23637532
000360 6a 76 13 be 3f 53 4d 3f 20 13 c5 3d 55 af e4 be
       -0.1440064 0.8020515 0.096227884 -0.44665018
000370 2c 78 4d 3f 7f 2f 59 bd b4 02 6e be ca 85 d9 bb
       0.8026149 -0.05302381 -0.23243219 -0.0066382634
000380 ab c0 aa 3d 17 83 6e bd 35 14 ae 3e 57 59 4d bd
       0.0833753 -0.058230486 0.33999792 -0.05013403
000390 37 19 4a be 98 42 ee 3d 3f 82 32 3d 80 63 4a be
       -0.19736181 0.116337955 0.043581244 -0.19764519
0003a0 e1 99 49 3e b3 aa 00 3f e2 6e dd bd 36 31 b7 be
       0.19687606 0.50260466 -0.10812165 -0.35779732
0003b0 bf 78 ca bd d9 89 3f be 2a 50 81 3e ab 34 17 be
       -0.09886312 -0.18704928 0.25256473 -0.14766185
0003c0 69 51 a5 3d 3f 41 1e 3d 1d f3 8b 3e 27 ab 99 be
       0.080721684 0.038636442 0.27333918 -0.3001339
0003d0 84 f8 61 3d fd 84 4e be 74 84 94 3d e0 4a a6 3e
       0.055168644 -0.20167919 0.07251826 0.32479
0003e0 eb ac 6b be 0e b8 59 bc f5 07 c9 be 97 f5 1e 3f
       -0.23015182 -0.013288511 -0.39263883 0.6209349
0003f0 81 46 eb bb 9c bd e0 3d 46 7d ee 3c 26 c1 9c 3e
       -0.0071800356 0.10973665 0.02911247 0.3061611

fc4.bias f4 [4]
000000 6e 52 db 3e c6 38 66 3d 55 1e e4 3c e8 76 32 be
       0.42836326 0.056206487 0.027846495 -0.17428172
