models/critic_v3.pth (torch, 180312 bytes, 7 tensors)

fc1.weight f4 [256, 11]
000000 b0 82 52 bd 25 da 22 bc 9d ea 84 be 20 46 6f be
       -0.051394165 -0.009939705 -0.25960246 -0.23366594
000010 70 49 7c 3d a1 ef 4b 3e 8a 39 a2 bc 59 fc b7 be
       0.061593473 0.1991563 -0.019802827 -0.35934713
000020 8f 27 54 bf 35 36 c9 bd be 7c 9c 3e b9 9b 39 bf
       -0.8287286 -0.09824792 0.3056392 -0.7250324
000030 87 06 cd bd 59 87 7b 3e b6 f2 9b 3e ea 87 94 3e
       -0.100110106 0.2456335 0.3045861 0.29009944
000040 3c 65 a4 be 4a 75 30 3d 2a 04 f4 3b d8 d3 27 bf
       -0.32108486 0.043080606 0.0074467855 -0.6555762
000050 6c f7 5f bf 18 86 b8 be 5a e9 46 be dd 54 96 be
       -0.8748691 -0.36039805 -0.19424954 -0.2936162
000060 33 5e dd be fd 0f c1 3e e6 d2 6e 3e 30 3d 42 3e
       -0.4323593 0.3770751 0.23322639 0.18968654
000070 a7 72 b0 3e 65 ef 9a be 38 0f 26 be 34 18 5e be
       0.34462473 -0.3026077 -0.16216743 -0.2168892
000080 0f bc e2 bd 08 c7 5a be 03 e8 ac 3c 61 b9 72 bb
       -0.110710256 -0.21364987 0.021106726 -0.0037036764
000090 52 ec 32 3e 6d 0b 11 be dc 47 5d be 72 39 40 3e
       0.17472962 -0.14164515 -0.21609443 0.18771914
0000a0 36 dc 78 bd 53 8a de bd 8a ca 46 be 83 38 94 bc
       -0.060756885 -0.10866227 -0.194132 -0.018093353
0000b0 ff 6c 19 bf 9f 12 25 be 42 1b 98 be 1a 31 ba 3e
       -0.5993194 -0.16120385 -0.29708296 0.36365587
0000c0 8e 9f 3e 3e 97 06 95 3d 23 d0 db 3d 61 ce 70 be
       0.18615553 0.072766475 0.10733058 -0.23516227
0000d0 6a 74 bc be 42 e7 b2 bd e2 00 57 be 68 2a 55 be
       -0.36807567 -0.08735515 -0.2099643 -0.20816958
0000e0 21 81 4c bf 72 60 08 3f 78 d4 0f 3f 60 5e 73 bd
       -0.79884535 0.53272164 0.56183577 -0.059416175
0000f0 db 65 c6 be 16 bb 1a bf 36 d8 00 bf d6 89 63 be
       -0.38749585 -0.6044172 -0.5032991 -0.22220549
000100 6d 5d 35 bf f9 6c 5e 3e 42 5b a5 be f7 c8 c7 be
       -0.7084568 0.21721257 -0.32296187 -0.39020512
000110 79 b8 60 be 69 57 c4 3d 87 27 71 bd 34 ba 6c 3e
       -0.2194537 0.09586985 -0.058875587 0.23117906
000120 71 82 0c 3f 3d f0 08 bd 0c da 28 bf d1 47 76 bd
       0.5488654 -0.033432234 -0.65957713 -0.060127083
000130 29 96 ac be 72 39 e2 be ff 28 0c 3e b7 fc e2 3c
       -0.33708313 -0.44184452 0.13687514 0.027708394
000140 9b da c4 be 53 f7 a5 3e 78 3d f5 3e cc b6 4a 3f
       -0.38448033 0.32415256 0.4789846 0.79185176
000150 58 96 98 bf 46 e8 ae be 6d 3e ef be 3a 29 4c 3a
       -1.1920881 -0.34161586 -0.46727315 0.00077881257
000160 1e d6 2e 3c 9c e6 fa bd c7 ce d0 be 49 fc b4 3e
       0.010671167 -0.122510165 -0.4078276 0.35348728
000170 87 ba ab 3e 44 46 0b bf 24 e1 a4 3e b8 76 9a 3d
       0.33540747 -0.5440409 0.3220302 0.07542175
000180 84 0e 52 be cb b1 49 be 7f 5c 2f bf 5e 7e a9 be
       -0.2051335 -0.19696729 -0.6850051 -0.33104223
000190 78 4b d2 be a7 6e ac be 8b ea cb 3e 58 e6 b6 3d
       -0.41073203 -0.3367817 0.3982738 0.08930653
0001a0 e6 81 32 3e e4 da 4f 3e 13 79 41 bd f8 fb be 3c
       0.17432365 0.20298344 -0.047234606 0.023313507
0001b0 1b b6 29 bc f1 bf 03 3e 17 19 b1 be 3e e8 cd 3e
       -0.010358359 0.12866189 -0.34589455 0.4021625
0001c0 bb 4c 4a bf d0 fa c1 3e df da 91 3e 2c a1 ac be
       -0.7902333 0.37886667 0.28487298 -0.33716714
0001d0 d5 07 61 be b9 86 4f 3c f4 db 9d be 64 0d 35 be
       -0.21975644 0.012666398 -0.30831873 -0.1768089
0001e0 b8 f0 2b bf 93 97 43 bf e5 59 ab 3e 70 25 d2 3d
       -0.6716418 -0.7640316 0.33467022 0.10261047
0001f0 18 79 a5 be be 0f ec be ca 78 af 3e 06 64 b6 bd
       -0.3231895 -0.4610576 0.34271842 -0.08905797
000200 46 b3 c0 bd 62 bb af 3e e2 95 45 bf 17 c2 d1 be
       -0.09409194 0.3432265 -0.7718183 -0.4096839
000210 e0 38 1c bf b0 db 1b be ab c6 8a 3e e6 eb 97 be
       -0.61024284 -0.15220523 0.27104697 -0.29672164
000220 0b 3d 76 3e 66 1a 8c 3e 72 8f 92 be 47 fe 1a bf
       0.24046724 0.2736389 -0.28625065 -0.60544246
000230 f7 a2 6c bd f7 66 25 bf 07 a0 68 bf 31 55 7f be
       -0.057772603 -0.64610237 -0.9086918 -0.24934842
000240 81 7b 37 3c d5 95 c6 bd 95 46 2d be f2 5f 09 bd
       0.011198879 -0.09696547 -0.16921456 -0.033538766
000250 01 1c 36 3e c7 d4 a9 3d 6d f4 bd be 20 fd 46 be
       0.1778412 0.08292537 -0.37100545 -0.19432497
000260 bc 00 1c be 29 0a ac 3c 5d d6 a8 be aa 6d 3c bd
       -0.15234655 0.021000938 -0.32976046 -0.04600302
000270 16 68 21 3d 30 71 d0 3d a1 12 67 bd a8 e8 ae 3d
       0.039405905 0.10177839 -0.05641425 0.085404694
000280 cd 3a 03 bf ac 03 d7 be 3e 4a 27 be e6 73 df be
       -0.512616 -0.4199499 -0.16336915 -0.4364311
000290 8d 09 17 3e c4 4f e0 be 8f cd 9b bd 02 5b 7b 3e
       0.14749737 -0.43810856 -0.076075666 0.24546435
0002a0 e3 62 25 bf f9 5b 9b bc 4c 26 ba 3d 26 3c 02 3f
       -0.64604014 -0.018964754 0.09089336 0.5087303
0002b0 54 4e 1b bf 84 40 a2 39 17 15 b8 be c8 5f 44 bf
       -0.60666394 0.00030947116 -0.3595359 -0.7670865
0002c0 0f 30 c6 be 00 21 d2 be f4 72 9f be c6 d0 9b 3e
       -0.3870854 -0.41040802 -0.3114239 0.3043272
0002d0 f3 8d 98 3e 21 34 ab 3e af ba 68 3e 81 01 83 3d
       0.297958 0.3343821 0.22727464 0.06396771
0002e0 f6 d3 85 3c 31 2c c9 be 72 d7 90 be 94 c7 a0 be
       0.016336422 -0.39291528 -0.28289372 -0.31402266
0002f0 0e 27 2e bd 30 46 14 bd 7b 72 06 3f ca aa bb 3e
       -0.042517714 -0.03619975 0.52518433 0.3665374
000300 2e 64 95 3e 78 28 4c 3f 3e 22 70 be 9d d1 13 be
       0.29177994 0.7974925 -0.23450562 -0.1443543
000310 65 5b ac be 7b 8a 09 3e 7e 3d b8 3e 27 d6 3c 3e
       -0.33663478 0.13431732 0.35984415 0.18441068
000320 2b 6e 72 3b 37 da 19 3f 7a d2 f7 3e 1c 4d ce 3e
       0.0036991935 0.60098594 0.48402768 0.40293205
000330 e3 ff a7 be 0d a3 7b bf b0 12 cf be c6 18 8c 3e
       -0.32812414 -0.9829567 -0.40443945 0.2736265
000340 32 90 c6 3e 8f 74 7f be 00 ed 6d bc 08 58 51 be
       0.38781887 -0.24946807 -0.014521837 -0.20443738
000350 b6 41 f6 bd e0 5e 84 be 99 92 93 be d1 f2 86 be
       -0.12024252 -0.25853634 -0.28822783 -0.2635713
000360 da 03 50 be c9 ae 19 be ec 5e 0f 3e 50 2f 9a 3e
       -0.20313969 -0.15008081 0.14001054 0.30114222
000370 33 26 a9 be f3 fe 8e be 75 9b 4b be 62 86 e0 bd
       -0.33036956 -0.27928886 -0.19883521 -0.109631315
000380 87 81 6a be 28 f4 52 bd b6 83 da 3c 88 8c d1 be
       -0.22900973 -0.051502377 0.026674133 -0.4092753
000390 c8 ac 83 be 13 34 3f be a9 61 34 be 7d 85 d7 bd
       -0.2571776 -0.18672208 -0.1761538 -0.10523508
0003a0 ad 82 f0 be 26 53 19 bf 3f 2b 09 be b8 4e f8 3d
       -0.46974698 -0.598925 -0.13395403 0.121243894
0003b0 f9 ce 22 3e 03 0d af 3d 66 6b e2 3d 75 b0 e5 bc
       0.15899266 0.08547404 0.11055641 -0.028038243
0003c0 ed 69 8f be 14 01 c6 bd 6c f1 5e bf 5e fc 74 be
       -0.28010502 -0.096681744 -0.8708713 -0.23924395
0003d0 fe 2f 7f 3e 99 8e 02 3e 36 b7 40 bf 70 22 05 bd
       0.24920651 0.12749709 -0.7527956 -0.032503545
0003e0 a2 4c 85 ba 45 89 13 be 9f 33 11 bf 79 ef 0d 3e
       -0.0010169933 -0.14407833 -0.5671939 0.13860883
0003f0 22 1b 0c bf 88 0f ae be 6d b6 30 bf f0 1d 57 be
       -0.547289 -0.33996224 -0.6902836 -0.21007514

fc1.bias f4 [256]
000000 17 e0 c5 be f7 03 b9 3d b0 4d 89 be b7 c8 92 be
       -0.3864753 0.09033959 -0.26817083 -0.28668758
000010 13 66 f6 3d 77 57 e1 be b5 59 4c 3d b4 7f 19 3e
       0.12031188 -0.44012043 0.04989024 0.14990121
000020 a6 d5 d9 bc c5 3f 75 3d 51 e4 27 bf df f7 09 bf
       -0.026591133 0.05987527 -0.6558276 -0.53893846
000030 64 15 ff be 78 66 6a be 81 98 9a be 55 91 1d 3e
       -0.49821007 -0.22890651 -0.30194476 0.15387471
000040 db 9c 77 3d 82 ef 8e 3d 4b ed 0a bf 18 d4 8e be
       0.060452323 0.06979276 -0.5426833 -0.2789619
000050 48 60 bc 3d 76 99 b3 be 02 4d 93 3d 6a 70 43 3d
       0.09198052 -0.3507802 0.071924224 0.04771463
000060 e4 e6 e8 3d 51 0b 23 be 12 e4 d2 bd 1e ef 88 be
       0.11372164 -0.15922286 -0.10297407 -0.26744932
000070 eb 96 33 3e f3 64 b3 bd 6e 0b a5 3d e5 85 28 be
       0.1753804 -0.08759489 0.08058821 -0.16457327
000080 4a 74 ae be bf c8 02 bf ec 15 48 be 83 63 fb be
       -0.34073097 -0.51087564 -0.19539613 -0.4909936
000090 10 a2 c5 be ed 13 94 be 06 63 71 be 67 39 11 bd
       -0.38600206 -0.28921452 -0.2357293 -0.035455134
0000a0 d3 7e d4 bd 90 ea 0b 3d d6 29 80 3d 2c 8f 55 bf
       -0.10375752 0.034159243 0.062579796 -0.8342159
0000b0 cf 80 c0 be 7c 7a d7 3c 8f be b7 be f8 a3 8a be
       -0.37598273 0.026303522 -0.35887572 -0.27078223
0000c0 a6 4d a0 be 38 de 8b 3d 41 f5 92 be 76 59 41 bd
       -0.3130924 0.06829494 -0.2870274 -0.047204457
0000d0 c1 cf d3 bd a4 91 54 be 7a bd 27 be 8e 88 ce be
       -0.1034236 -0.20758682 -0.16380873 -0.40338558
0000e0 f7 78 05 bf 29 b8 34 bf a7 d9 d4 bd e4 77 e1 be
       -0.521377 -0.70593506 -0.103930764 -0.44036782
0000f0 97 a1 b9 be ee ba c5 be 36 0f 76 be 72 d1 f6 3c
       -0.36256096 -0.3861918 -0.2402924 0.030129168
000100 94 07 95 be 37 16 2e bd 1c 9b ad be 1a 00 8b be
       -0.29107344 -0.042501654 -0.33907402 -0.27148515
000110 6e 3c 27 bf b7 a5 34 3e 9f dc 3d be fb 2c 47 3e
       -0.65326583 0.1764134 -0.18541192 0.19450752
000120 cd c9 14 bf b3 e2 94 be 9b f3 dc bc aa 80 24 be
       -0.58120424 -0.29079208 -0.026971629 -0.16064706
000130 fd be f2 be 86 2d d0 3e ba ed 5e be 6f 52 b5 be
       -0.47411337 0.40659732 -0.21770373 -0.35414454
000140 79 96 bd bd bd 0d 44 be c0 aa 15 3e e1 46 74 3e
       -0.09257216 -0.19145866 0.14615917 0.23855163
000150 82 5d 18 be e1 ef 8d be 50 ae c9 3d 4e 92 ab bc
       -0.1487942 -0.27722076 0.098477006 -0.020943787
000160 90 c8 b1 be 81 cc 04 bf 62 ae 4f be 44 9e 83 3e
       -0.3472333 -0.5187455 -0.20281366 0.25706685
000170 5d 21 59 be 15 73 b0 be 22 3f 5a be 95 82 72 be
       -0.21204133 -0.344628 -0.21313146 -0.23682626
000180 3f 98 3e be 6c 62 0b be d3 1a 4b be bc ba 6e 3d
       -0.18612765 -0.13611764 -0.19834451 0.058283553
000190 df 3d c7 be 80 42 56 be 72 a9 42 be 7b 94 9f be
       -0.3891439 -0.20923805 -0.19009951 -0.3116797
0001a0 4e bc 42 be 75 b0 be be c8 0c e9 be db 07 b4 be
       -0.19017145 -0.37244 -0.45517564 -0.35162243
0001b0 df e1 7d be ed 4c 2c 3d 69 d0 02 bf 6d 56 e2 bd
       -0.24793194 0.04206555 -0.5109926 -0.11051641
0001c0 d0 2a b4 be e9 83 8b bd b9 f4 29 be bc e8 31 be
       -0.35188913 -0.06812269 -0.1659726 -0.17373937
0001d0 cd 4f 63 3e 0a a1 23 3e 47 fd 9d bd e9 c3 c4 bd
       0.2219841 0.159794 -0.077143244 -0.096076794
0001e0 99 21 85 be d1 3a a8 3d 19 6a 3b be eb cb e2 bd
       -0.26002195 0.08214343 -0.18302192 -0.110740505
0001f0 ef f4 1d bd 00 1e 87 be 17 50 0b bf c3 c4 a1 bd
       -0.038563665 -0.26390076 -0.5441908 -0.078988574
000200 e1 10 f9 be d1 1f d1 be c3 23 55 be 1e 2e 4d 3e
       -0.4864569 -0.40844586 -0.20814423 0.20037124
000210 10 61 01 bf e6 7b 4b be 79 37 dd 3d 07 2f f9 be
       -0.5053873 -0.19871482 0.10801596 -0.48668692
000220 1a 92 2c bf 57 1e 43 3d cd 3f 41 bf e3 df 26 bf
       -0.67410433 0.047636356 -0.7548798 -0.65185374
000230 a8 09 fb be 6d 85 a8 3b 51 42 f3 be e6 11 94 be
       -0.49030805 0.0051428587 -0.47511533 -0.28919905
000240 16 dd af be 40 09 19 be ef d0 37 be fa 5c 9b be
       -0.34348363 -0.14944935 -0.17950796 -0.30344373
000250 8c a7 1a 3e a3 ca 79 be 53 31 52 bf 3c fe 09 be
       0.15102977 -0.24393706 -0.8210651 -0.13475889
000260 12 77 af bd a6 a3 0d bf cc df 28 bf e7 2b 16 bd
       -0.08567633 -0.5532783 -0.65966487 -0.036662962
000270 22 3e 0b bf 73 33 13 bf e5 40 a7 be 4a 18 5f be
       -0.5439168 -0.5750038 -0.32666698 -0.2178661
000280 df dd c5 3d 5c b9 06 bf e7 8b 72 bd 88 b5 d2 be
       0.09661459 -0.52626586 -0.059215453 -0.41154122
000290 d3 83 20 be 44 ab c7 bc 27 91 3c be eb 32 ac 3b
       -0.15675287 -0.024373658 -0.18414746 0.0052550933
0002a0 da 12 a9 be d1 d7 20 be 82 b3 65 be d7 77 8c bc
       -0.33022195 -0.15707327 -0.22431758 -0.017146988
0002b0 d5 c2 9b 3e 31 29 1d bf e8 3c ed be ef ed 08 bf
       0.30422083 -0.6139098 -0.4633553 -0.5348806
0002c0 35 11 08 bf 54 ff 89 be a7 cb c0 be 88 8c 21 be
       -0.53151256 -0.26952612 -0.37655374 -0.15776265
0002d0 14 83 76 3d e5 b2 ca be 99 d1 13 be e3 ec 39 bf
       0.0601836 -0.3958961 -0.14435424 -0.72627085
0002e0 b8 6f 20 3e ee 74 4b be f0 96 05 bf 48 62 01 bf
       0.15667617 -0.19868824 -0.5218344 -0.5054059
0002f0 4b 77 8f be fe 93 16 bc b4 09 2f be 08 38 8a 3d
       -0.280207 -0.0091905575 -0.17093545 0.06748968
000300 2b 28 1f bf cb 38 76 be ec 54 25 be 56 c6 96 be
       -0.62170666 -0.24045102 -0.16145676 -0.29448193
000310 90 4c 58 3c b0 2c a5 be 43 ee 20 be 33 b4 20 3e
       0.013201848 -0.32260656 -0.1571589 0.1569374
000320 61 46 57 bf 8d 63 1b be 90 aa ba 3d dc 0c 25 3e
       -0.84091765 -0.15174694 0.091145635 0.16118187
000330 32 12 17 be 38 63 3d be c0 8d 86 be a4 ba ee 3b
       -0.14753035 -0.1849488 -0.26280022 0.007285433
000340 ee 46 fe bd b1 6c 40 3e 79 6d bd be b1 7e c1 3c
       -0.124158725 0.18791462 -0.36997584 0.023619981
000350 81 19 b9 bd 93 78 7b be 47 21 d0 3d c2 b8 37 3b
       -0.090380676 -0.24557714 0.10162597 0.0028033708
000360 a0 a9 30 bf 2b 58 94 bf ce b6 fe be c4 17 f1 be
       -0.6900883 -1.1589407 -0.49748844 -0.47088444
000370 d0 9b b4 be e7 69 0c bf fe 88 15 bf 52 1d 85 be
       -0.35275126 -0.54849094 -0.5841216 -0.25998932
000380 25 ee 01 be 7a 49 1d 3d 95 ee a6 be 10 67 ea be
       -0.12688501 0.03840015 -0.326039 -0.45781755
000390 1e 15 ed bd 7d dc 27 bd e8 b2 50 3e 96 15 20 bf
       -0.115762934 -0.04098176 0.20380747 -0.6253294
0003a0 c3 3b e1 bd 7a 85 b4 be 7d b9 c6 be 88 50 f0 3d
       -0.10997727 -0.35258085 -0.3881339 0.1173411
0003b0 42 3d 49 be e1 a3 e3 3b 26 67 e2 bc d4 10 69 be
       -0.19652274 0.006947026 -0.027637076 -0.22760326
0003c0 5f ca ae 3d b7 2d ab bd d3 d7 a0 3d 72 c5 f4 be
       0.08534693 -0.08358329 0.07853665 -0.4780689
0003d0 ba 63 99 3d 45 de 7a 3e 83 71 c1 3d 84 40 23 be
       0.074897245 0.24498852 0.09445479 -0.1594258
0003e0 f7 5a b7 be 19 2c 30 bf 9f 43 77 be 6e e5 bb be
       -0.35811588 -0.6881729 -0.24146889 -0.36698478
0003f0 f8 16 fe be c5 d5 22 3e 1a 56 0d bb 3a e3 b0 3a
       -0.496269 0.15901859 -0.0021566213 0.0013495453

fc2.weight f4 [128, 256]
000000 ff c0 e2 3d 88 e3 4c be e5 fe 8c bd 1c a1 5e 3d
       0.11071967 -0.20008671 -0.06884555 0.054352865
000010 ed 33 9a 3d c6 88 b6 3d da c8 b6 3d 2b 99 99 3e
       0.07529435 0.08912806 0.08925028 0.2999967
000020 7f 63 e2 3d 5a 63 40 bd 84 3a 2e be 6e 3e 48 3f
       0.110541336 -0.04696975 -0.1701451 0.7822026
000030 64 c8 a2 3e fe 75 85 3c 44 aa 77 be 6c e3 ad 3d
       0.3179351 0.016291615 -0.24186045 0.08490643
000040 ef 26 7b 3d 56 67 f7 3e 4f 71 d3 3e 80 09 58 3c
       0.061316427 0.48321027 0.41297385 0.013185859
000050 10 db a1 3d 6d 6f 1d 3e e5 fc b7 3d f9 fc 0c be
       0.07903111 0.15374537 0.08983783 -0.13768376
000060 78 ac fe 3d 19 a8 a2 bd ca 88 7e bc 25 36 8f bd
       0.124352396 -0.07942218 -0.015535543 -0.06992749
000070 87 ab ac 3e 0e c4 65 bc 8d a0 9b bd ec 63 f5 bc
       0.33724615 -0.014023794 -0.07598982 -0.029954873
000080 b7 b3 37 be c5 92 c1 be 7c 13 8d 3b 1a ce 6a 3e
       -0.1793965 -0.3780729 0.0043053012 0.22930184
000090 4a a4 b5 3c 4e 6b 36 bf 3b a7 d2 bf 5b 72 9a 3e
       0.022173066 -0.71257484 -1.6457285 0.3016537
0000a0 ce 6f ad 3e c6 27 42 3c 22 ef 0c 3e a7 48 28 3f
       0.33874363 0.011850303 0.13763097 0.6573586
0000b0 d1 24 e8 3d 9f 51 2c be 87 d7 a8 3e 42 6b 5c bd
       0.11335147 -0.16828011 0.32976934 -0.053813227
0000c0 f0 0c 30 3d 03 16 8d 3d 75 07 3e bd 93 1d 72 bd
       0.04298109 0.06888964 -0.04639383 -0.059110235
0000d0 4e cc 57 be f0 60 08 bc 07 99 0c 3e e3 16 b5 be
       -0.2107403 -0.008323893 0.1373025 -0.35369024
0000e0 70 76 8f 3e 37 6f 83 3f 62 2e 82 3d 3e ce 04 be
       0.28020048 1.0268315 0.06356503 -0.129693
0000f0 9a f3 a2 3d e2 72 8b 3d 87 a8 bb 3e 47 da 07 bd
       0.079566196 0.068090215 0.36652014 -0.03316715
000100 b7 66 8f 3e 65 42 a2 bb 7e 5d ac 3d 06 df 3e 3e
       0.28008053 -0.0049517625 0.0841627 0.18639764
000110 ec d6 2f 3e 1e b8 4e 3e 7d 5a 32 3d ae d1 a0 3e
       0.1717183 0.20187423 0.043543328 0.31409973
000120 c0 3c 82 3d bc ba 49 bf 39 ba 4f 3e 13 c5 01 be
       0.063592434 -0.7880056 0.20285882 -0.12672834
000130 e2 dd 14 be 3c 35 b6 3d 48 ec 81 3d 18 22 61 bd
       -0.14537767 0.088968724 0.06343895 -0.054964155
000140 14 d6 84 3e 48 97 a1 be 09 7b a5 bd 3c a1 23 be
       0.2594458 -0.3156073 -0.08080108 -0.15979475
000150 25 7c 1b be 78 9d 9a bd 78 35 ab be d7 12 d3 bd
       -0.15184076 -0.07549566 -0.3343923 -0.10306328
000160 44 4a c9 bc a7 12 37 3e 96 8f 4e bd ab ff 11 be
       -0.024571545 0.17878209 -0.050429903 -0.14257686
000170 21 98 bf 3d 38 ee 94 bd 86 cb 50 3e fc ad ba bd
       0.09355188 -0.07271999 0.20390138 -0.09115216
000180 d7 d2 aa bc 63 dd 0f 3f 41 e1 89 3e 87 2e 0d 3d
       -0.02085249 0.56197184 0.26929668 0.0344682
000190 51 64 0b be 2f fb 2c 3d 3c db 15 be cb ba bb bd
       -0.13612486 0.042231735 -0.14634413 -0.09166487
0001a0 97 33 b1 be 4b f7 d8 3e 1c 42 6b 3e 85 0f 72 3e
       -0.34609672 0.4237617 0.22974437 0.23638733
0001b0 2d 55 17 bf 37 53 04 3e df 31 65 be a0 13 5e 3d
       -0.5911434 0.12922369 -0.22382306 0.054217935
0001c0 aa 8a fd 3d 9a 38 6b 3e d1 be f8 3d 35 c0 6e bd
       0.12379964 0.2297081 0.1214577 -0.05828877
0001d0 6c dd 3b be a2 19 a4 be 81 a8 b8 bc 2f a9 7b 3d
       -0.18346184 -0.32050806 -0.022541286 0.061440643
0001e0 2b 7d 2c 3f d2 4e b1 bd be 8d 92 3e 9e 06 ac bd
       0.6737849 -0.08657612 0.28623766 -0.083997
0001f0 9c 5e 06 3e 25 5e 9c 3c 00 e1 46 bd 6f 67 50 3e
       0.13122028 0.01908786 -0.04855442 0.20351957
000200 34 2b 7a 3e ce 55 97 be c3 ad 6a bd fc b3 9b bd
       0.24430543 -0.2955765 -0.05729462 -0.07602689
000210 ee 60 c0 3d 52 c0 b0 bf db 17 4d bd df b3 98 bd
       0.09393488 -1.3808692 -0.05007158 -0.07456183
000220 32 49 86 3e 3b ae a1 bd 06 a5 61 bf b5 32 65 be
       0.2622772 -0.0789456 -0.8814243 -0.22382624
000230 5e 49 31 be 9b fb 00 be bd e8 66 be a7 28 00 3e
       -0.17313144 -0.1259598 -0.2254972 0.12515508
000240 1b 8d b8 bd 7a df 35 3e 5b 66 81 bd 98 f2 29 3d
       -0.09011289 0.17761031 -0.06318351 0.04149112
000250 1c 70 3d 3d e2 73 b1 bc 49 f6 3d 3f ad 0d f3 3c
       0.046249494 -0.021661703 0.74203926 0.029669607
000260 53 b4 f2 bf bb d7 3b 3e 8a 35 c0 3e 9d f3 81 3e
       -1.896128 0.18344013 0.37540847 0.25381175
000270 17 22 6f 3e a3 2a 67 3c 16 31 ca 3d 9e aa 1f 3e
       0.23352848 0.0141092865 0.09872644 0.15592429
000280 25 e4 49 bd 22 21 8f 3e 87 23 c6 be af 70 b0 3e
       -0.04928984 0.27954966 -0.3869898 0.3446097
000290 d6 5b cb bf 2e a9 92 bd 3e 25 4d 3e 97 67 2a 3e
       -1.5887401 -0.07161175 0.20033738 0.16641079
0002a0 1a cd 91 bd 98 92 7a bf 67 d5 9a bd f8 ce e8 bd
       -0.07119198 -0.97879934 -0.075602345 -0.11367601
0002b0 1a d2 80 3e 7e 76 89 3e 60 7b eb 3c c4 4c 69 3f
       0.25160295 0.26848215 0.028745353 0.9113276
0002c0 bd 57 0e 3f ce ef 6b 3b 9e 9e 03 3f 73 b9 4c 3e
       0.5560263 0.003600109 0.51413906 0.19992618
0002d0 ba b3 86 3e 36 ac 07 be 34 6b 85 3d cd 69 b5 3c
       0.26308995 -0.13249287 0.06514588 0.022145176
0002e0 5e 6e 3d 3e aa 19 37 bd 3f 27 2f 3c 5f 7a d1 3e
       0.18499133 -0.04470221 0.010690509 0.40913674
0002f0 e7 9b 16 bd b5 1e af 3d cc 74 6f 3e da ce 68 3d
       -0.036769774 0.08550779 0.23384398 0.056837894
000300 80 fe d7 be 7e 18 77 3d 74 54 31 3e d9 83 ce bd
       -0.42186356 0.060326092 0.17317373 -0.10083742
000310 ae 26 af 3c 9e 06 cd bc cc 82 4f be 9d 21 9a 3d
       0.021380749 -0.02502757 -0.20264739 0.075259425
000320 6d 97 43 3f 6d 7a d8 3d 04 e4 a9 3e 6a d4 1f be
       0.7640293 0.10570226 0.33181775 -0.15608373
000330 00 b6 2b 3e a0 97 6e bc ff da 47 be 12 6d 02 bf
       0.16768646 -0.014562517 -0.19517134 -0.5094768
000340 da 4b e2 3c 7f d8 64 3e 13 54 81 be 53 12 08 bd
       0.02762406 0.22348212 -0.25259456 -0.0332206
000350 98 3f 5a be 42 b5 d3 bc 23 21 88 3e fe 8f b0 3d
       -0.21313322 -0.025843266 0.2658778 0.08621214
000360 ec bb 63 3e 68 6f 36 3f 4f bc d2 3b 77 67 55 bf
       0.22239655 0.7126374 0.0064311395 -0.83361
000370 e6 24 43 be 95 97 b7 bc e7 a2 86 3e 78 17 1a 3e
       -0.19057044 -0.022411147 0.2629616 0.15048015
000380 1c 28 8f 3d e2 50 d9 3d fa 43 9b be 32 12 e5 be
       0.06990072 0.1061113 -0.303253 -0.44740444
000390 1a 71 2c 3d 82 5a d6 3c 32 2b 82 3e 37 cd 9e be
       0.04210005 0.026166204 0.2542358 -0.31015942
0003a0 e2 1d 00 be 85 1f d4 bd b0 5f 99 be 6a b2 12 bd
       -0.125114 -0.103575744 -0.29955816 -0.03581468
0003b0 9f 96 39 3b c7 04 8a bd b3 6e 28 3e 1c 57 f3 bc
       0.0028318537 -0.067391925 0.16448478 -0.029704623
0003c0 4d 55 ec bd b6 8c 4c 3d b2 8f 9e 3e 35 37 54 3e
       -0.11539707 0.04993888 0.30969006 0.20724185
0003d0 9e fb 36 be 2a 27 eb 3d d9 d6 8d bf 8a c8 60 be
       -0.17869422 0.11482079 -1.1081191 -0.219515
0003e0 80 45 8b 3e 57 83 98 3d db d3 39 3f d3 63 fd be
       0.27201462 0.07446926 0.7258889 -0.49490222
0003f0 56 e7 2d 3f df c1 8a 3c a5 28 47 bd 8a 29 8f 3e
       0.67931116 0.016938148 -0.048622746 0.2796138

fc2.bias f4 [128]
000000 28 01 13 40 87 67 12 40 bf 11 11 40 2e 52 10 40
       2.2969456 2.2875688 2.2667081 2.2550159
000010 6f c7 18 40 d7 5f 09 40 ef 22 d2 bd 00 81 0d 40
       2.3871725 2.1464746 -0.10260569 2.2109985
000020 c7 4a 13 40 4e 65 93 bd 30 43 11 40 1e ea 22 be
       2.301439 -0.07197057 2.2697258 -0.15909621
000030 80 fc 08 40 f5 63 62 3f 4d d4 0f 40 75 64 0b 40
       2.1404114 0.8843377 2.2473328 2.1780064
000040 94 e1 d2 bd 1b 81 10 40 79 1d 3c 3f fe 90 0b 40
       -0.10296932 2.25788 0.7348247 2.1807246
000050 60 54 16 40 ea 88 0e 40 c7 52 0d 40 42 fe d6 bd
       2.3488998 2.2271066 2.2081773 -0.104977146
000060 01 56 f8 3f 52 e5 0f 40 06 32 10 40 40 7e b3 3e
       1.9401246 2.2483716 2.2530532 0.3505726
000070 3f 3f 61 3f 87 d1 14 3e cf 1e 0f 40 ec 82 c9 bd
       0.8798713 0.14533053 2.2362554 -0.098394245
000080 5c 4f 11 40 2a 29 17 40 10 df 11 40 80 0d e0 bd
       2.2704687 2.3618875 2.2792397 -0.10940075
000090 7f c7 cf bd d3 38 15 40 12 46 0b 40 e3 39 0e 40
       -0.10145473 2.3315933 2.1761518 2.2222831
0000a0 64 e4 8d 3f a6 5b 0d 40 88 0f 1d 3f 0a 5f 13 40
       1.1085324 2.2087188 0.61351824 2.3026757
0000b0 3d 45 7b 3f 3c ad 6b 3f 20 43 f0 bd ff ac c3 3f
       0.98152524 0.9206121 -0.11731553 1.5287169
0000c0 0c f7 1b 3f 36 08 b6 3f 2c 6c 1b be 99 0e 42 3e
       0.6092384 1.4221256 -0.15177983 0.18950881
0000d0 73 7d fb 3f e4 9c 13 40 4e 89 0e 40 0d c3 61 be
       1.9647659 2.3064508 2.2271304 -0.22047062
0000e0 cc 01 fd bd f7 68 ee 3f c7 9b 12 40 9f 09 af bd
       -0.12353858 1.8625783 2.290758 -0.08546757
0000f0 78 cc 14 40 96 96 0a 40 df 75 13 40 fb 15 16 40
       2.3249798 2.165441 2.3040693 2.3450916
000100 77 a1 cc bd 8e 72 17 40 f3 60 0b 40 d8 3b a0 3f
       -0.099917345 2.3663669 2.1777923 1.2518263
000110 7a f2 11 40 d9 e3 e9 bd 0b 6e 1b 40 a0 e6 0c 40
       2.2804246 -0.114204116 2.4285915 2.2015762
000120 64 cf 11 40 0c 57 0e 40 d9 b5 df bd 88 ab 00 be
       2.278283 2.224063 -0.109233566 -0.12565434
000130 31 be 16 40 cd d8 80 3f 73 03 0d 40 77 3b c3 bd
       2.3553584 1.0066162 2.2033355 -0.095328264
000140 37 78 17 40 ce 29 45 bd 05 80 b2 bd 06 cd 1e be
       2.3667123 -0.04813557 -0.08715824 -0.15507898
000150 2d 69 e6 3e f7 2c 42 be 42 05 2a 3f 64 01 64 bd
       0.45002118 -0.18962465 0.6641427 -0.05566539
000160 a4 8e 6d bd 04 d9 05 40 66 76 4c be 8c 8f 12 40
       -0.05799736 2.0913706 -0.1996704 2.2900114
000170 ad 21 bb bd 6c d0 2f 3f b6 61 c1 bd b7 e1 0f 40
       -0.091372825 0.686774 -0.09442465 2.2481515
000180 d7 57 18 40 20 4d 16 40 36 13 0a 40 f1 2d f9 bd
       2.3803613 2.3484573 2.1574225 -0.12166966
000190 d0 a7 cf 3e 98 25 02 40 94 2c a1 bd 29 cc fe 3f
       0.40557718 2.0335445 -0.07869831 1.9906055
0001a0 fb 85 14 40 3a 0b 07 40 80 76 11 40 dd c4 37 3f
       2.3206775 2.1100602 2.2728577 0.71784765
0001b0 2a 15 09 40 e1 68 05 40 27 ef 07 be b8 b8 1c be
       2.1419168 2.0845263 -0.13274823 -0.1530484
0001c0 d7 fe 02 40 45 e6 10 40 be ff 0b 40 d1 e7 9e be
       2.0468042 2.2640545 2.1874843 -0.31036237
0001d0 89 89 1b 40 07 9c 08 40 74 fd 0c be 02 50 17 40
       2.4302695 2.1345232 -0.1376856 2.3642583
0001e0 a6 fe 11 40 63 38 12 40 91 ff 09 3f 57 2c 01 40
       2.2811675 2.2846916 0.5390559 2.0183313
0001f0 e5 37 11 40 24 79 a3 bd 32 c7 13 40 86 87 00 40
       2.2690365 -0.0798209 2.309033 2.0082717

fc3.weight f4 [64, 128]
000000 61 f0 08 3e 92 b3 01 3e 64 b8 8c bd c6 31 97 3d
       0.13372947 0.12666157 -0.06871107 0.073825404
000010 0d 38 07 3e 89 4d 3e bd 77 cc 6f ba f1 18 cb 3e
       0.13204975 -0.046460662 -0.0009147594 0.39667466
000020 35 2f 87 3e a6 ad 82 3d 71 cf 0b 3e b3 0f fb bd
       0.26403204 0.06380777 0.13653351 -0.12258854
000030 5f d2 f1 3c 0a 02 e6 bc d1 dc f0 bc bb 3d 3e 3c
       0.029519258 -0.028077144 -0.029402168 0.011611397
000040 65 e4 c6 bc f7 54 77 3e 66 3e 15 be 09 02 a5 bd
       -0.024278829 0.24153505 -0.14574584 -0.08057029
000050 1d 04 8e bd a0 69 df 3d 7f 85 a2 3e 11 cd 93 bc
       -0.06934378 0.10908818 0.31742474 -0.01804212
000060 67 45 4f bc 86 87 ef bd a6 57 0a 3e b1 61 be be
       -0.012650824 -0.11695771 0.13509998 -0.37183908
000070 d2 0f c6 bf f7 7b af be 6d 3c 96 3e 44 10 5e 3d
       -1.5473578 -0.34274265 0.29342976 0.05421473
000080 1f eb 88 3e cb 07 57 3e dc e5 b9 bd 0c 03 b7 3c
       0.26741883 0.20999067 -0.09077045 0.02234032
000090 62 2f 97 bd d7 7a 37 3e d4 65 d6 3c 41 1c 70 3e
       -0.073820844 0.17917953 0.026171602 0.23448278
0000a0 02 9f e3 bf f5 ee 5b 3e 06 08 aa bf ca dd b5 bd
       -1.77829 0.21477874 -1.3283699 -0.088801935
0000b0 24 fa 00 c0 66 6e ae bf 2d 16 0c bc a8 81 7b 3e
       -2.0152674 -1.3627441 -0.008550209 0.24561179
0000c0 bb 42 0e 3a 95 d9 3a 3e 37 2f 3e bd 6a 38 2a 3e
       0.0005426814 0.18247063 -0.046431746 0.16623083
0000d0 ff 95 ef 3d 55 5b 7f 3e 86 76 1d bd c7 c2 ef 3d
       0.11698531 0.24937184 -0.03844311 0.11707073
0000e0 3a 04 f2 bc 09 bf 7c 3e c3 0e 2d be 49 2d a7 bc
       -0.029543031 0.24682249 -0.16900162 -0.020407336
0000f0 b2 85 4c 3e 25 5f 1e 3e c2 e0 34 be e9 ea 15 be
       0.19972876 0.15465982 -0.17663863 -0.14640392
000100 9c 93 20 bb 42 8f b2 3e 08 ac 5f 3e 3a 7c c7 bf
       -0.0024502045 0.34874922 0.21842968 -1.5584786
000110 db 16 87 bd 66 ed b3 bc 42 77 b2 bd e1 f0 ee 3d
       -0.06596156 -0.021963786 -0.08714153 0.11667038
000120 3a 31 76 3d c9 79 25 3d 63 5f 3e bc 96 7d 0e 3e
       0.06010554 0.040399347 -0.011619422 0.13915095
000130 4e b2 73 3e 0d aa 13 3e 1d 88 b2 3d 62 94 59 3c
       0.23798487 0.14420338 0.08717368 0.013280006
000140 91 0d d5 3d 86 1f b9 bd 37 4b 01 bd c1 99 43 be
       0.10402978 -0.09039216 -0.03156587 -0.19101621
000150 1a 24 e3 3d 28 ce 50 bd f0 bd 98 bf 02 24 70 3d
       0.1109087 -0.050977856 -1.1932964 0.05862809
000160 b8 cd 17 3d c4 cb 14 bc 41 02 84 3c 26 6c 12 3e
       0.037061423 -0.009081785 0.016114356 0.14299068
000170 03 dd b5 bd 0b 18 38 bf 99 d8 42 3d c7 4d c1 3d
       -0.08880045 -0.71911687 0.047569845 0.09438663
000180 f9 ad 53 3e dd a3 5b 3e a4 76 a1 3d a1 6a 41 bd
       0.20671834 0.21449228 0.07883957 -0.04722083
000190 f3 49 0e 3e c2 81 a5 3d 29 52 b7 bd 48 ce a0 3d
       0.13895397 0.0808139 -0.08951218 0.07851845
0001a0 2c cd 1b 3d 09 01 86 bc 87 70 a6 3e 60 b7 a0 bf
       0.038037464 -0.016357915 0.32507727 -1.2555962
0001b0 a6 e1 f4 bd 87 59 49 3d 13 81 1e 3d 06 9a 63 ba
       -0.119571015 0.049157646 0.038697314 -0.0008682314
0001c0 46 f1 8b bc c9 c4 b9 bd 05 bd 9f 3d e1 25 35 bd
       -0.017082822 -0.09070737 0.077997245 -0.044225577
0001d0 9a 33 ab 3d 9b ad d9 bc c4 cd d9 3c ac 1a 26 be
       0.083594516 -0.02657204 0.026587375 -0.16221112
0001e0 f5 61 3f 3e f8 8d cf 3d d8 c1 54 3e 51 5d fe 3d
       0.18689711 0.101345 0.2077707 0.124201424
0001f0 d6 6d 35 3e fe 0d 89 bc df 39 81 3b f9 98 03 3e
       0.1771768 -0.016730305 0.0039436664 0.12851323
000200 0f 72 31 3d aa e9 e5 bc da 77 0a be 53 f6 61 3c
       0.043321665 -0.028065521 -0.13522282 0.013791638
000210 52 53 8f 3b 12 cc a2 bd 25 e1 87 3c dd 2e d9 bc
       0.004373946 -0.079490796 0.01658685 -0.026511604
000220 f6 1c 7a 3c b8 0c 7a 3d 4b 16 c9 bd fa 3d ac bd
       0.015265694 0.061047286 -0.09818705 -0.084102586
000230 79 2b eb 3c f7 6a e8 bc 05 ba 17 3d b0 35 26 3c
       0.028707253 -0.028371317 0.037042636 0.010144636
000240 b5 87 53 bc ba b2 a5 bd d6 ac 87 bd 92 78 1f be
       -0.012910773 -0.0809073 -0.06624763 -0.15573338
000250 56 a0 0e 3d d3 28 ab bd 08 d1 66 bc 57 83 01 bd
       0.034820877 -0.08357396 -0.014087923 -0.031619396
000260 3e 73 24 bd d1 65 f5 bd 95 5e 04 be 29 06 f6 bc
       -0.040148966 -0.119823106 -0.12926705 -0.030032234
000270 b4 de c7 3c 1d 6b 58 3d 81 c4 3e 3d a0 25 78 bb
       0.024398185 0.052836526 0.04657412 -0.0037864223
000280 81 5f 92 3b 70 d9 e8 3c 8a 66 57 bd 41 32 95 3b
       0.0044669514 0.028423995 -0.052588023 0.00455311
000290 b5 c5 97 bd ad 73 c6 bd 1c a4 a1 3b 06 09 c3 bd
       -0.074107565 -0.09690032 0.0049328934 -0.095232055
0002a0 8e 57 a1 bd 39 55 0a bd 31 47 c8 bd 2a f5 36 bb
       -0.07878028 -0.03377268 -0.09779204 -0.0027917125
0002b0 ad c0 03 bd 08 42 21 3d ab 68 b5 3c f2 2b 58 3d
       -0.03216617 0.039369613 0.022144636 0.052776285
0002c0 46 60 b8 bc 1c 50 01 bd f5 b0 77 bc 30 de da bb
       -0.022506844 -0.03157054 -0.015117873 -0.006679319
0002d0 11 9c 99 bd 82 a0 a5 bd 83 8a a7 bd c0 fa c0 3b
       -0.075004704 -0.08087255 -0.08180716 0.0058892667
0002e0 ad 40 7c bd 19 96 06 be e1 fe 3e bd a8 00 10 bc
       -0.061585117 -0.13143195 -0.04662979 -0.008789219
0002f0 6e 86 1c 3a 6e 9a 09 3d 67 2c 28 bd fc 49 b9 bd
       0.00059709593 0.03359454 -0.04105797 -0.090473145
000300 b8 eb f9 3c 5a 50 6f bd d6 b0 12 bd 43 66 8f 3c
       0.030507907 -0.05842624 -0.035813175 0.017504817
000310 c6 4e 1a bd 84 96 90 bc 21 a1 4c 3c b8 83 45 be
       -0.03767278 -0.017649896 0.012489588 -0.19288528
000320 f9 06 a3 bd d7 f1 da bd a1 97 a3 bb 66 c5 46 3d
       -0.07960314 -0.106906585 -0.004992441 0.048528098
000330 c5 10 7e bd ea e2 db bd 87 b3 3f bd 00 88 1c bd
       -0.06202771 -0.1073664 -0.04680207 -0.038215637
000340 e4 32 97 bd 23 b9 ae bd f8 10 5b bd 36 00 bf 3c
       -0.073827535 -0.08531406 -0.05348298 0.02331553
000350 15 66 5f 3c fe ae e9 3d b4 f1 25 bd d4 d8 7a 3c
       0.013635178 0.1141033 -0.04051371 0.015310485
000360 82 40 41 bd 49 ee 03 bd ea 95 96 3d 0c d5 dc bd
       -0.04718066 -0.03220967 0.073528126 -0.10782823
000370 43 52 15 bb f7 c8 89 3d a3 79 41 bc d9 36 d1 bd
       -0.0022784628 0.06727784 -0.011808786 -0.102155395
000380 2a a6 bd 3a ce 2d a9 bd 9a da e6 3c fb d0 02 bd
       0.0014469076 -0.0826069 0.02818041 -0.03193758
000390 b4 0f 41 bd 2b 57 92 bd df 6e 5f 3d fc eb a6 3d
       -0.047134116 -0.07145532 0.054549094 0.08150479
0003a0 8a 61 cd bc f0 a5 73 bd 83 ac d6 bc c3 20 0d 3c
       -0.025070924 -0.059484422 -0.026205307 0.008613768
0003b0 c1 f5 00 bc 8a e0 0a bd c0 c3 c2 bb 4a 3a b0 bd
       -0.007871092 -0.033905543 -0.0059437454 -0.08604868
0003c0 81 4e de 3c 17 8a 70 bd fa 84 be 3d 7f d6 e5 bd
       0.027137043 -0.058725443 0.09302707 -0.112225525
0003d0 39 c1 95 bd b0 7f 37 bd 18 ef f9 bc 59 67 cd bc
       -0.07312245 -0.044799507 -0.030509517 -0.025073694
0003e0 dc 18 66 bd 8f 2a e2 bd 07 3b dd bd d0 f9 cf bd
       -0.05617605 -0.11043274 -0.10802274 -0.1015507
0003f0 16 6c 2b be 24 50 5c bd ed b9 c5 bc 2b 89 c4 bd
       -0.1674045 -0.053787366 -0.024136508 -0.09596475

fc3.bias f4 [64]
000000 05 e6 e7 40 a8 5d e1 bd 9b 1f ec 40 de e5 e5 40
       7.2468286 -0.11004192 7.378858 7.18431
000010 20 d9 54 be a8 6a 0a be 10 d8 ea 40 a1 ec 16 be
       -0.20785952 -0.13517249 7.338875 -0.14738704
000020 86 43 d0 bd 3e b4 d1 bd f7 41 ef 40 47 4f 5e 3d
       -0.10169129 -0.102394566 7.4768023 0.054274824
000030 3b c0 38 bd e5 cb 01 be d5 86 ec 40 17 c7 a2 be
       -0.0451052 -0.12675436 7.391459 -0.31792518
000040 10 ad ed 40 39 38 ee 40 31 0f 25 be 05 ef 48 3e
       7.427376 7.444363 -0.16119076 0.19622429
000050 48 32 f2 40 c9 00 96 be 10 20 0b be 17 4e ed 40
       7.568638 -0.29297474 -0.1358645 7.4157825
000060 c4 45 e9 bd b4 a0 e5 40 6f f3 21 3d cf 22 f3 40
       -0.1139026 7.175867 0.039538797 7.597999
000070 58 94 29 3e 36 0a da bd 48 d7 1b be 8c 26 34 3e
       0.16560495 -0.10646479 -0.15218842 0.1759283
000080 e1 22 21 be ce b5 ed 40 e6 4a ee 40 f9 5a f2 bd
       -0.15735961 7.428443 7.446643 -0.11833758
000090 ff 83 65 bd 95 eb 92 bc 13 e8 4f 3e f3 b9 16 be
       -0.056034084 -0.0179346 0.20303373 -0.14719371
0000a0 9f 1f 81 be 97 28 ef bd 39 70 f1 40 d6 98 96 3e
       -0.25219437 -0.11677664 7.544949 0.2941348
0000b0 56 98 a9 bc 8d 27 ea 40 92 e2 ef 40 a7 ad f7 bd
       -0.020702522 7.317328 7.4964075 -0.120936684
0000c0 87 a9 6c be 9e 54 eb 40 dd 83 ef 40 69 ad e6 40
       -0.23111545 7.3540792 7.4848466 7.208668
0000d0 ce ad f1 40 e4 0a 0f be 60 fc ea 40 a1 a8 1c 3b
       7.5524664 -0.13968998 7.3433075 0.0023904222
0000e0 ce 27 1c be 3b 32 ee 40 4a 88 ea 40 08 e6 a7 bd
       -0.1524956 7.4436316 7.329137 -0.08198172
0000f0 30 83 ce bb 80 e8 eb 40 e8 49 d5 bd e7 95 0d 3e
       -0.00630226 7.3721313 -0.10414487 0.13826714

fc4.weight f4 [1, 64]
000000 ed bf 8d 3e 34 57 c3 3c f0 46 ab 3e 33 da 90 3e
       0.2768549 0.023845293 0.3345256 0.28291473
000010 88 53 95 be 1a 22 29 ba 7b ae 9b 3e 81 9e 28 bb
       -0.29165292 -0.000645192 0.30406556 -0.0025729241
000020 e6 b0 63 38 09 01 ee 3b 2c 69 a5 3e 14 63 9e be
       5.4285767e-05 0.007263307 0.32306802 -0.30934966
000030 1d b5 10 bd 7d 7a 1d 3c c2 1c 9c 3e c9 80 1b 3d
       -0.035328973 0.009611723 0.3049069 0.037964616
000040 0a 00 b5 3e f2 29 a8 3e aa 95 0a 3b 22 1e 60 be
       0.35351592 0.32844502 0.0021146336 -0.21886495
000050 df 42 a0 3e 85 09 58 bd db 8f 6c 3e bb 2b 93 3e
       0.3130102 -0.052743454 0.23101752 0.287443
000060 bb 44 6e bc 37 aa 88 3e 66 0b 81 3e 4c 0b bc 3e
       -0.014542754 0.26692364 0.2520401 0.3672737
000070 3c 58 b9 3e 44 6d 3e bd a6 84 c3 bd 40 64 ab 3e
       0.3620013 -0.046490923 -0.09546785 0.33474922
000080 3b 62 ff 3c d8 08 a3 3e 85 32 97 3e 49 44 a3 bd
       0.03117477 0.31842685 0.2953073 -0.07972009
000090 f1 7e 8f be c6 80 71 be b4 12 02 bf e4 13 af bd
       -0.28026536 -0.2358428 -0.5080979 -0.08548716
0000a0 d9 94 05 be ec bd 86 bd 49 a2 a3 3e 3f 9c ee 3e
       -0.13045062 -0.065791935 0.3195975 0.4660358
0000b0 65 5c 90 be ed 33 93 3e e9 0b a6 3e 8a 96 20 be
       -0.2819549 0.28750554 0.32430962 -0.15682426
0000c0 54 9e f5 bd b9 59 a7 3e 03 b0 9b 3e c2 1a a1 3e
       -0.11993089 0.3268564 0.30407724 0.31465727
0000d0 19 23 aa 3e f4 83 3a bd a4 b3 98 3e 57 fd d7 bc
       0.33229902 -0.045535997 0.29824555 -0.026365919
0000e0 5e f2 2f be 95 e5 9a 3e 60 30 83 3e a2 a8 60 3c
       -0.171823 0.30253282 0.25622845 0.01371208
0000f0 21 e1 b8 be 7f 89 a3 3e 62 fe 5c 3d e7 88 93 3e
       -0.3610926 0.3194084 0.053953536 0.28815386
