models/critic_v2.pth (torch, 180312 bytes, 7 tensors)

fc1.weight f4 [256, 11]
0	0xbb9b9041	-0.004747421
1	0xbc1bebe8	-0.009516694
2	0xbc4b0fc6	-0.012393897
3	0x3d8fc9b5	0.070208944
4	0x3d707e68	0.0587143
5	0xbe90576a	-0.28191692
6	0xbce78713	-0.02826265
7	0xbe09b49d	-0.13447805
8	0xbd9ea8ea	-0.077470616
9	0xbf05097c	-0.51967597
10	0xbe83cf9a	-0.25744325
11	0xbe1ec244	-0.15503794
12	0xbd996e26	-0.07491712
13	0xbd9b2042	-0.07574512
14	0x3d5604eb	0.052250784
15	0x3d5421b7	0.051789965
16	0x3e0d3394	0.13789207
17	0xbe6493ce	-0.22322008
18	0x3e238b8b	0.159712
19	0x3e4d2cee	0.2003667
20	0x3e0bf276	0.1366671
21	0xbe16df7f	-0.14733694
22	0x3eb88e04	0.3604585
23	0x3cae6ca5	0.02129204
24	0x3de592d2	0.112096444
25	0x3f295d6c	0.66158175
26	0xbeca1507	-0.39469168
27	0x3f48f2eb	0.78495663
28	0xbe9a185f	-0.3009672
29	0xbf4b237b	-0.79351014
30	0xbf0d1c07	-0.5512089
31	0x3ed44354	0.41457617
32	0x3ee5d963	0.44892415
33	0x3ef71c09	0.48263577
34	0xbf572e5b	-0.8405511
35	0x3e538acb	0.20658414
36	0xbea11691	-0.3146253
37	0x3db637ea	0.088973835
38	0x3f240264	0.6406615
39	0x3f82e6f9	1.0226737
40	0xbdc55ba0	-0.09636617
41	0xbfc35772	-1.5261061
42	0x3f0dbb89	0.5536428
43	0x3d33b67f	0.043875214
44	0xbdecd044	-0.11563161
45	0xbce74620	-0.02823168
46	0xbe6afa5a	-0.22947064
47	0xbe2a62c8	-0.16639245
48	0xbe2055d3	-0.1565774
49	0xbe409fa2	-0.18810895
50	0xbe371d73	-0.17882328
51	0x3ccb3610	0.024806052
52	0xbc57d6a0	-0.013173729
53	0xbd937456	-0.07199924
54	0xbe909dc3	-0.28245363
55	0xbdb844d3	-0.08997502
56	0x3e413feb	0.18872039
57	0x3f395cd3	0.72407264
58	0x3f1e18cc	0.6175659
59	0xbef563a2	-0.47927576
60	0xbf2a5b91	-0.6654597
61	0x3f315e95	0.69284946
62	0x3d8f0396	0.06983106
63	0xbfa42784	-1.2824559
64	0xbe0ad9be	-0.13559625
65	0xbf2f980d	-0.68591386
66	0x3ebb47c8	0.36578202
67	0xbe13d177	-0.14435373
68	0x3ea237b6	0.3168313
69	0x3f245d3f	0.6420478
70	0x3e06b8d5	0.13156445
71	0xbf321746	-0.6956676
72	0x3f026558	0.5093589
73	0x3eedefea	0.46472102
74	0x3f0526cc	0.52012324
75	0xbf2690d8	-0.65064764
76	0xbed3bfd0	-0.4135728
77	0x3f0f4479	0.55963856
78	0x3f168b44	0.5880625
79	0xbdf85c03	-0.12126925
80	0x3e3d140e	0.18464682
81	0xbe091185	-0.1338559
82	0xbeeb93d6	-0.46011227
83	0x3f2098bf	0.6273307
84	0x3f16b905	0.5887607
85	0x3e3ea1d2	0.18616417
86	0xbed38775	-0.41314283
87	0xbd508ef4	-0.05091758
88	0x3dc74388	0.097296774
89	0x3e8b58b1	0.27216104
90	0xbf6ee32e	-0.933154
91	0xbe2dbc8d	-0.16966458
92	0x3f0e0660	0.5547848
93	0x3eac456c	0.33646715
94	0x3e657692	0.22408512
95	0x3e533ff7	0.2062987
96	0xbecf0d7a	-0.4043997
97	0xbeebc3b4	-0.46047747
98	0xbd42af52	-0.04753048
99	0x3e74b507	0.23897181
100	0xbf7b9270	-0.9827032
101	0x3f10dbf4	0.5658562
102	0x3f431488	0.76203203
103	0x3e336331	0.17518307
104	0xbf360cd4	-0.71113324
105	0x3f6d03a7	0.925837
106	0x3ebd5597	0.36979362
107	0x3e785eae	0.24254867
108	0xbf1b18cb	-0.60584706
109	0x3ea439f8	0.32075477
110	0x3cfc9a16	0.030835193
111	0xbbb24568	-0.005440403
112	0x3dc7541a	0.09732838
113	0xbde6103c	-0.11233565
114	0xbe6de510	-0.23231912
115	0xbe19a52b	-0.15004413
116	0xbe8aab01	-0.2708359
117	0x3db0c816	0.08631913
118	0xbdb56721	-0.08857561
119	0x3b374923	0.0027967177
120	0x3d78dd0d	0.060757685
121	0x3eb657bc	0.3561381
122	0xbddaeaab	-0.106892906
123	0xbd19fbd1	-0.037593666
124	0x3f12894d	0.57240754
125	0x3f004dea	0.5011889
126	0x3da1e5d4	0.07905164
127	0xbd2e371b	-0.04253302
128	0xbf67c28d	-0.90531236
129	0x3e19d807	0.15023814
130	0xbdb13d53	-0.08654275
131	0x3e889c1b	0.266816
132	0xbe00575e	-0.12533328
133	0xbed5041b	-0.41604695
134	0xbe5174c8	-0.20454705
135	0x3eecae1a	0.4622658
136	0x3f087570	0.53304195
137	0x3eb02cfa	0.34409314
138	0x3eb14829	0.34625366
139	0xbe52efd2	-0.20599297
140	0xbe532656	-0.20620093
141	0xbebb0992	-0.3653074
142	0x3c90b08a	0.017662305
143	0x3ebb7545	0.36612907
144	0xbdad0409	-0.08448035
145	0xbefadefc	-0.4899825
146	0x3e645dbd	0.22301383
147	0x3f941825	1.1569868
148	0xbf1b59d5	-0.6068395
149	0xbe95ddc8	-0.29270768
150	0xbe9cdac7	-0.30635664
151	0x3e9c7904	0.30561078
152	0x3e94cc39	0.2906206
153	0xbf9eab66	-1.2396057
154	0x3de155f9	0.11002726
155	0x3f222bb8	0.6334796
156	0x3cdbdde0	0.026839197
157	0xbead8169	-0.33887795
158	0xbfa8694d	-1.3157135
159	0x3f39bf60	0.7255764
160	0x3f1f1093	0.62134665
161	0xbf9e7043	-1.237801
162	0x3f21a9d8	0.63149786
163	0x3e2fc1ae	0.17163727
164	0xbf11c4dd	-0.56941015
165	0xbf48f842	-0.7850381
166	0x3e7aa275	0.24476035
167	0x3e7d6297	0.2474464
168	0x3ec75588	0.38932443
169	0x3f75f260	0.9607296
170	0xbf792c34	-0.97333074
171	0x3efc449c	0.49271095
172	0xbfa6e5d4	-1.3038888
173	0xbee74b31	-0.45174554
174	0x3f5ba5c4	0.85799813
175	0x3ee3feef	0.44530436
176	0xbeae29f5	-0.34016386
177	0xbfa76cbb	-1.3080057
178	0xbf4844f1	-0.78230196
179	0x3f25589a	0.6458832
180	0x3ee34458	0.4438808
181	0x3ee58975	0.44831434
182	0x3f39b198	0.7253661
183	0xbe0df67b	-0.13863556
184	0xba9d232d	-0.0011988633
185	0xbdab54c7	-0.08365779
186	0x3e7202ea	0.23633924
187	0x3edb3476	0.42813462
188	0xbf3cc3e9	-0.73736435
189	0x3e5778e4	0.2104221
190	0x3d09c978	0.0336394
191	0x3eeccf30	0.46251822
192	0x3f1f9929	0.6234308
193	0xbe425f1f	-0.18981598
194	0x3e9185ec	0.28422487
195	0xbdc6eaac	-0.09712729
196	0xbf4d697d	-0.8023909
197	0x3e8808ae	0.26569122
198	0x3ee9d36b	0.45669112
199	0x3e2b9834	0.1675728
200	0x3e666f21	0.2250333
201	0x3ea53bef	0.32272288
202	0xbf540b58	-0.8282981
203	0x3dbc1592	0.09183802
204	0x3eee9e6b	0.46605238
205	0x3eef6276	0.46754807
206	0x3f0143a7	0.50493854
207	0xbdf51835	-0.11967508
208	0x3eef0507	0.46683523
209	0xbe8237c4	-0.2543317
210	0xbf1ae551	-0.6050616
211	0x3e620bf4	0.22074872
212	0x3f355517	0.7083296
213	0x3e605cf8	0.21910465
214	0x3ec737e6	0.38909835
215	0x3e6967a2	0.22793439
216	0xbf3762e1	-0.7163525
217	0xbe9c363b	-0.30510125
218	0x3ed39b71	0.4132953
219	0x3e6a2537	0.22865759
220	0xbf2815ea	-0.6565844
221	0xbdea6795	-0.11445538
222	0x3efbebb7	0.49203274
223	0x3dd752f7	0.10513871
224	0x3f2fb84d	0.68640596
225	0x3f128129	0.5722833
226	0x3eddf6f1	0.43352464
227	0xbf3c0ce1	-0.7345715
228	0x3ea53cc1	0.32272914
229	0xbf23afd8	-0.6394019
230	0xbda318ca	-0.079637125
231	0xbe382329	-0.17982163
232	0x3f187a9c	0.5956209
233	0xbea5631f	-0.32302186
234	0x3f472449	0.7778974
235	0x3f1c7e6d	0.6113041
236	0xbf47965c	-0.77963805
237	0xbe91aff1	-0.28454545
238	0x3dbabe95	0.09118382
239	0xbf16bace	-0.5887879
240	0x3e787260	0.2426238
241	0xbd81ebb8	-0.06343788
242	0xbf879095	-1.0590998
243	0xbecbc8af	-0.39801547
244	0xbe60a6b1	-0.21938588
245	0x3d6ca298	0.05777225
246	0x3eea5032	0.4576431
247	0x3ea0b54e	0.31388324
248	0x3f280eed	0.65647775
249	0x3ef60e79	0.48057917
250	0xbcae1ba4	-0.021253414
251	0xbe8151af	-0.25257632
252	0xbd6a452c	-0.057194874
253	0xbdbd7e4f	-0.09252607
254	0x3e2ef913	0.17087202
255	0xbf93a6d9	-1.1535293

fc1.bias f4 [256]
0	0xbdf4339c	-0.11923906
1	0xbefb5c98	-0.4909408
2	0xbf45d631	-0.77279955
3	0xbedf7104	-0.43640912
4	0x3b5f6200	0.0034085512
5	0xbde7a6c7	-0.11311107
6	0xbf2fc4ca	-0.6865965
7	0xbee9bacf	-0.45650336
8	0xbd6b9b72	-0.05752129
9	0xbf00fd50	-0.50386524
10	0xbeb92d06	-0.36167163
11	0xbe9aab74	-0.30208933
12	0x3bd4703f	0.0064831073
13	0xbed6f80d	-0.41986123
14	0xbe432f35	-0.19060977
15	0xbeff29b6	-0.4983651
16	0x3f3ef3e3	0.7459089
17	0x3f120221	0.570345
18	0xbf962f09	-1.1733104
19	0xbe285b7b	-0.16441147
20	0xbee51071	-0.44739106
21	0xbec9c263	-0.39406118
22	0x3f4338c9	0.7625852
23	0x3e907164	0.2821151
24	0xbeec27e0	-0.46124172
25	0xbe5b7a48	-0.21433365
26	0xbe052c64	-0.13005215
27	0xbf62f0dc	-0.8864877
28	0x3f02ee99	0.5114532
29	0x3cb6cd1b	0.022314599
30	0x3ee020b9	0.43774965
31	0xbe0d5043	-0.13800149
32	0xbf445e53	-0.7670643
33	0x3f5f210b	0.87159795
34	0x3f0dc37e	0.5537642
35	0xbec3ef45	-0.38268486
36	0xbf29c6a9	-0.66318756
37	0x3f042846	0.5162395
38	0x3e933343	0.28750047
39	0x3e9294cf	0.28629157
40	0xbe48ccb5	-0.1960934
41	0xbe9b4e27	-0.30333063
42	0xbd4ccbff	-0.049999233
43	0x3f7fcf9a	0.9992615
44	0x3ea74faa	0.32677966
45	0x3f03497a	0.5128399
46	0xbe7b021c	-0.24512523
47	0x3e6b480a	0.229767
48	0xbe4ed9f7	-0.20200334
49	0xbf27ed00	-0.6559601
50	0xbf6b2a72	-0.9186164
51	0x3f3ec2c0	0.74515915
52	0x3e40bc33	0.18821792
53	0xbde92e5f	-0.11385798
54	0xbf8bc0c1	-1.0918199
55	0x3e3c8061	0.18408348
56	0xbe942671	-0.28935578
57	0xbe957890	-0.29193544
58	0x3daa995e	0.08330034
59	0x3eee85b6	0.46586388
60	0xbdfe6d19	-0.124231525
61	0xbed37cb8	-0.4130609
62	0x3d86bbb1	0.06578768
63	0x3dc54762	0.09632756
64	0xbee50a75	-0.4473454
65	0xbd7652bf	-0.060137507
66	0xbf3a93ee	-0.7288197
67	0x3e894c4d	0.26816025
68	0x3dacf58f	0.08445274
69	0xbf2b057e	-0.66805255
70	0xbe12fda0	-0.14354563
71	0x3f1aaa9a	0.6041657
72	0xbe42444c	-0.18971366
73	0xbe6bb662	-0.23018792
74	0xbef8664d	-0.4851555
75	0xbea93616	-0.33049077
76	0xbed84374	-0.42238963
77	0xbe7f3fc4	-0.24926668
78	0xbc2cbeed	-0.010543567
79	0xbdf4d490	-0.119546056
80	0x3e23b8c7	0.15988456
81	0x3f294742	0.66124356
82	0xbec0fe51	-0.37694028
83	0xbf0d24df	-0.55134386
84	0x3eb17746	0.3466131
85	0xbe1cb859	-0.15304698
86	0x3e440c04	0.19145209
87	0xbe6b30c4	-0.22967821
88	0x3f208da7	0.62716144
89	0xbe9cb3e2	-0.3060599
90	0x3f496632	0.7867156
91	0x3e2c0bf1	0.1680143
92	0xbf69de9f	-0.9135532
93	0x3efc7d2b	0.49314246
94	0xbeea226a	-0.4572938
95	0xbe6f527e	-0.23371312
96	0xbe14e8ef	-0.14541982
97	0xbdec3010	-0.11532605
98	0x3e851164	0.2598983
99	0xbf17cc08	-0.592957
100	0x3e07ca86	0.1326085
101	0x3f2161ba	0.63039744
102	0x3e0d1f54	0.13781482
103	0xbe96c1c7	-0.29444715
104	0x3e0b1bbd	0.135848
105	0xbf323d65	-0.6962493
106	0x3c7c06d5	0.015382488
107	0x3f3ae38b	0.73003453
108	0x3f05f4f3	0.5232689
109	0xbe9ab86c	-0.30218828
110	0x3e368702	0.17824939
111	0x3e93a0d6	0.28833646
112	0xbf318cc1	-0.693554
113	0x3f029bec	0.5101917
114	0x3f2c4446	0.67291677
115	0x3e75a6a6	0.23989353
116	0x3f2d1caa	0.6762186
117	0xbea7ed0e	-0.32798046
118	0xbeb23310	-0.34804583
119	0xbe7824dd	-0.24232812
120	0xbea236db	-0.31682476
121	0x3f5a714a	0.85329115
122	0x3ece4ca4	0.40292847
123	0x3ee55cea	0.4479745
124	0x3d3bd46a	0.04585687
125	0x3e264632	0.16237715
126	0x3e129a4f	0.14316677
127	0xbe736a52	-0.23771027
128	0x3d78827c	0.060671315
129	0x3f5004f1	0.8125754
130	0x3f1c7096	0.6110929
131	0xbf074493	-0.5283901
132	0xbecf1294	-0.4044386
133	0xbecae605	-0.39628616
134	0x3f749e40	0.9555397
135	0x3ef66840	0.4812641
136	0xbf4af65f	-0.7928218
137	0xbef4ae24	-0.4778911
138	0x3d2d41be	0.042299025
139	0x3da05089	0.07827861
140	0x3f28c173	0.6592018
141	0xbd300c0d	-0.042980243
142	0xbef66ce6	-0.48129958
143	0xbeb5501a	-0.35412675
144	0xbf56a566	-0.8384613
145	0x3d4bfb1a	0.049800016
146	0xbdb5dbe6	-0.08879833
147	0x3f41fa4c	0.7577255
148	0xbf502369	-0.8130403
149	0x3f44707a	0.76734126
150	0xbea5ca15	-0.3238074
151	0x3e6f4fbb	0.23370259
152	0x3e505f9d	0.20348974
153	0x3f027d69	0.5097261
154	0xbe83a0ee	-0.25708717
155	0xbe525136	-0.20538792
156	0xbdcb142a	-0.09915955
157	0xbf1792c6	-0.59208333
158	0xbf09eb40	-0.5387459
159	0xbed79973	-0.4210926
160	0xbf2e7934	-0.6815369
161	0xbf219459	-0.63116986
162	0x3efa4794	0.48882735
163	0x3ee96c0e	0.45590252
164	0xbd49574d	-0.049155522
165	0x3e2c3ad2	0.16819313
166	0xbf10bac8	-0.56535006
167	0x3eafeb6c	0.343593
168	0xbf45ca06	-0.7726139
169	0xbf27c7b4	-0.655391
170	0x3ddb37fe	0.10704039
171	0x3f119e31	0.56882006
172	0x3e581626	0.21102199
173	0x3f10898c	0.5645988
174	0xbef0b323	-0.4701167
175	0xbf8ca53b	-1.0987924
176	0xbf1e003e	-0.6171912
177	0xbf0051a2	-0.5012456
178	0xbf7ef3e1	-0.9959088
179	0xbed87a58	-0.4228084
180	0x3e867cfe	0.26267236
181	0xbe3ab4a9	-0.18232979
182	0x3a958f00	0.0011410415
183	0x3e98b2f3	0.29824027
184	0xbe950050	-0.291018
185	0xbf23976e	-0.6390294
186	0xbea3f6a9	-0.32024124
187	0xbe7af9d2	-0.24509361
188	0x3d444340	0.047915697
189	0xbebbeddf	-0.3670492
190	0x3f12ffac	0.57421374
191	0x3f0cc589	0.54988915
192	0xbe60bc61	-0.21946861
193	0xbe203093	-0.1564353
194	0x3f0f0379	0.55864674
195	0xbe9b8395	-0.30373827
196	0xbf54eb5b	-0.83171624
197	0x3e5fbcac	0.21849316
198	0xbe721905	-0.23642357
199	0x3ea3b915	0.31977144
200	0x3f2bb583	0.6707384
201	0xbcc5925c	-0.024117641
202	0xbf28aa53	-0.65884894
203	0x3d95a70d	0.07307253
204	0xbf3eba6e	-0.7450322
205	0xbf265f24	-0.64988923
206	0x3f4dd7f2	0.8040763
207	0xbea057ce	-0.3131699
208	0xbef576a9	-0.47942093
209	0xbf380733	-0.71885985
210	0x3e336958	0.17520654
211	0xbe894ec3	-0.26817903
212	0xbe8cfa3f	-0.27534673
213	0x3e972fb5	0.29528585
214	0xbf2106e1	-0.6290112
215	0x3f25c400	0.647522
216	0xbf01733f	-0.50566477
217	0x3ed08097	0.40723106
218	0x3edc36dc	0.43010604
219	0x3f566aef	0.8375692
220	0xbf1d68d7	-0.614881
221	0x3f6cd461	0.92511564
222	0x3e333fa8	0.17504752
223	0xbb94613a	-0.004528192
224	0xbed7bbfb	-0.42135605
225	0xbf05632c	-0.5210445
226	0xbf4d73c7	-0.8025479
227	0xbf128fe4	-0.5725081
228	0x3f5b46ca	0.8565489
229	0xbf8fbba5	-1.122914
230	0x3e9dc661	0.30815414
231	0xbdffbe3e	-0.12487458
232	0x3eae7681	0.34074786
233	0xbe8a1da3	-0.26975736
234	0x3eba8799	0.36431578
235	0xbf0b7e57	-0.54489654
236	0xbe8e4bc9	-0.27792194
237	0xbd71023d	-0.058840025
238	0xbe26665f	-0.16249989
239	0xbe9982d6	-0.29982632
240	0x3ed03cb4	0.40671313
241	0x3e7767bd	0.24160667
242	0xbf1efa33	-0.62100524
243	0xbd91971a	-0.071088985
244	0xbe5b312d	-0.21405478
245	0xbe202c74	-0.15641958
246	0xbeaee371	-0.341579
247	0x3f19c59e	0.60067165
248	0x3f10740f	0.5642709
249	0xbe80c725	-0.25151935
250	0xbf1769a8	-0.59145594
251	0xbe1116e5	-0.1416889
252	0x3f078787	0.52941173
253	0xbf8200f4	-1.0156541
254	0xbeeccf59	-0.46251944
255	0xbd59a37b	-0.053134423

fc2.weight f4 [128, 256]
0	0xbce93bfe	-0.02847099
1	0xbeafe146	-0.34351557
2	0x3e74afa8	0.23895133
3	0xbd2077b2	-0.03917665
4	0xbd3e2ce4	-0.04642953
5	0xbd97d62c	-0.07413897
6	0xbed92256	-0.4240901
7	0xbe26c7ed	-0.16287203
8	0x3eb4ad75	0.35288587
9	0xbf5b123a	-0.85574687
10	0xbdacda75	-0.08440105
11	0xbdfe1ddc	-0.12408039
12	0xbf2ed6ae	-0.68296325
13	0xbf060364	-0.52348924
14	0xbebf76d8	-0.37395358
15	0x3ec6469e	0.38725752
16	0xbe5a316d	-0.21307917
17	0xbf8364f2	-1.0265181
18	0xbe60c7d0	-0.21951222
19	0xbe8b44f8	-0.27201056
20	0xbebe205b	-0.3713406
21	0xbe1eca39	-0.1550683
22	0xbea387b5	-0.31939474
23	0x3f0a3c92	0.5399867
24	0xbedbee60	-0.42955303
25	0xbe0003fc	-0.1250152
26	0x3f2d0f87	0.6760182
27	0xbb82660d	-0.0039794506
28	0xbfce7b23	-1.6131328
29	0xbf161898	-0.5863128
30	0xbf004266	-0.50101316
31	0x3dbccddc	0.09218952
32	0xbf66f4b4	-0.9021714
33	0xbf69317c	-0.9109113
34	0xbf86bbe6	-1.0526092
35	0xbe368fb2	-0.17828253
36	0xbeae6dd6	-0.34068173
37	0x3d429eae	0.04751461
38	0xbf902b9a	-1.1263306
39	0xbe41d3fd	-0.18928523
40	0xbf1dc03b	-0.61621445
41	0xbc6d6260	-0.014488786
42	0x3f563628	0.83676386
43	0xbf59b59e	-0.8504275
44	0xbf8375ca	-1.0270321
45	0xbf41f792	-0.7576839
46	0xbd1e75a8	-0.038686424
47	0xbef23393	-0.47304973
48	0xbef1540e	-0.4713444
49	0xbd3c04a2	-0.045902856
50	0xbe26297b	-0.16226761
51	0x3ed3ec24	0.41391098
52	0xbf085126	-0.5324882
53	0xbee162dd	-0.4402074
54	0xbeef51d3	-0.46742114
55	0xbebdee4c	-0.3709587
56	0x3f624e2c	0.8840053
57	0xbd023457	-0.031788196
58	0x3f4108a0	0.75403786
59	0x3e6b1128	0.22955763
60	0xbf8d33cd	-1.1031433
61	0x3ebe9d62	0.3722945
62	0x3f366cbf	0.71259683
63	0xbf1242e0	-0.57133293
64	0xbef2f999	-0.47456053
65	0xbd1aab9a	-0.03776131
66	0xbf5e0864	-0.86731553
67	0xbfb39410	-1.402956
68	0xbf4160d8	-0.75538397
69	0x3eeef688	0.46672463
70	0x3e4c1393	0.19929342
71	0xbe1c9fa3	-0.15295272
72	0xbdefdd57	-0.11712139
73	0x3f54d427	0.8313622
74	0xbebfc020	-0.37451267
75	0x3ec03e13	0.3754736
76	0x3e1629f6	0.14664444
77	0xbb0d2560	-0.002153717
78	0xbfaa9688	-1.3327188
79	0xbccb2a47	-0.024800433
80	0xbf1efc90	-0.6210413
81	0xbf21b9b4	-0.63173985
82	0x3d5fc0ce	0.054627232
83	0xbefa9b3e	-0.48946565
84	0x3d4ea627	0.050451424
85	0xbe4f834e	-0.20264933
86	0xbf99efa6	-1.202626
87	0x3d22304a	0.039596833
88	0xbf4a85e9	-0.7911058
89	0x3ee23088	0.4417765
90	0xbf875829	-1.0573779
91	0xbf59918e	-0.84987724
92	0x3d187651	0.03722221
93	0x3e95e723	0.29277906
94	0x3d67f350	0.056628525
95	0x3e72edf6	0.23723587
96	0xbf35739a	-0.7087952
97	0x3e9a84f9	0.30179575
98	0xbf420926	-0.7579521
99	0xbf35a380	-0.70952606
100	0x3f0c07c1	0.5469933
101	0xbd42726a	-0.047472395
102	0xbd82fb96	-0.063956425
103	0xbeef1a5c	-0.46699798
104	0xbd7f4dd9	-0.0623301
105	0x3eb35bb9	0.35030916
106	0xbf14ebc5	-0.58172256
107	0xbe01a328	-0.12659895
108	0x3f0095e4	0.50228715
109	0xbdd309e5	-0.103046216
110	0x3e9b3531	0.3031402
111	0xbf2ad009	-0.66723686
112	0xbf4dde84	-0.80417657
113	0xbf9cf28d	-1.2261521
114	0x3f03002a	0.51172125
115	0xbf102984	-0.5631335
116	0xbfc75a62	-1.5574458
117	0x3f27fcb4	0.6561997
118	0x3f7369d1	0.9508334
119	0xbf1125d4	-0.56698346
120	0xbf249675	-0.6429208
121	0xbf8ceda2	-1.101002
122	0x3f5cf505	0.8631137
123	0xbf6c624e	-0.923375
124	0xbf5d780a	-0.8651129
125	0xbf769ea8	-0.9633584
126	0xbe60363f	-0.21895693
127	0xbcdb5b54	-0.026776947
128	0xbe75b5f5	-0.23995192
129	0xbd88e51a	-0.06684323
130	0x3f3b6345	0.7319835
131	0xbd0bcd43	-0.0341313
132	0xbf213348	-0.62968874
133	0xbef2c2ed	-0.47414342
134	0x3e43f3fc	0.19136041
135	0x3ec89945	0.39179435
136	0xbeb531dd	-0.35389605
137	0xbda1cb04	-0.0790005
138	0xbed6d095	-0.4195601
139	0x3f10977b	0.5648114
140	0xbf86e2ed	-1.0538002
141	0xbe61ced8	-0.22051561
142	0x3dd42677	0.10358899
143	0xbf4210d8	-0.7580695
144	0x3f3c9535	0.7366517
145	0xbef53395	-0.47890916
146	0xbf27b71a	-0.65513766
147	0xbec813f2	-0.39077717
148	0x3e94897f	0.2901115
149	0xbfb1ddf3	-1.3895859
150	0xbd8e2fe1	-0.06942726
151	0x3e086ea2	0.13323453
152	0xbf341505	-0.70344573
153	0x3dc5635f	0.09638094
154	0xbf103cd5	-0.5634282
155	0xbf17c817	-0.5928969
156	0xbe31dc91	-0.17369296
157	0xbf265b06	-0.6498264
158	0x3d2dd148	0.042435914
159	0xbe9a6af4	-0.30159724
160	0x3e50fbeb	0.20408599
161	0xbde7aa5a	-0.11311789
162	0xbf8da5d8	-1.1066236
163	0xbf76968d	-0.9632347
164	0x3e9c8db0	0.3057685
165	0xbf85e183	-1.0459446
166	0xbe864c82	-0.26230246
167	0xba26cc45	-0.0006362836
168	0x3a922170	0.0011148881
169	0xbefc4f33	-0.49279174
170	0xbd99cabd	-0.075093724
171	0xbe3ace6b	-0.18242805
172	0xbd1b19e9	-0.037866507
173	0xbf1179d1	-0.568265
174	0x3ec23f79	0.3793905
175	0x3c949305	0.01813651
176	0xbe300c6b	-0.17192237
177	0x3f1775c8	0.59164095
178	0xbd736f7e	-0.0594325
179	0xbeaa5dc4	-0.33274662
180	0x3e2eee51	0.17083098
181	0x3f336c16	0.700868
182	0xbc9af88c	-0.018917345
183	0x3f1cbd69	0.61226517
184	0x3e51f330	0.20502925
185	0xbccad623	-0.024760311
186	0x3d55ae6c	0.052168295
187	0xbdd09784	-0.10185149
188	0xbf2fca79	-0.68668324
189	0xbee5a36e	-0.4485125
190	0x3eed3d74	0.46335948
191	0x3db286a7	0.08717089
192	0x3e3c29dd	0.18375345
193	0xbd9046c5	-0.07044748
194	0xbd669de4	-0.05630292
195	0x3c1a5dc0	0.009421766
196	0xbeacd4c8	-0.3375609
197	0xbf925708	-1.143281
198	0xbf411040	-0.7541542
199	0xbfaa1e8f	-1.3290576
200	0xbf622c3a	-0.88348734
201	0xbdc42d37	-0.095789365
202	0x4008d6b5	2.1381047
203	0xbf92fb90	-1.1483021
204	0x3e2afec1	0.16698743
205	0xbf205bfd	-0.6264036
206	0xbfb885d6	-1.4415843
207	0x3d7e3906	0.0620661
208	0xbf0aa035	-0.54150707
209	0xbf0c8a94	-0.54898953
210	0x3ea215b2	0.31657177
211	0xbe97982c	-0.29608285
212	0x3f1a15e9	0.6018968
213	0x3f00961d	0.50229055
214	0xbe393775	-0.18087561
215	0xbdfdd978	-0.123949945
216	0xbe7ca773	-0.24673252
217	0x3ef30e43	0.47471818
218	0xbf8efede	-1.1171529
219	0xbe7cf28e	-0.24701902
220	0x3f26b0fb	0.651138
221	0x3da5923d	0.08084533
222	0xbf26db51	-0.651784
223	0xbc250f36	-0.010074427
224	0xbdf11d3e	-0.11773156
225	0x3f7f320e	0.9968575
226	0x3ec516a7	0.38493845
227	0xbea4a80f	-0.3215947
228	0xbe84bf3f	-0.2592716
229	0xbeb7f434	-0.359285
230	0xbf499314	-0.7874005
231	0x3d82a7c0	0.06379652
232	0xbd1bbaa8	-0.038019806
233	0xbf3e0b7b	-0.7423627
234	0x3f3073f0	0.68926907
235	0x3e4c337d	0.19941516
236	0xbe26fabd	-0.16306587
237	0x3ed39c59	0.4133022
238	0xbd6456c4	-0.05574681
239	0x3ee64008	0.44970727
240	0xbf7b8d4c	-0.98262477
241	0xbf810d05	-1.0082098
242	0xbe8cbc3b	-0.27487358
243	0xbf32a557	-0.6978354
244	0xbccff299	-0.025384234
245	0xbdf70772	-0.12061967
246	0xbdda942b	-0.10672792
247	0xbf1eb54d	-0.61995393
248	0x3eb893be	0.36050218
249	0x3e23b537	0.15987097
250	0xbeb56f7a	-0.35436612
251	0xbefe4ddd	-0.4966878
252	0xbf8081d2	-1.0039618
253	0xbf8498ee	-1.035917
254	0xbf0f7e14	-0.56051755
255	0x3de14ee4	0.11001375

fc2.bias f4 [128]
0	0x3ea3401c	0.3188485
1	0x3f04445c	0.5166681
2	0xbd073e6c	-0.033018515
3	0xbd3a832e	-0.04553526
4	0x3f36a1f1	0.7134085
5	0xbc07fc89	-0.008299955
6	0xbc63e648	-0.013909884
7	0xbd840af8	-0.064474046
8	0xbd476e60	-0.048689246
9	0x3bfd0e79	0.0077226725
10	0xbc8219da	-0.015881468
11	0xbd992a17	-0.07478731
12	0xbde3b5fb	-0.111186944
13	0xbe045e64	-0.12926632
14	0x3d8f11d5	0.06985823
15	0xbd358e37	-0.04432508
16	0x3f17b0be	0.5925406
17	0x3ebc8d39	0.36826494
18	0xbe87f69a	-0.2655533
19	0xbd83a10c	-0.06427202
20	0xbd271dd0	-0.040799916
21	0xbc29fa18	-0.010374568
22	0xbd94911c	-0.0725424
23	0xbd148895	-0.036263067
24	0xbdc06204	-0.09393695
25	0xba5da5ff	-0.00084552163
26	0xbdbfd088	-0.09365946
27	0xbcd77aba	-0.026303638
28	0xbd9638c2	-0.073350444
29	0x3e57c24a	0.21070209
30	0xbd939e26	-0.07207899
31	0xbdc75e2e	-0.0973476
32	0xbd934d28	-0.07192451
33	0x3ea58b85	0.32333007
34	0xbe74fe82	-0.23925212
35	0x3eab7b0f	0.33492324
36	0xbd93b27b	-0.07211777
37	0xbbc1303d	-0.005895643
38	0x3c860883	0.01636148
39	0x3e92328c	0.2855419
40	0xbc79e281	-0.015251757
41	0x3c81c59d	0.0158413
42	0x3f1efc90	0.6210413
43	0x3f23ee98	0.6403594
44	0x3f186ca6	0.59540784
45	0xbd4315cd	-0.047628213
46	0xbd4ded3f	-0.050275084
47	0x3d104377	0.03522059
48	0xbd8b8a65	-0.06813506
49	0x3f27da3b	0.6556737
50	0xbf55419b	-0.8330323
51	0x3e963b9d	0.29342356
52	0xbb5b109c	-0.0033426648
53	0xbdf5652a	-0.11982186
54	0xbcca469e	-0.024691876
55	0x3f0f1c63	0.5590269
56	0xbd341c0b	-0.043972056
57	0xbd34d584	-0.044148937
58	0xbce87893	-0.028377807
59	0x3ee0f9f2	0.43940693
60	0x3eb673f3	0.35635337
61	0xbd067a0b	-0.032831233
62	0xbdd8ea59	-0.10591573
63	0x3ec3ef05	0.38268295
64	0xbdcf50f9	-0.10122866
65	0xbd77f36c	-0.06053488
66	0x3f1c1458	0.6096854
67	0x3e2df907	0.16989528
68	0xbe1efc99	-0.15526046
69	0xbd5033de	-0.050830714
70	0x3babb0f1	0.005239599
71	0xbc87a036	-0.016555887
72	0xbdc1c8eb	-0.0946215
73	0xbd84f489	-0.06491954
74	0xbdbcdfda	-0.09222384
75	0xbd7d2734	-0.061804965
76	0x3ee3bbff	0.44479367
77	0x3f0f9e98	0.5610137
78	0x3af5149d	0.001869816
79	0xbd716d60	-0.0589422
80	0x3f15d78e	0.58532035
81	0xbe12e6bf	-0.14345835
82	0xbf43345a	-0.7625176
83	0x3f069c38	0.5258212
84	0xbd283e05	-0.04107477
85	0xbdc7c1bf	-0.09753751
86	0x3f190e8c	0.5978782
87	0xbddee84d	-0.108841516
88	0xbbccb1cc	-0.006246781
89	0x3e8a32aa	0.2699178
90	0xbeace5e8	-0.33769155
91	0xbdddbfd3	-0.10827603
92	0xbe8b616d	-0.27222767
93	0x3f2afb01	0.6678925
94	0x3e64cbf8	0.22343433
95	0xbd493ebc	-0.049132094
96	0xbd5213ae	-0.0512883
97	0xbd2a7b49	-0.04162148
98	0xbdb1e37c	-0.08685967
99	0x3f2583b6	0.646541
100	0xbe055281	-0.13019754
101	0xbdd8aafe	-0.10579489
102	0x3ee97273	0.4559513
103	0xbd1f7fbd	-0.03894018
104	0xbf0e85dd	-0.5567301
105	0x3d02b0ac	0.03190677
106	0xbe21a4d8	-0.15785539
107	0x3e60a2e3	0.21937136
108	0xbd2516eb	-0.04030506
109	0xbece7bd6	-0.40328854
110	0x3be6fb0e	0.007048971
111	0xbe006c93	-0.12541418
112	0xbc27b220	-0.010235339
113	0x3f065cb3	0.524852
114	0xbd883dac	-0.06652388
115	0xbd83846d	-0.064217426
116	0x3f1b400a	0.6064459
117	0x3f196849	0.5992475
118	0xbe4200fa	-0.18945685
119	0xbd560f50	-0.052260697
120	0xbbf1fd73	-0.00738495
121	0x3f1c6a41	0.6109963
122	0x3c703081	0.014660002
123	0xbefc0098	-0.49219203
124	0xb8d2b0f5	-0.00010046541
125	0x3eb76483	0.35818872
126	0xbd0643bf	-0.03277945
127	0xbda632a5	-0.081151284

fc3.weight f4 [64, 128]
0	0x3fc4c957	1.5373944
1	0x3ff49712	1.9108603
2	0xbce94e2c	-0.028479658
3	0xbd91e422	-0.07123591
4	0x40058840	2.086441
5	0xbdd497d2	-0.1038052
6	0x3d8f94fb	0.07010838
7	0xbb0a414e	-0.0021096054
8	0x3cdaf91e	0.026730116
9	0xbd31502d	-0.043289352
10	0xbd39eb09	-0.045390163
11	0x3cd52248	0.026017323
12	0xbda8a8b2	-0.08235301
13	0xbed888d2	-0.42291886
14	0x3e9034b5	0.28165212
15	0xbd159646	-0.036520265
16	0x3d1ec435	0.038761336
17	0x3fb1299e	1.3840826
18	0x3d945016	0.07241838
19	0x3d652da7	0.05595174
20	0x3da35259	0.07974691
21	0xbd274af6	-0.040842973
22	0xba6a8d5d	-0.00089474564
23	0xbd0bf6de	-0.034170978
24	0xbce507b8	-0.027957782
25	0xbd492266	-0.04910507
26	0xbd292749	-0.04129723
27	0xbe7dd639	-0.2478875
28	0xbd4f23f4	-0.050571397
29	0x3fd493b3	1.6607574
30	0xbd126c79	-0.03574798
31	0xbc5f8b6a	-0.013644079
32	0xbd01809f	-0.031616803
33	0x3f7d221c	0.9888017
34	0xbd185c9a	-0.037197687
35	0x3fe7b7ba	1.8102944
36	0x3da6ca46	0.08144049
37	0xbce96a4c	-0.02849307
38	0x3d99aad8	0.07503289
39	0xbc4c4d56	-0.01246961
40	0xbda7776c	-0.08177075
41	0x3d4c3267	0.049852755
42	0x4002bad1	2.0426524
43	0xbd5ff04a	-0.054672517
44	0x3d31241d	0.04324733
45	0x3da84058	0.082153976
46	0x3d08b7a5	0.033378262
47	0xbd88cfe6	-0.066802785
48	0x3d19a233	0.0375082
49	0x3cc090be	0.023506518
50	0xbe89f830	-0.26947165
51	0x3fada0ba	1.3564675
52	0xbd7e5575	-0.062093217
53	0xbd359eaa	-0.044340767
54	0x3d89e448	0.06732994
55	0xbd5d42ba	-0.054018714
56	0x3db28bd3	0.087180756
57	0x3d4539cb	0.04815082
58	0x3d491bb7	0.049098697
59	0x3f64b25d	0.8933466
60	0x3f7ded82	0.99190533
61	0x3d61b1cd	0.055101205
62	0x3d22e216	0.039766394
63	0x3f7b7560	0.98225975
64	0xbcde813b	-0.027161231
65	0xbcaf8853	-0.02142731
66	0x3da0ba10	0.078479886
67	0x3f5a6c67	0.8532166
68	0xbda7c548	-0.08191925
69	0xbc7ef42c	-0.015561145
70	0x3b6be1f4	0.0035992833
71	0xbd21e931	-0.03952903
72	0x3d85cc2a	0.06533082
73	0xbcd6358c	-0.02614858
74	0xbd0a219b	-0.033723455
75	0xbde3de10	-0.111263394
76	0x3d5ae7a6	0.053443573
77	0x3fd38e14	1.6527734
78	0xbd4f4cfa	-0.05061052
79	0x3d36d2ba	0.04463456
80	0xbdac78e5	-0.08421496
81	0x3e0373b2	0.12837103
82	0x3eb75535	0.35807195
83	0xbd8d6be6	-0.069053456
84	0x3d8f667b	0.070019685
85	0xbd900ab5	-0.07033292
86	0x3fdb9fef	1.7158183
87	0x3c342102	0.010994198
88	0xbd5bda5d	-0.053675044
89	0x3fc523ca	1.5401547
90	0xbee0f4a8	-0.43936658
91	0x3d9a7088	0.07540995
92	0xbd19db26	-0.03756251
93	0x3ddfdc7b	0.10930725
94	0xbe2f5416	-0.1712192
95	0xbd83202d	-0.064026214
96	0x3daad343	0.08341076
97	0xbc8d8e76	-0.017279845
98	0xbcccc49e	-0.024996098
99	0x4006a7d1	2.1039927
100	0xbd441d05	-0.047879238
101	0xbd17512d	-0.03694265
102	0xbddcfc0d	-0.10790262
103	0xbdca518c	-0.09878835
104	0x3bfe249a	0.007755828
105	0x3e932a0a	0.2874301
106	0xbe209132	-0.15680388
107	0x3d790796	0.06079825
108	0xbd9ef70a	-0.07761963
109	0x3f10b961	0.56532866
110	0x3cbcb8bc	0.023037307
111	0x3ccfebca	0.025380988
112	0xbd4fdb8a	-0.05074648
113	0x3d18a161	0.037263278
114	0xbd94acb7	-0.07259505
115	0x3d12ee23	0.035871636
116	0xbd8b4eb7	-0.06802123
117	0xba2d3f04	-0.00066088163
118	0xbdcabb0f	-0.0989896
119	0xbcbaae58	-0.022788212
120	0xbbd41e8a	-0.006473367
121	0x3feaabcd	1.833368
122	0xbcd29c8f	-0.025709419
123	0xbe717397	-0.2357925
124	0xbb78198f	-0.003785703
125	0x3fa66e09	1.300233
126	0x3d0a1ad0	0.033716977
127	0xbd7ef602	-0.06224633
128	0x3cfb6444	0.030687459
129	0xbd109c6d	-0.03530543
130	0x3c0529b8	0.008127622
131	0xbd1220e1	-0.035675887
132	0x3b314566	0.0027049421
133	0xbd874218	-0.06604403
134	0xbb9f7180	-0.004865825
135	0xbcd84a15	-0.026402513
136	0x3d16efa7	0.036849644
137	0x3d19b127	0.03752246
138	0x3d34f866	0.044182204
139	0xbd9c844b	-0.076424204
140	0x3c9e729b	0.019341758
141	0xbd861e18	-0.06548709
142	0xbb16588e	-0.0022940966
143	0x3d50093a	0.05079005
144	0xbce42acc	-0.027852438
145	0x3cfd976a	0.030955989
146	0xbdf6084f	-0.120133035
147	0x3c8e28c4	0.017353423
148	0x3d85f996	0.06541745
149	0xbcb98bc4	-0.022649653
150	0xbd8e3426	-0.0694354
151	0xbd940171	-0.072268374
152	0x3d080fb0	0.033218086
153	0x3da47967	0.08030968
154	0x3c2517d1	0.010076479
155	0xbdf169d6	-0.11787765
156	0x3d26694e	0.04062777
157	0xbbabb5a8	-0.005240161
158	0xbc48563c	-0.012227591
159	0x3db2bbc3	0.08727219
160	0xbd408602	-0.0470028
161	0xbc1f0580	-0.009705901
162	0xbcf0b59c	-0.029383473
163	0xbd324a6f	-0.043528017
164	0xbd39d5ef	-0.04537004
165	0xbd91e05b	-0.071228705
166	0xbdad1541	-0.084513195
167	0x3d4d2cfd	0.050091732
168	0xbd3c70cb	-0.046006005
169	0x3d8d9481	0.069130905
170	0xbcb0f3c5	-0.021600613
171	0xbdfccce0	-0.12343764
172	0x3c1f147c	0.009709474
173	0xbcc40c12	-0.023931537
174	0x3d37d89b	0.044884305
175	0xbd8b698b	-0.0680724
176	0xbd91e561	-0.07123829
177	0x3ca7bede	0.020476755
178	0x3d336214	0.043794706
179	0xbd51e837	-0.051246848
180	0xbd9e1a64	-0.07719877
181	0xbd924c9d	-0.07143519
182	0xbd7bd162	-0.06147898
183	0xbb89a2a7	-0.004200298
184	0x3d85282a	0.06501801
185	0x3d655569	0.055989657
186	0xbd2277b8	-0.039664954
187	0x3d4e2015	0.050323565
188	0xbc7da7d9	-0.0154819125
189	0x3c67d87c	0.014150735
190	0x3d8c2e80	0.06844807
191	0xbd53fda5	-0.051755566
192	0x3c90e7c6	0.017688643
193	0x3cc3794c	0.02386155
194	0xbd7c3104	-0.061570182
195	0xbd97953c	-0.07401511
196	0xbe011f41	-0.12609579
197	0xbd32e5a1	-0.043676022
198	0x3d90961f	0.07059883
199	0x3d1649fa	0.036691643
200	0x3d55682b	0.052101295
201	0x3d985cb9	0.074395604
202	0x3d598118	0.05310163
203	0x3daf10d3	0.08548131
204	0x3cb7cf2d	0.022437656
205	0xbd978a91	-0.07399476
206	0x3ce14f7a	0.027503718
207	0xbd1c8ed3	-0.038222145
208	0xbcb68da7	-0.022284342
209	0x3d52a14d	0.05142336
210	0xbdda5831	-0.106613524
211	0xbd55fa8e	-0.0522409
212	0xbc169073	-0.009189713
213	0x3d973d14	0.073846966
214	0x3d373884	0.044731632
215	0x3d634fe0	0.055496097
216	0xbcba4979	-0.022740113
217	0xbcaae88f	-0.020862846
218	0xbcff99ef	-0.031201331
219	0xbdb165ca	-0.08661993
220	0xbd273bb1	-0.04082841
221	0x3ccc2258	0.02491872
222	0xbdfa9061	-0.12234569
223	0x3d9f55f7	0.07780068
224	0x3d8cf81a	0.06883259
225	0x3db8691d	0.09004424
226	0x3d99cd22	0.07509829
227	0xbced1420	-0.02894026
228	0xbcae8469	-0.021303372
229	0xbd9d6185	-0.07684616
230	0xbca6a251	-0.02034107
231	0xbd4c17cf	-0.049827393
232	0x3d09494e	0.033517174
233	0x3d17b7e2	0.0370406
234	0x3bcc9239	0.006243017
235	0xbe04f51a	-0.12984124
236	0x3cb8587b	0.022503128
237	0x3cc1f57e	0.02367663
238	0xbdada27a	-0.084782556
239	0x3d390c14	0.045177534
240	0x3d8a4169	0.06750757
241	0x3cedfa3c	0.029049985
242	0xbd816575	-0.063181795
243	0x3c061140	0.008182824
244	0xbd5612e7	-0.05226412
245	0x3cc1222a	0.023575861
246	0xbdc529d1	-0.096271165
247	0x3d8e82ab	0.06958517
248	0x39cd0066	0.00039100944
249	0xbd9c14de	-0.076211676
250	0x3daacbdc	0.08339664
251	0x3c8b6761	0.017017068
252	0xbd6a7fe8	-0.057250887
253	0xbcf426d8	-0.029803678
254	0xbdb57d33	-0.088617705
255	0x3d6664fe	0.056248657

fc3.bias f4 [64]
0	0x3f8cd690	1.1002979
1	0xbd11054c	-0.035405442
2	0xbd3ce167	-0.046113398
3	0xbd024680	-0.031805515
4	0xbe037033	-0.1283577
5	0x3db8f41b	0.090309344
6	0xbb0b5bf5	-0.0021264527
7	0x3f5d2a51	0.86392695
8	0xbdba28a7	-0.09089785
9	0x3f77b83e	0.96765506
10	0x3f77448e	0.9658898
11	0x3c990f2d	0.018683994
12	0x3f99bd48	1.2010889
13	0x3f68dcc8	0.90961885
14	0xbe0a9d11	-0.13536479
15	0xbd01e8df	-0.031716224
16	0x3e1241cf	0.14282916
17	0xbd65962b	-0.056051414
18	0x3f22f448	0.63653994
19	0xbdd5e6d1	-0.10444415
20	0x3ee4f0de	0.44715017
21	0xbe0a7ddb	-0.13524573
22	0xbd037379	-0.032092545
23	0x3f7d2bd3	0.98894995
24	0x3f854e45	1.0414511
25	0x3f3302df	0.69926256
26	0xbd8b446d	-0.068001606
27	0x3fcd8240	1.6055374
28	0x3da9f699	0.08298988
29	0xbdadc6f9	-0.08485217
30	0x3f815736	1.010474
31	0xbbeb7ade	-0.007186278
32	0x3f6ab8ea	0.91688406
33	0xbd8d1d79	-0.06890387
34	0x3e80a76d	0.25127736
35	0xbe00589b	-0.125338
36	0xbd5c242d	-0.053745437
37	0xbdca67ca	-0.098830774
38	0x3f616a81	0.8805314
39	0x3f61a887	0.8814778
40	0x3f97dd46	1.1864402
41	0xbcc01e32	-0.023451898
42	0x3f4510e0	0.76978874
43	0x3f4eb79f	0.80748934
44	0xbcbe1c42	-0.023206834
45	0xbd5d7407	-0.05406573
46	0x3f403bd1	0.7509127
47	0xbcc248b3	-0.023716306
48	0xbcaa1d64	-0.020765968
49	0x3f5b5ac8	0.85685396
50	0x3f80318c	1.001512
51	0xbda7586d	-0.08171163
52	0xbd2cf5c6	-0.042226575
53	0xbd5bf36f	-0.053698953
54	0x3f2acaad	0.6671551
55	0x3f76e1d7	0.96438354
56	0x3c054a1a	0.008135343
57	0xbd3e2b71	-0.046428148
58	0xbd48432c	-0.048892185
59	0xbd309eb4	-0.0431201
60	0x3f07c7c7	0.5303921
61	0x3f77fc9d	0.9686983
62	0xbb48849a	-0.0030596615
63	0x3e8423e2	0.25808626

fc4.weight f4 [1, 64]
0	0xbf967f8f	-1.1757678
1	0x3b41a767	0.0029549242
2	0xbde07ded	-0.109615184
3	0xbce4a52d	-0.027910793
4	0xbc173eb1	-0.009231255
5	0xbc0bd6dd	-0.008535114
6	0xbd07d554	-0.03316243
7	0x3e963555	0.29337564
8	0xbc5d9397	-0.013523958
9	0x3e53e3bb	0.20692341
10	0x3ea4d0e5	0.32190624
11	0xbd662159	-0.056184147
12	0x3db632ac	0.08896384
13	0x3f80ee2b	1.0072683
14	0xbdd738e9	-0.105089016
15	0x3d4d8551	0.05017597
16	0xbd9a8ca8	-0.07546359
17	0x3cd9820a	0.026551265
18	0x3a990193	0.0011673443
19	0xbd226faa	-0.039657272
20	0x3d08a8bc	0.033364043
21	0xbd48fd47	-0.04906967
22	0xbc65aa71	-0.014017687
23	0x3eba42be	0.36379045
24	0xbaa0331a	-0.0012222261
25	0x3eb3a0a7	0.35083506
26	0x3dc740fe	0.09729193
27	0x3f01b87b	0.5067212
28	0xbdb2c6d0	-0.08729327
29	0xbba10685	-0.0049141073
30	0x3d2f3779	0.042777512
31	0x3e342e65	0.17595823
32	0x3ea220c1	0.31665614
33	0xbd30ca51	-0.043161694
34	0x3ec8966c	0.39177263
35	0xbbcaef2d	-0.0061930628
36	0x3a191afe	0.0005840509
37	0x3d656da3	0.05601276
38	0x3ebf5486	0.37369174
39	0xbc2c4e7d	-0.01051676
40	0x3eb74f95	0.35802904
41	0xbd4f1996	-0.05056151
42	0xbc021559	-0.00793966
43	0x3c61315d	0.013744679
44	0xbb089dc5	-0.002084599
45	0xbb9c9500	-0.0047785044
46	0xbf2e2039	-0.6801792
47	0x3d6415b4	0.05568476
48	0x3b87b08a	0.004140918
49	0x3e9cfe99	0.30662993
50	0x3eb7131e	0.35756773
51	0xbd04e780	-0.032447338
52	0x3cffe990	0.031239301
53	0x3d136c0d	0.035991717
54	0xbf0bdb89	-0.5463186
55	0x3e89cccc	0.2691406
56	0xbdbc0122	-0.091799036
57	0xbdf8697f	-0.12129497
58	0xbd07a64d	-0.03311758
59	0x3c24cbd0	0.010058358
60	0x3cb79174	0.022408225
61	0x3e8d622b	0.2761396
62	0xbd08072e	-0.033209972
63	0xbdf42437	-0.1192097
