models/critic.pth (torch, 8520 bytes, 3 tensors)

fc1.weight f4 [128, 11]
-0.9186671 -0.44715276 -0.92878115 1.1498642 1.434079 0.79588366 1.4774392 0.1806065
0.10547784 -0.19534181 0.40408915 -0.88083667 -0.3199274 -1.0740947 1.6156981 1.279075
1.0303777 1.3239437 0.23668288 0.3996723 -0.43255222 -0.2325729 -0.9648074 -0.54906213
-0.7002294 1.3447902 1.4237406 1.3097228 1.5542972 0.42116752 0.041104052 0.14999086
-0.1784597 -0.72082794 -0.8124816 -0.568203 1.2873666 0.9443879 0.89718914 0.87370265
0.2661866 0.20271243 -0.6064281 -0.46268073 -0.7766287 -0.39358416 -0.60833055 1.5350623
1.0217547 1.0560749 1.1217247 0.5402373 0.46661907 0.12456804 -0.00047079654 0.0070217145
-0.038070202 0.0020769082 0.27932936 -0.05904004 0.10283765 -0.18256581 -0.15598588 -0.08374796
-0.13330871 -0.07514195 -1.0521429 -0.43467432 -0.66244835 1.7087185 0.9860736 1.3191476
0.94465595 0.13287553 -0.11788209 0.26108834 0.42485422 -0.92048126 -0.7973615 -0.7617832
0.8880206 0.83015287 1.3926573 1.4350824 0.17433709 0.48396075 0.11795624 -0.19001414
-0.8111542 -0.81717664 -0.96019894 1.547534 1.3128362 1.036776 1.4869899 0.36404356
0.08933716 0.08082654 0.08842589 -1.0043656 -0.3223038 -1.0403811 1.452347 1.0611722
1.2933226 1.5081242 0.19557244 0.2554471 0.07828801 0.49041227 -0.84652364 -0.67115283
-0.6642897 1.3395127 1.2623016 1.3283535 1.3608396 0.09574171 0.20661917 0.13826223
0.16799591 -1.1244512 -2.5037632 2.940045 0.88776356 1.7721349 0.9149145 1.7700864
0.52256227 0.74571574 -2.0734303 -1.8932642 1.9718996 2.4174445 2.68891 -1.0589888
-1.5290269 -1.6550812 -1.6125389 -0.6204306 -0.30531415 -0.9187851 -0.85556126 -1.0329814
-0.3156987 -0.9330184 1.0490261 0.86584496 1.2116903 1.5614357 -0.13214664 0.049866103
0.4095759 -0.39253044 -1.1200875 -0.7466044 -1.0186003 1.4538047 1.0462326 1.4195682
1.5122509 0.1778374 -0.09894092 0.40047732 0.013959394 -0.84931517 -0.7792957 -1.0491723
1.2874379 1.1546136 1.3763939 1.3919067 0.12242557 0.16985577 0.17978658 0.31023067
-0.7391808 -0.9034015 -0.9472588 1.2490605 1.1915643 1.2136915 1.4576098 0.073561415
0.04206036 0.32801095 -0.16080204 0.4097759 2.3663478 -3.1497777 -0.76115024 1.1398466
1.6696384 1.1143469 0.12304018 1.2814103 -1.6092086 -1.3016554 -0.49237466 -1.5750543
1.6786538 -1.8358538 -0.679635 1.5866416 2.0510886 -1.7420017 1.7127082 0.50174487
-2.3227406 0.94605386 1.1919711 1.3771595 -0.49535283 -1.4206569 -0.8090675 -1.4253321
1.0035287 0.03199838 0.126069 0.074171975 -1.3171127 0.38773867 1.3396841 1.0219855
0.22594781 1.2280906 0.36791107 -2.438941 -1.9543312 0.6600177 0.7953296 1.7883351
1.7229025 1.8842187 -1.0427595 -1.3031384 -1.168373 -1.3808612 -0.20574841 -0.054384924
-0.40804714 -0.533823 0.7453169 -4.3228188 3.5376596 0.5570748 0.5694277 0.6711006
0.7100443 -1.1580827 -1.3400924 0.25037634 0.60622156 -0.7287623 -0.33913514 -0.69641
00000000: c42d 6bbf 35f1 e4be 9ac4 6dbf c02e 933f
00000010: e78f b73f 08bf 4b3f ba1c bd3f e9f0 383e
00000020: c404 d83d af07 48be c6e4 ce3e 837e 61bf
00000030: 86cd a3be ef7b 89bf 32cf ce3f bbb8 a33f
00000040: 6be3 833f fd76 a93f ff5c 723e d9a1 cc3e
00000050: 7c77 ddbe 9727 6ebe 9efd 76bf 568f 0cbf
00000060: 3c42 33bf 1622 ac3f 223d b63f ffa4 a73f
00000070: 36f3 c63f 45a3 d73e b95c 283d 3497 193e
00000080: 24be 36be 2e88 38bf cbfe 4fbf c075 11bf
00000090: 6ec8 a43f 68c3 713f 30ae 653f faaa 5f3f
000000a0: 9c49 883e d993 4f3e df3e 1bbf 7de4 ecbe
000000b0: 23d1 46bf dd83 c9be 8dbb 1bbf ec7c c43f
000000c0: dcc8 823f 762d 873f ad94 8f3f fe4c 0a3f
000000d0: b2e8 ee3e 871d ff3d 3ed5 f6b9 6916 e63b
000000e0: 80ef 1bbd bd1c 083b 4204 8f3e f8d3 71bd
000000f0: 8c9c d23d 88f2 3abe c3ba 1fbe 0d84 abbd
00000100: 1482 08be 06e4 99bd 9eac 86bf a28d debe
00000110: 3796 29bf 4ab7 da3f 526f 7c3f d4d9 a83f
00000120: f9d4 713f 8610 083e 2a6c f1bd 5fad 853e
00000130: 7e86 d93e a9a4 6bbf e21f 4cbf 3904 43bf
00000140: 5155 633f e684 543f 9842 b23f c8b0 b73f
00000150: 6c85 323e b4c9 f73e 0b93 f13d 1193 42be
00000160: cda7 4fbf 7d32 51bf 99cf 75bf 9815 c63f
00000170: 040b a83f 13b5 843f af55 be3f eb63 ba3e
00000180: 67f6 b63d 6388 a53d a218 b53d 0d8f 80bf
00000190: 0105 a5be 352b 85bf 82e6 b93f 7ed4 873f
000001a0: 988b a53f 370a c13f 2444 483e f6c9 823e
000001b0: 7755 a03d 5117 fb3e c6b5 58bf acd0 2bbf
000001c0: e40e 2abf 2775 ab3f 1993 a13f 7d07 aa3f
000001d0: fe2f ae3f 3b14 c43d fa93 533e 9d94 0d3e
000001e0: 1f07 2c3e 04ee 8fbf a83d 20c0 b329 3c40
000001f0: 7944 633f 51d5 e23f d637 6a3f 3192 e23f
00000200: a4c6 053f 3ae7 3e3f 15b3 04c0 7b56 f2bf
00000210: 3567 fc3f 69b7 1a40 1a17 2c40 f28c 87bf
00000220: 27b7 c3bf b3d9 d3bf ad67 cebf 8ad4 1ebf
00000230: 2352 9cbe 8035 6bbf 1006 5bbf bc38 84bf
00000240: 43a3 a1be 4bda 6ebf 7d46 863f 04a8 5d3f
00000250: ab18 9b3f 20dd c73f 7351 07be 6640 4c3d
00000260: efb3 d13e c0f9 c8be 075f 8fbf 7721 3fbf
00000270: 7f61 82bf 4616 ba3f f3ea 853f 69b4 b53f
00000280: 7091 c13f 021b 363e 89a1 cabd 5d0b cd3e
00000290: f1b5 643c b86c 59bf ec7f 47bf 474b 86bf
000002a0: c4ca a43f 61ca 933f ad2d b03f 002a b23f
000002b0: 42ba fa3d acee 2d3e f919 383e 8ed6 9e3e
000002c0: f43a 3dbf 5245 67bf 8d7f 72bf 37e1 9f3f
000002d0: 2e85 983f 3e5a 9b3f f592 ba3f 5ea7 963d
000002e0: 7c47 2c3d 0df1 a73e 4aa9 24be 26ce d13e
000002f0: 3e72 1740 f595 49c0 beda 42bf 7ee6 913f
00000300: b6b6 d53f eba2 8e3f 7dfc fb3d 4105 a43f
00000310: 8cfa cdbf a59c a6bf 8818 fcbe 619b c9bf
00000320: 21de d63f 42fd eabf 8ffc 2dbf 1217 cb3f
00000330: 0945 0340 e9f9 debf 063a db3f 5a72 003f
00000340: c8a7 14c0 9630 723f 8292 983f c346 b03f
00000350: e39e fdbe 16d8 b5bf 0c1f 4fbf 4871 b6bf
00000360: a173 803f bc10 033d 3b18 013e 7ae7 973d
00000370: 2697 a8bf af85 c63e c57a ab3f 6cd0 823f
00000380: dd5e 673e 1332 9d3f d75e bc3e 9c17 1cc0
00000390: 8627 fabf ecf6 283f b89a 4b3f 2ae8 e43f
000003a0: 1288 dc3f 142e f13f 2579 85bf 3dcd a6bf
000003b0: 3f8d 95bf 0fc0 b0bf b6af 52be bac2 5ebd
000003c0: 8eeb d0be a0a8 08bf 17cd 3e3f 8854 8ac0
000003d0: 0469 6240 749c 0e3f 04c6 113f 40cd 2b3f
000003e0: 77c5 353f 0e3c 94bf 2688 abbf 5431 803e
000003f0: 5631 1b3f 2b90 3abf 1fa3 adbe ed47 32bf

fc1.bias f4 [128]
1.8802774 1.7012424 2.1392865 1.7763379 2.271585 -0.23093396 2.0276558 1.8354198
2.3786924 2.3679638 2.344447 1.2106446 -1.8495406 1.983473 2.3630393 2.1858013
2.2456982 0.16791968 0.32607484 -1.2765266 0.29847732 -1.6603248 -0.04629159 1.5910267
1.8938919 1.9990296 2.2738364 0.2493642 1.0661585 1.7563118 -0.15704457 2.44964
1.980137 1.8335553 2.4454465 2.0830922 2.2204351 2.2810242 2.2239072 0.29208112
1.3855408 2.2192755 -0.1721818 -1.2868359 2.0534995 2.3442688 1.9649805 1.7593741
2.3509066 1.9987592 2.1585095 1.3435742 2.4792454 2.2301116 2.3669772 2.315108
2.1920326 1.0810871 2.2660227 2.1765661 1.2748306 1.8291712 2.3111942 -0.28932753
2.023586 -0.0040721 0.8481683 2.3628352 -0.035831265 1.4984868 1.5483754 2.1733508
2.2413254 -1.6639212 2.3828485 2.2213535 1.920757 -1.3029932 1.8966817 2.2494752
-0.18513319 -0.33753642 2.0476987 2.3079445 2.4124477 2.255307 2.4463441 1.9558089
1.9227557 -1.9618396 1.8817754 2.0279253 2.3374166 -1.5025053 1.722329 2.3448434
0.11892713 2.2673383 -0.27384484 1.7676451 1.9452934 0.82229125 2.3648646 -1.1662906
2.481081 2.3968492 2.0343485 -0.15479802 2.3329976 1.2248136 2.343811 -1.7923933
-0.3209552 -1.7239974 -1.5947689 2.0222838 2.3446667 1.8540707 2.1514895 2.1793528
1.7588173 0.98999196 2.2085419 2.103716 2.1510234 0.280544 2.3298383 2.189656
00000000: eeac f03f 50c2 d93f 12ea 0840 0a5f e33f
00000010: a661 1140 f479 6cbe 1dc5 0140 09ef ea3f
00000020: 7f3c 1840 b88c 1740 6b0b 1640 67f6 9a3f
00000030: bfbd ecbf 71e2 fd3f 093c 1740 2be4 0b40
00000040: 85b9 0f40 23f3 2b3e 48f3 a63e 3965 a3bf
00000050: 05d2 983e 8685 d4bf 409c 3dbd c3a6 cb3f
00000060: 0d6b f23f 34e0 ff3f 8986 1140 5459 7f3e
00000070: e277 883f d3ce e03f 4bd0 20be e7c6 1c40
00000080: 2175 fd3f f1b1 ea3f 3282 1c40 6251 0540
00000090: 9c1b 0e40 4dfc 1140 7f54 0e40 a88b 953e
000000a0: 6759 b13f 9c08 0e40 6d50 30be 0ab7 a4bf
000000b0: 896c 0340 8008 1640 7b84 fb3f 2c33 e13f
000000c0: 4175 1640 57d7 ff3f 0525 0a40 3dfa ab3f
000000d0: f5ab 1e40 26ba 0e40 8e7c 1740 bb2a 1440
000000e0: 434a 0c40 1061 8a3f 8406 1140 dc4c 0b40
000000f0: a62d a33f 4822 ea3f 9bea 1340 bd22 94be
00000100: 6f82 0140 406f 85bb 8f21 593f b138 1740
00000110: cec3 12bd 6ace bf3f 2a31 c63f 2e18 0b40
00000120: e071 0f40 5ffb d4bf 9780 1840 a82a 0e40
00000130: 5edb f53f 7bc8 a6bf 77c6 f23f 67f7 0f40
00000140: 8e93 3dbe 93d1 acbe 7f0d 0340 5db5 1340
00000150: 8b65 1a40 f356 1040 e790 1c40 f257 fa3f
00000160: dc1c f63f 8f1d fbbf 04de f03f 87c9 0140
00000170: 3c98 1540 1852 c0bf 4775 dc3f ea11 1640
00000180: 1190 f33d 121c 1140 6435 8cbe 3242 e23f
00000190: 60ff f83f ae81 523f f159 1740 0349 95bf
000001a0: 08ca 1e40 fa65 1940 c432 0240 5f83 1ebe
000001b0: d54f 1540 b1c6 9c3f 0001 1640 256d e5bf
000001c0: 3d54 a4be f2ab dcbf 6321 ccbf 196d 0140
000001d0: 050f 1640 3052 ed3f 01b2 0940 847a 0b40
000001e0: ed20 e13f 1d70 7d3f c058 0d40 48a3 0640
000001f0: 5eaa 0940 77a3 8f3e 121c 1540 5323 0c40

fc2.weight f4 [1, 128]
1.7468007 1.9070188 1.8134243 2.4414065 1.6335504 -0.00025038945 1.7030498 1.8239485
2.0194612 1.8211628 1.8306769 6.5045123 -7.138181 2.0152524 2.1061695 2.0768857
1.9609803 6.187439 4.9905763 -3.6550975 4.69435 -6.445388 6.9190707 1.853495
-7.1341805 2.1844032 1.9042575 5.347048 2.2612233 1.8424929 -2.247259 1.8759847
1.8398002 1.8419918 1.9545447 1.873551 1.9009943 2.018743 1.638113 3.7575054
2.746409 1.6831224 0.015084084 -5.096858 1.8779919 1.9571985 2.1797993 1.6455086
1.994531 1.6396586 1.9084712 2.1934223 -5.8715034 1.7054983 1.894273 2.0613782
1.9197905 2.9170585 2.0946908 2.0858471 2.2037845 1.8599695 2.138146 -2.4464397
1.8134897 -0.074988686 2.5369506 1.7452908 -2.3394835 2.1667523 1.3726915 1.6593217
1.9791541 -5.082279 1.8855544 1.855763 2.1181917 5.88342 1.6730452 2.1163104
7.9811425 4.3805103 1.6254565 1.6641687 2.163876 1.812326 2.0199656 1.887841
1.9189736 -7.310379 2.1750648 1.7219468 2.217373 -5.4828053 1.5232503 2.0641189
6.5771446 1.842338 -0.034843035 1.7143487 1.5367397 5.490234 1.7699536 -3.7678998
1.8127809 2.186337 1.7721536 -0.0007600859 1.5513127 2.4343793 2.1087258 -6.237521
0.01387475 -6.3061976 -5.842467 1.8239447 1.6624295 1.8402892 1.8146237 1.7508788
2.003601 1.8389667 1.9239994 1.8458154 1.7514353 5.943343 2.0783753 1.8741032
00000000: 2a97 df3f 3119 f43f 4a1e e83f 0140 1c40
00000010: 2e18 d13f b446 83b9 89fd d93f 2577 e93f
00000020: da3e 0140 dd1b e93f 9f53 ea3f f724 d040
00000030: fb6b e4c0 e5f9 0040 7bcb 0640 b2eb 0440
00000040: 6701 fb3f 80ff c540 cdb2 9f40 1eed 69c0
00000050: 1d38 9640 9e40 cec0 0769 dd40 533f ed3f
00000060: 354b e4c0 43cd 0b40 b6be f33f 041b ab40
00000070: e2b7 1040 cfd6 eb3f 17d3 0fc0 4420 f03f
00000080: 937e eb3f 63c6 eb3f 852e fa3f 85d0 ef3f
00000090: c853 f33f 1633 0140 b0ad d13f f87a 7040
000000a0: 2ac5 2f40 8e70 d73f 3c23 773c 7619 a3c0
000000b0: 0a62 f03f 7b85 fa3f d581 0b40 07a0 d23f
000000c0: cb4c ff3f 55e0 d13f c948 f43f 0861 0c40
000000d0: 5be3 bbc0 c54d da3f 8a77 f23f 9fed 0340
000000e0: b2bb f53f 16b1 3a40 6a0f 0640 857e 0540
000000f0: ce0a 0d40 7b13 ee3f 62d7 0840 7892 1cc0
00000100: 6e20 e83f ab93 99bd 665d 2240 b065 df3f
00000110: 19ba 15c0 12ac 0a40 5bb4 af3f a764 d43f
00000120: ec54 fd3f 08a2 a2c0 d959 f13f a489 ed3f
00000130: 7490 0740 fa44 bc40 5826 d63f a171 0740
00000140: 8565 ff40 242d 8c40 f50e d03f 7b03 d53f
00000150: f27c 0a40 4cfa e73f 1e47 0140 c6a4 f13f
00000160: eda0 f53f a0ee e9c0 4334 0b40 c168 dc3f
00000170: 70e9 0d40 2473 afc0 def9 c23f 861a 0440
00000180: f877 d240 bbd1 eb3f 92b7 0ebd c76f db3f
00000190: e3b3 c43f ffaf af40 d78d e23f 4525 71c0
000001a0: 3409 e83f f2ec 0b40 eed5 e23f 8040 47ba
000001b0: 6a91 c63f dfcc 1b40 5df5 0640 c699 c7c0
000001c0: eb52 633c 5fcc c9c0 7df5 bac0 0577 e93f
000001d0: 7dca d43f 998e eb3f 9745 e83f cc1c e03f
000001e0: 003b 0040 4363 eb3f 9d45 f63f ae43 ec3f
000001f0: 082f e03f de2f be40 1a04 0540 9de2 ef3f
